notebooks/lightning_logs/version_134/checkpoints/epoch=14-step=3809.ckpt (torch, 10127 bytes, 3 tensors)

fc1.weight f4 [20, 94]
000000 2e ec e3 3d 84 6f c9 3d 02 56 7c bd cf 52 fa 3c
       0.11129032 0.09835723 -0.06160546 0.030557064
000010 6f 50 83 bd ad 28 3e bd a0 78 af bd 5c b6 fb 3c
       -0.06411826 -0.04642551 -0.08567929 0.030726604
000020 fd 1e 07 3c 67 ab 7e bc 57 81 9a 3d 6d 63 06 bd
       0.008247134 -0.015543795 0.07544201 -0.032809664
000030 8f 3c be bd 64 0a 5b 3d b5 9b 8d bd 85 4e 94 3c
       -0.092888944 0.053476706 -0.069144644 0.018103847
000040 98 b4 f4 3c f3 ff 8a 3d 51 20 c9 bd b6 e8 1f 3c
       0.02987127 0.067871 -0.09820617 0.009760072
000050 46 4d 16 be ee 9e 18 be 34 a2 a6 bd 38 93 5f bd
       -0.14677915 -0.14904377 -0.081364065 -0.054583758
000060 0c 93 a4 bd 39 7f 2f bd 2b 1b 83 bd 6a 11 b0 bd
       -0.080358595 -0.04284594 -0.06401666 -0.085970715
000070 93 2e 10 3a 48 3c 96 3d 1f ad ae bc 6c 3a a0 3d
       0.0005500104 0.073357165 -0.021322785 0.07823643
000080 2b a8 8c 3c f7 71 a9 3d 3f af 35 3c 84 dd 37 3d
       0.017170032 0.0827369 0.011089145 0.044888988
000090 d6 b4 82 3d 64 14 11 3e 56 d4 03 3e 17 44 34 3d
       0.06382148 0.14167935 0.12873968 0.044010248
0000a0 8b b2 16 3e 1d 6c 2c bd 40 96 8d 3d 07 95 17 3d
       0.14716546 -0.042095292 0.069134235 0.037007358
0000b0 04 28 49 be ed 5c 85 bd 90 d7 58 bd f2 ba 01 3d
       -0.19644171 -0.06511865 -0.05293995 0.031672426
0000c0 6e 72 a9 bb 18 1d ba 3d 2e 98 25 bd 53 38 89 3d
       -0.005171112 0.090875804 -0.040428333 0.06700196
0000d0 fa 2b 5c 3d 76 e5 80 3d e9 36 c5 3d 74 b4 02 bd
       0.053752877 0.06293766 0.09629614 -0.031910375
0000e0 d3 34 b6 3c de 81 9d 3a dc 8c 95 bc 9e 8e 3b bd
       0.022241985 0.0012016853 -0.018255644 -0.045790307
0000f0 8b 50 3c bd 3e dd 33 3d 48 44 1a bd c3 75 a4 bd
       -0.04597525 0.043912165 -0.037662774 -0.08030274
000100 ca 4c 1e 3d be 0f 88 3d 27 64 b8 bd 57 a7 a5 3d
       0.03864745 0.066436276 -0.090034775 0.08088558
000110 5e 6e 23 bd ba 54 9a bd f3 ae 60 3d 3a 5a 94 bd
       -0.039900176 -0.075356916 0.054854345 -0.07243772
000120 76 aa 2c bd b3 d1 a6 3d 13 db f9 bb 4f 87 04 bd
       -0.04215475 0.08145466 -0.0076249926 -0.032355603
000130 26 35 b0 3d 47 3b cd 3c 7a 69 64 3d 5c 1c a5 bd
       0.08603887 0.02505268 0.055764653 -0.0806205
000140 d2 4d b8 3d b9 17 70 3c d2 9e c7 3c 66 28 cc bb
       0.08999218 0.014654093 0.024367724 -0.006230402
000150 f0 f0 4b 3d 77 1f bb bc 98 9b a4 bc 2c 55 fa bd
       0.049790323 -0.022842152 -0.020093724 -0.122232765
000160 77 29 be bd f4 3e 46 3d 3d 7b ed 3d e0 d6 03 3d
       -0.092852525 0.04839988 0.115957715 0.032187343
000170 8d c1 a0 bd 46 71 af bd ac be a8 3d e7 e8 28 bd
       -0.07849417 -0.08566527 0.08239493 -0.041237738
000180 22 d1 c7 3d c7 d3 ad bd a3 d2 c4 3d 5b 26 c1 3d
       0.09756686 -0.08487659 0.09610488 0.09431144
000190 31 5e 0d 3d c8 21 a2 3d fc d1 cb 3c b9 cf 01 be
       0.034513656 0.079165995 0.024880402 -0.12676896
0001a0 60 ea a6 3d 56 fe 89 bb a0 87 92 bb 47 c2 c1 bb
       0.08150172 -0.0042112274 -0.004471734 -0.0059130522
0001b0 ee f3 80 bc a9 5f b6 bd 25 f1 66 bd 42 6e b1 bd
       -0.015741315 -0.089049645 -0.056382317 -0.08663608
0001c0 98 d5 6e 3d d0 5d b2 bc e5 40 17 3e 87 6b b2 3d
       0.058309168 -0.021773249 0.14770849 0.087119155
0001d0 5d e5 92 3d db 48 0c 3e 24 5d e0 3d ee 40 f2 bb
       0.07172654 0.13699667 0.10955265 -0.007392994
0001e0 b1 84 94 bd 04 69 98 3d 4e 0a 31 bd 24 7e a3 bd
       -0.072518714 0.07441905 -0.043222718 -0.07983044
0001f0 99 66 58 bd a5 55 ac 3c 43 45 b0 bd 16 e8 c4 bd
       -0.05283222 0.021036932 -0.086069606 -0.096145794
000200 b3 5e ad bd b0 3f 17 bd 10 e0 25 3c d7 53 0a 3d
       -0.08465328 -0.03692597 0.010124221 0.033771362
000210 c6 cc 40 3b 27 e1 28 bd bd 22 c6 3d c3 0f ce 3d
       0.002941893 -0.041230347 0.096745946 0.100616
000220 bc 11 8c be b4 bb 91 bc 76 d5 c5 3e a4 4c 75 3d
       -0.2735728 -0.0177897 0.3863942 0.059887543
000230 5e b8 e0 bc 6e 14 8c 3d 38 3e c2 bd 2d 25 5e bd
       -0.027431663 0.06839834 -0.094845235 -0.054234672
000240 72 7d c3 bd 25 d2 9e bc aa 1e 8e bd ae c9 14 3d
       -0.09545411 -0.019387314 -0.069394425 0.03632515
000250 32 f2 e8 3c 32 2b a4 3c 38 c8 ba bc fc f0 53 3b
       0.0284358 0.020040128 -0.02280055 0.0032339683
000260 67 7d 17 bd bb 54 83 bd d3 a0 b0 bd 05 97 69 bd
       -0.036984827 -0.064126454 -0.08624425 -0.05702879
000270 5d 28 df bd 3d 34 4c bd ed d2 7f bb 1c 69 53 3c
       -0.108963706 -0.049854506 -0.0039035634 0.012903478
000280 0f 96 89 bb f7 5d 62 bc 1a 80 45 bd 0c 0a 3c bd
       -0.0041987966 -0.013816348 -0.04821787 -0.04590802
000290 ad 82 64 3d 83 4d be 3d a1 cf 51 3d 09 49 4d bd
       0.055788685 0.09292128 0.0512234 -0.05011848
0002a0 5f a3 b8 3d 9f 66 60 bd 23 5e a4 3d 6c 35 82 3c
       0.090155356 -0.054785367 0.08025768 0.015894614
0002b0 ea 27 c9 3b 28 fe b8 3d b7 aa a5 bd 0a ea 4a bd
       0.0061387913 0.090328515 -0.08089202 -0.049539603
0002c0 84 cc aa 3d 46 f2 5b bd 08 4b 30 3d 9c 03 fa bc
       0.083397895 -0.053697847 0.043040305 -0.0305193
0002d0 c7 9b ca 3d 92 0a 22 bd b4 84 09 3d 63 e2 d2 3c
       0.098929934 -0.039560862 0.03357382 0.025742715
0002e0 8a b2 8a bd 31 ec cf 3d e6 b6 b2 3c a1 58 5a bb
       -0.06772335 0.10152472 0.021815728 -0.0033316987
0002f0 66 f8 00 3e 3f 97 5f 3d 45 b1 44 3d ed 1f fa 3c
       0.12594756 0.0545876 0.04802062 0.030532802
000300 b2 50 dd bd 9e 94 31 bd 30 98 69 3d 59 df c0 3d
       -0.10806407 -0.043354623 0.057029903 0.094176
000310 e0 9c 02 bd 96 91 13 3d b4 62 fc bc 7c 1e a5 3d
       -0.03188789 0.036027513 -0.030808784 0.08062455
000320 62 1c 08 3d 4e 13 82 bd b0 dd da 3d 85 f5 46 bd
       0.033230193 -0.06351338 0.10686815 -0.04857399
000330 f0 46 e4 bc e3 4c a8 bd 7f 42 84 3c 18 f0 f9 bd
       -0.027865857 -0.0821779 0.016144989 -0.122039974
000340 62 10 58 bd e2 e3 31 bd 9f 29 32 bd 10 d6 d7 3a
       -0.05275 -0.043430217 -0.043496724 0.0016466994
000350 25 12 59 3d c0 2c 5d bd a1 72 4c 3c 7b 20 ba bd
       0.05299582 -0.053997755 0.012478502 -0.090882264
000360 00 17 98 bd 48 d7 e0 bd 1a 04 73 bd 5a 1e 29 bd
       -0.07426262 -0.10978562 -0.059330083 -0.04128871
000370 cb 8b b5 3d 16 16 74 bb 9a cc 5c 3d 35 1a 8e bb
       0.08864554 -0.003724461 0.05390606 -0.00433662
000380 c0 62 39 bd 7f 97 14 3d 38 6c d7 3a c4 92 f9 3d
       -0.04526019 0.03627729 0.001643545 0.121861964
000390 ca e7 83 3d fd 08 f7 bc 28 be c6 3d 8d cc 55 3d
       0.06440695 -0.030155653 0.09704238 0.052197028
0003a0 5b 0b 0a be 9d ac 68 bd 71 27 6c 3d 6d e6 77 bc
       -0.13480894 -0.05680524 0.0576548 -0.015130621
0003b0 a3 ac c8 3d 05 33 c0 3d c0 ce 3a 3d 40 8e 3c 3d
       0.09798553 0.09384731 0.04560733 0.046034098
0003c0 2c f1 84 3c 4a e0 14 3b 57 9e a8 3d 8e dc 5d bd
       0.016228281 0.0022716695 0.08233326 -0.054165415
0003d0 1e 90 d4 3d 62 97 9f 3d 34 11 a1 3c 67 e8 9c 3c
       0.10379051 0.07792546 0.019661523 0.019153787
0003e0 ff c1 a6 3d 62 1c 4e bc c3 cd f1 3b 60 d8 99 3d
       0.081424706 -0.012580009 0.007379265 0.075119734
0003f0 74 f7 57 bd 50 8b ab bc 3c bf 87 3c 48 0a 52 3d
       -0.052726224 -0.020940453 0.01657068 0.051279336

fc1.bias f4 [20]
000000 85 41 4b bb a5 7c a9 3d 58 51 ee bc f0 fe 73 bd
       -0.0031014394 0.08275727 -0.029091522 -0.0595693
000010 50 ac 90 3d 3f 0a 0a 3d dd 76 20 be 49 04 5f be
       0.07064116 0.033701178 -0.15670343 -0.21778978
000020 ff 60 ac be 2c 93 65 3d a1 c6 32 be 1a 44 a3 ba
       -0.33667752 0.056048557 -0.17458583 -0.0012456209
000030 c9 68 46 bd f5 b7 e0 bd b5 3a b7 bd 53 94 87 be
       -0.048439775 -0.10972587 -0.08946744 -0.2648035
000040 c5 ac 16 be 17 61 56 bd d6 aa 9c bc 2c 98 81 3c
       -0.14714344 -0.052338686 -0.01912443 0.015819632

fc2.weight f4 [1, 20]
000000 15 80 e4 3d f8 f7 29 bf 3b 9c a9 bb 81 69 b6 3e
       0.11157242 -0.66393995 -0.005176095 0.35627368
000010 03 e6 c3 be 21 e0 6a bf 39 c1 30 3f 65 0c 19 3f
       -0.38261423 -0.91748244 0.69044834 0.5978454
000020 29 cb 9d 3f f3 35 65 bf ef e6 35 3f 16 23 12 bf
       1.2327625 -0.89535445 0.710555 -0.57084787
000030 4f 0e 2b bf 2e 4b 8d 3d 58 cd fc 3e 0f f7 90 3f
       -0.6681871 0.06899105 0.49375415 1.1325396
000040 3e bd 35 3f 68 0f 26 3e 80 87 94 3e 4c ad 82 bf
       0.70991886 0.16216815 0.29009628 -1.0209136
