notebooks/lightning_logs/version_107/checkpoints/epoch=1-step=507.ckpt (torch, 10391 bytes, 3 tensors)

fc1.weight f4 [20, 94]
0	0x3b6a9491	0.003579412
1	0xbc0598e4	-0.008154128
2	0x3ca4a3fe	0.020097729
3	0xbd0990b3	-0.03358526
4	0xbc8ff816	-0.017574351
5	0xbdd4635f	-0.10370516
6	0xbd9e9dbf	-0.077449314
7	0x3c0ae2ff	0.008476972
8	0xbd4ca193	-0.049958777
9	0xbdbcdf2c	-0.09222254
10	0x3d669859	0.056297634
11	0xbbc49456	-0.0059991283
12	0x3daa3ca7	0.0831235
13	0xbd746e48	-0.059675485
14	0xba275f0f	-0.0006384709
15	0xbd2e093f	-0.042489287
16	0xbcec122c	-0.028817259
17	0xbd08ef63	-0.033431422
18	0x3b3d6e71	0.002890494
19	0x3c6ac052	0.014328079
20	0x3c247537	0.010037712
21	0x3ddc6434	0.107613
22	0x3db73ab8	0.089467466
23	0x3d7ff23d	0.062486876
24	0x3d3963e7	0.04526129
25	0x3ba65759	0.0050763306
26	0xbc65ba96	-0.014021536
27	0x3d55fea8	0.052244812
28	0x3d7c81c2	0.061647184
29	0x3b9e0c39	0.0048232344
30	0xbd52ffe4	-0.051513568
31	0xbd6ba4c6	-0.057530187
32	0x3d1fba46	0.038996004
33	0x3d8cf9d3	0.06883588
34	0x3c8e32f7	0.017358286
35	0x3ad447e4	0.0016195741
36	0x3d8e6c24	0.0695422
37	0xbc5a1e2f	-0.01331286
38	0x3dcc13e8	0.09964734
39	0x3d9cc9a2	0.07655646
40	0xbdaa3932	-0.083116904
41	0xbd9f18f1	-0.07768429
42	0x3d3f1c12	0.04665763
43	0x3b059358	0.0020382013
44	0x3d4af398	0.049548715
45	0xbd0579b9	-0.032586787
46	0xbd077c7c	-0.033077702
47	0x3a7c9869	0.0009635748
48	0xbcbef478	-0.023309931
49	0xbc5c97c6	-0.01346392
50	0xbd79b190	-0.060960352
51	0xbca335dd	-0.019923145
52	0xbd880fe5	-0.06643657
53	0xbcc8acc3	-0.024496442
54	0xbc473361	-0.012158246
55	0x3d04bf7c	0.032409176
56	0x3d879719	0.066206165
57	0x3db47069	0.08810503
58	0x3d03c982	0.032174595
59	0xbdc06fb6	-0.09396307
60	0x3da5dcd1	0.08098758
61	0x3d739c54	0.059475258
62	0x3d8a3ac5	0.06749491
63	0x3d9b821e	0.07593177
64	0xbd129f3a	-0.03579638
65	0x3c6b430a	0.014359245
66	0xbd8e6a5f	-0.069538824
67	0x3dcd723b	0.10031553
68	0xbdc5a45a	-0.09650488
69	0xbdcbbfa5	-0.09948663
70	0x3db58363	0.08862951
71	0xbd1093e3	-0.035297286
72	0x3d3e7f64	0.046508208
73	0x3dd0343b	0.10166212
74	0x3ca1ac69	0.019735532
75	0x3dc6ef85	0.097136535
76	0xbcbbecfc	-0.022940151
77	0x3d725f56	0.05917295
78	0x3bbdc821	0.0057916795
79	0x3c66990f	0.014074578
80	0x3d8e48f9	0.06947512
81	0x3cf2a074	0.029617526
82	0xbdcd192e	-0.10014568
83	0xbd1e13c4	-0.03859307
84	0xbc4d11a3	-0.012516412
85	0x3d0bcb07	0.03412917
86	0x3dd37a34	0.10326043
87	0xbcfc114a	-0.030769963
88	0x3d8f276f	0.06989943
89	0xbbb25e55	-0.005443374
90	0xbdce44fa	-0.1007175
91	0x3c823985	0.015896568
92	0x3cb1a52b	0.021685204
93	0x3dbd7712	0.092512265
94	0xbc865a3d	-0.01640045
95	0x3d94040e	0.07227336
96	0x3d300ba7	0.042979863
97	0x3c0dcdee	0.0086550545
98	0xbcf61fac	-0.0300444
99	0x3c820fc8	0.015876666
100	0x3d6056fe	0.054770462
101	0x3de5fb11	0.11229528
102	0x3d1767d0	0.036964238
103	0x3d1cd7c4	0.038291708
104	0x3dae9c01	0.08525849
105	0x3be14d4d	0.00687567
106	0x3d9e0aea	0.077169254
107	0x3bcd3986	0.006262961
108	0xbd3244e0	-0.043522716
109	0xbc805992	-0.01566771
110	0x3d8f402e	0.06994663
111	0xbb519798	-0.0031981226
112	0x3b989b98	0.00465722
113	0xbdcbd1ee	-0.0995215
114	0xbd958a2a	-0.07301743
115	0xbdaf95e6	-0.08573513
116	0x3d1c4ea8	0.03816095
117	0xbcd41ca3	-0.025892561
118	0x3cd6366a	0.026148994
119	0xbd74dd21	-0.059781197
120	0x3d1c580a	0.038169898
121	0xbd30a91c	-0.043130025
122	0x3d992e1b	0.07479497
123	0xbdc9f32d	-0.09860835
124	0x3dc7516e	0.09732328
125	0x3ca604d9	0.020265983
126	0xbdb33421	-0.08750177
127	0x3d95161c	0.07279608
128	0x3d9e625d	0.07733605
129	0xbd8e6b57	-0.06954067
130	0x3d9e70cc	0.07736358
131	0xbd8a3b0c	-0.067495435
132	0x3dd92b3b	0.10603949
133	0xbd27d05a	-0.040970184
134	0x3d746540	0.059666872
135	0x3d61d434	0.055134013
136	0xbce79a9f	-0.028271971
137	0x3d0c5292	0.034258433
138	0x3c336db1	0.010951445
139	0xbba1d69f	-0.004938915
140	0x3c8048c2	0.015659694
141	0xbdc0599c	-0.09392092
142	0xbd345439	-0.044025633
143	0x3d0246cc	0.0318058
144	0x3c90b695	0.017665187
145	0xbd450d46	-0.04810836
146	0x3ce14f64	0.027503677
147	0x3dabff48	0.083983004
148	0xbda81506	-0.08207135
149	0x3dca893e	0.09889458
150	0x3d3d7e1d	0.04626285
151	0x3d05a70b	0.032630008
152	0x3d3f9be9	0.046779547
153	0xbceec475	-0.029146412
154	0xbd84ba82	-0.06480886
155	0x3dc7d297	0.09756964
156	0x3cb5214d	0.022110606
157	0x3c8814b0	0.016611427
158	0xbd8cbd0a	-0.06871994
159	0xbd38c502	-0.045109756
160	0xbda85da9	-0.08220989
161	0xbdbdc9f3	-0.092670344
162	0xbcea9fa0	-0.028640568
163	0x3be1b918	0.00688852
164	0xbd20fc77	-0.03930327
165	0x3d462f92	0.04838521
166	0xbcacb108	-0.021080509
167	0xbd11b4bf	-0.035572764
168	0x3d7b294a	0.061318673
169	0xbdc0457c	-0.09388253
170	0x3ccce9d8	0.02501385
171	0x3dc615b3	0.096721075
172	0xbdb66d70	-0.08907592
173	0xbd7032e3	-0.05864228
174	0x3beef577	0.0072924453
175	0xbb4f55de	-0.0031636874
176	0xbda39ea5	-0.079892434
177	0xbdc0422c	-0.09387621
178	0x3dd26d73	0.10274782
179	0x3c82a363	0.01594705
180	0xbda11986	-0.07866196
181	0xbbf67211	-0.007520922
182	0xbcc159f1	-0.023602458
183	0x3dc9783e	0.098373875
184	0xbc8f833e	-0.017518636
185	0x3d8a614f	0.067568414
186	0xbd8a5076	-0.06753628
187	0xbdac2e3c	-0.08407256
188	0xbd7365fb	-0.059423428
189	0x3d938711	0.07203496
190	0xbcc6b980	-0.024258375
191	0x3caa4e38	0.02078925
192	0xbda57882	-0.08079626
193	0xbd009718	-0.031394094
194	0x3ca33366	0.01992197
195	0xbd74a5c0	-0.059728384
196	0xbcf95d9d	-0.030440146
197	0xbc2cda67	-0.010550118
198	0x3da82622	0.08210398
199	0x3d39a6dd	0.04532515
200	0x3db7032c	0.08936152
201	0xbc18f479	-0.009335631
202	0xbd8ac355	-0.06775538
203	0xbbbd64ee	-0.005779854
204	0x3d90e3fa	0.07074733
205	0xbc4b6ed1	-0.012416557
206	0xbdb89b27	-0.09013968
207	0xbd4f9828	-0.050682217
208	0xbddd5077	-0.10806363
209	0x3d8b1404	0.06790927
210	0xbdaf49d2	-0.08559002
211	0xbda36aaa	-0.07979329
212	0x3cf81262	0.030282203
213	0xbd79fdcf	-0.061033066
214	0xbd9be3bb	-0.076117955
215	0xbcd28a8e	-0.025700834
216	0x3d892ef5	0.066984095
217	0x3d327469	0.04356805
218	0x3db0e53f	0.08637475
219	0xbd802e4e	-0.06258832
220	0x3d264bc3	0.040599596
221	0xbcd8a4af	-0.026445715
222	0xbd772fcc	-0.060348317
223	0x3cb0a7ba	0.021564353
224	0xbd09ec11	-0.033672396
225	0x3c8ff9f3	0.01757524
226	0x3d7d703c	0.061874613
227	0x3de26a26	0.110554025
228	0xbb2aaa18	-0.0026041325
229	0xbda7690b	-0.08174332
230	0xbd5e2ef9	-0.054244015
231	0xbd8acabe	-0.06776951
232	0xbcdf1bef	-0.027235
233	0xbdcd7642	-0.100323215
234	0xbd1d0c36	-0.038341723
235	0xbd51f87c	-0.051262364
236	0xbda54cc0	-0.080712795
237	0xbdc4788e	-0.095933065
238	0x3d037959	0.032098148
239	0xbdcb01a2	-0.09912421
240	0x3d9c38bf	0.07628011
241	0x3d4ae443	0.049534094
242	0x3d8fbddb	0.07018634
243	0xbd4b5eaf	-0.049650844
244	0xbdab2a52	-0.08357681
245	0xbd49a1a7	-0.04922643
246	0x3b838768	0.0040139444
247	0x3d113649	0.03545216
248	0xbd22f323	-0.039782654
249	0xbdc57787	-0.09641939
250	0x3dab07f9	0.0835113
251	0xbcd7811a	-0.026306678
252	0x3d28f316	0.04124745
253	0x3d8b16c9	0.06791455
254	0xbd50474b	-0.05084924
255	0xbdbd2050	-0.09234679

fc1.bias f4 [20]
0	0x3da5cb9b	0.08095475
1	0xbdbb028c	-0.09131345
2	0xbd0248f3	-0.03180785
3	0xbd63d3a5	-0.05562176
4	0xbd4b8f12	-0.04969699
5	0xbda5d8ff	-0.08098029
6	0xbd2f2d2c	-0.04276769
7	0xbc97e37e	-0.018541094
8	0xbdd13afe	-0.1021633
9	0xbdd52ca7	-0.104089074
10	0x3ccbd294	0.024880685
11	0xbc28e707	-0.010308987
12	0x3dac2495	0.08405415
13	0x3d816b8b	0.0631934
14	0xbdbcc2df	-0.09216856
15	0x3d3c160f	0.045919474
16	0xbdb159bb	-0.08659693
17	0xbdcaaa47	-0.09895759
18	0x3da93cff	0.08263587
19	0x3d105e8e	0.035246424

fc2.weight f4 [1, 20]
0	0xbe2e2f54	-0.17010242
1	0x3c88e288	0.016709581
2	0xbcad65ba	-0.021166671
3	0xbea9d3a8	-0.33169293
4	0x3dc72972	0.09724702
5	0x3ad7fc10	0.0016478319
6	0x3d17525d	0.036943782
7	0x3ca4ca67	0.020116044
8	0xbe33443a	-0.17506495
9	0x3db568d2	0.088578835
10	0x3d87961a	0.066204265
11	0xbdc299c1	-0.095019825
12	0x3e6441c8	0.22290719
13	0xbe1d5fe8	-0.15368617
14	0xbd995445	-0.07486776
15	0x3ca317ba	0.019908775
16	0xbe7532dd	-0.23945184
17	0x3e83fe9d	0.25780192
18	0x3df56072	0.11981286
19	0x3e304b41	0.17216207
