trip_count_nn.pt (torch, 9359 bytes, 3 tensors)

fc1.weight f4 [20, 94]
0	0xbd04b790	-0.03240162
1	0xbd45276e	-0.048133306
2	0x3d6e4b46	0.058177255
3	0xbcecb6a2	-0.02889568
4	0xbd8916fd	-0.06693838
5	0x3d7c7721	0.061637048
6	0xbc2d16e5	-0.0105645405
7	0xbd3aca54	-0.04560311
8	0xbd1f3d6b	-0.038876932
9	0x3d7bbc17	0.061458673
10	0x3cc09648	0.02350916
11	0x3c2ebb46	0.010664767
12	0xbd62d1c3	-0.055375826
13	0xbdbab2eb	-0.09116157
14	0xbd8f8fcf	-0.07009851
15	0xbc54cb4f	-0.012987926
16	0xbda82e05	-0.082119025
17	0x3da59185	0.08084396
18	0xbdb10fc2	-0.08645584
19	0x3d8610a4	0.06546143
20	0xbc01996f	-0.007910117
21	0x3c317a01	0.010832311
22	0xbd868bda	-0.06569643
23	0x3db90abe	0.09035252
24	0x3c5303c9	0.01287932
25	0x3c762beb	0.015025119
26	0x3c792afd	0.015208003
27	0x3dc9b62c	0.098492
28	0x3d143863	0.036186587
29	0xbc1a03ee	-0.009400351
30	0xbcdb7b44	-0.026792176
31	0xbb9a2d1b	-0.004705084
32	0xbd85678a	-0.06513889
33	0x3db14fb6	0.08657782
34	0xbb117309	-0.002219381
35	0x3c8d3a3a	0.017239679
36	0xbc9cdf7a	-0.01914953
37	0xbda2c171	-0.07947052
38	0x3d527297	0.051378813
39	0xbcefab3f	-0.029256461
40	0xbdcd53b4	-0.10025731
41	0xbd9d548c	-0.07682142
42	0x3d1bc91c	0.03803359
43	0x3a6ddbbc	0.00090735755
44	0x3da6d225	0.08145551
45	0xbc4c0f3a	-0.012454802
46	0x3c41aca2	0.011820944
47	0xbdcb40da	-0.09924479
48	0x3da6cfc0	0.08145094
49	0xbd8d1943	-0.06889584
50	0xbb8f77ac	-0.0043782797
51	0x3dbf6390	0.09345162
52	0x3da78949	0.08180482
53	0x3dbd63ec	0.09247574
54	0x3d0efbf8	0.034908265
55	0x3d87f43e	0.066383824
56	0x392045fa	0.00015284857
57	0x3dbd2ce7	0.0923708
58	0x3da93f53	0.08264031
59	0x3db3b137	0.087740354
60	0x3dbf23be	0.09332989
61	0x3cfaccb1	0.030615183
62	0x3cb35a76	0.021893721
63	0x3db6c4a2	0.089242235
64	0xbccef94c	-0.025265358
65	0xbd29dc2d	-0.04146974
66	0x3cba817f	0.022766827
67	0x3d948fff	0.072540276
68	0x3d82433c	0.0636048
69	0xbcf39366	-0.029733371
70	0x39889850	0.00026053423
71	0x3d7a50a4	0.06111206
72	0x3bb94df6	0.0056550456
73	0x3c875e04	0.016524322
74	0xbd5e61b2	-0.05429239
75	0x3d413e75	0.047178704
76	0x3b530286	0.003219755
77	0x3d806b35	0.06270448
78	0xbd94afa2	-0.07260062
79	0xbdaedff3	-0.08538809
80	0x3d661b1d	0.0561782
81	0x3abd28ea	0.0014431749
82	0xbd0c36dd	-0.03423201
83	0xbd6518af	-0.055931743
84	0xbd995238	-0.07486385
85	0x3d8f6212	0.07001127
86	0x3d484e26	0.048902653
87	0x3d721524	0.059102193
88	0x3dac3c28	0.084099114
89	0xbc419768	-0.011815883
90	0x3da4be21	0.08044077
91	0xbd158b7c	-0.036509976
92	0xbdbe429b	-0.09290048
93	0x3dddb0ba	0.108247235
94	0xbd573273	-0.052538346
95	0x3d20bb19	0.03924093
96	0x3d2ea0bf	0.04263377
97	0x3ced01d6	0.02893154
98	0xbd22f3a1	-0.039783124
99	0xbd884219	-0.06653232
100	0x3d9df0f9	0.077119775
101	0x3cac0549	0.020998614
102	0xbdba69a3	-0.0910218
103	0xbcc7d6d2	-0.024394426
104	0x3dca3e1d	0.098751284
105	0x3ce8dc4f	0.028425364
106	0x3dc370ab	0.09542974
107	0xbb8452f8	-0.004038211
108	0x3bb390a2	0.005479888
109	0xbd8ef5cc	-0.06980476
110	0x3b530e60	0.0032204613
111	0x3db7fd3d	0.08983848
112	0xbcf7a6dd	-0.030230934
113	0x3db2f7b9	0.087386556
114	0xbde8afe6	-0.11361675
115	0xbba82776	-0.0051316572
116	0x3d720c8b	0.059093993
117	0x3d2c4bab	0.04206435
118	0xbdb7a808	-0.08967596
119	0xbdc7d7b9	-0.09757943
120	0xbdb2f883	-0.08738806
121	0x3d52bea1	0.05145133
122	0xbcc11434	-0.023569204
123	0xbcc00ef8	-0.023444638
124	0x3d5516ca	0.052023686
125	0x3d9fec48	0.07808739
126	0xbdb0e216	-0.086368725
127	0xbcc2264f	-0.023699908
128	0xbda29c58	-0.079399765
129	0xbd5a76e3	-0.053336035
130	0xbc63a249	-0.013893672
131	0xbd143eea	-0.036192812
132	0xbd9477d9	-0.072494216
133	0x3dc5bb1a	0.096548274
134	0x3d668046	0.056274675
135	0xbd8c46b6	-0.068494245
136	0x3c1982d4	0.009369571
137	0x3bf4410e	0.007454044
138	0xbd977783	-0.07395842
139	0xbdb0323b	-0.08603331
140	0x3d37940b	0.04481892
141	0xbd967ad2	-0.07347645
142	0x3dc3d4fe	0.095621094
143	0xbdc0872b	-0.09400781
144	0xbd23c5c8	-0.03998354
145	0x3d6df40e	0.058094077
146	0xbce885c5	-0.028384099
147	0x3da9a284	0.082829505
148	0xbdbb67fc	-0.09150693
149	0xbc52de8e	-0.012870444
150	0x3ce64518	0.028109118
151	0x3c32104f	0.010868146
152	0x3b8c9c9a	0.0042911293
153	0x3d1866bc	0.03720735
154	0x3daea32e	0.08527218
155	0xbd355971	-0.04427475
156	0xbd46db92	-0.048549242
157	0x3dabda3a	0.08391233
158	0x3d5274ba	0.05138085
159	0x3d118cb0	0.03553456
160	0x3d0bf1b0	0.034166038
161	0xbb00b15f	-0.0019636971
162	0x3d6eeca5	0.05833115
163	0x3c80c8a3	0.015720671
164	0x3dc7ebfd	0.09761808
165	0x3cb3f918	0.021969363
166	0xbcc02e3a	-0.023459543
167	0xbda3adae	-0.07992111
168	0x3cab257b	0.020891896
169	0xbda50e90	-0.08059418
170	0xbdadd2cd	-0.08487473
171	0x3d80ba57	0.062855415
172	0xbda16a6b	-0.07881626
173	0xbd8b8147	-0.06811767
174	0xbc53c070	-0.012924299
175	0x3db5d3e0	0.088783026
176	0xbd5e40d8	-0.05426106
177	0x3b408a33	0.0029379248
178	0x3cc1a74a	0.02363934
179	0x3ca8b051	0.020591887
180	0xbd25482f	-0.040352043
181	0xbd4fe531	-0.050755683
182	0xbceccfd1	-0.028907688
183	0xbd86a8f4	-0.06575194
184	0x3d057901	0.0325861
185	0x3d52a205	0.051424045
186	0x3d6bee2b	0.05760018
187	0x3b1385e7	0.0022510232
188	0xbd8d2e37	-0.068935804
189	0x3ca4c8ef	0.020115344
190	0x3d8803a4	0.066413194
191	0x3d0ba78d	0.034095336
192	0xbdcaa70c	-0.09895143
193	0xbdbf6b46	-0.09346633
194	0x3dbedb10	0.093191266
195	0x3d0ea9a7	0.03482976
196	0x3cb794ad	0.022409761
197	0xbdc0bba2	-0.09410788
198	0xbd885cd8	-0.066583335
199	0xbdbdeb05	-0.09273342
200	0xbd44d2c3	-0.04805256
201	0xbce2efcb	-0.027702233
202	0x3cba308d	0.022728229
203	0xbdd1917d	-0.10232828
204	0xbc7b0fb0	-0.015323564
205	0x3dc99498	0.09842795
206	0xbba04c88	-0.0048919357
207	0x3d9e02dd	0.0771539
208	0x3d8a5bc3	0.067557834
209	0xbda62ec9	-0.08114392
210	0x3c8be22b	0.017075619
211	0x3d8045c7	0.06263309
212	0xbd402ba5	-0.046916623
213	0xbc6d9ad3	-0.014502245
214	0xbdbe8176	-0.093020365
215	0x3d67d9e1	0.05660427
216	0xbcfb68c8	-0.030689612
217	0x3d5031ad	0.050828625
218	0xbd721dc5	-0.05911042
219	0xbd8a6ae6	-0.067586705
220	0xbbc1cbff	-0.005914211
221	0x3c6c2b5d	0.0144146355
222	0x3d8e85e6	0.06959133
223	0x3d952dcc	0.07284126
224	0xbdb14ab1	-0.086568244
225	0xbd84a1f1	-0.064762
226	0x3cca5684	0.024699457
227	0x3c8baf42	0.017051343
228	0x3da81d53	0.08208718
229	0x3c373ffc	0.011184689
230	0x3d79cdb9	0.060987208
231	0xbd11ee9b	-0.035627943
232	0x3dd876a0	0.10569501
233	0x3b22c68e	0.0024837586
234	0xbd592394	-0.053012446
235	0xbcf41adc	-0.029797964
236	0xbda7ffc0	-0.08203077
237	0x3d3561ae	0.044282608
238	0x3969c874	0.00022295286
239	0xbd0f6b8d	-0.035014678
240	0xbdcb8fa1	-0.099395044
241	0x3d9a87a4	0.07545403
242	0xbce69a58	-0.028149769
243	0xbd71cbe1	-0.059032325
244	0x3d4fe4d2	0.05075533
245	0x3d5b483b	0.05353568
246	0x3c3e91a5	0.011631404
247	0x3dd0b2f1	0.1019038
248	0x3ca28023	0.019836491
249	0x3d7acfca	0.06123332
250	0x3d9bb069	0.07602007
251	0x3dca3f61	0.0987537
252	0x3d9f6d83	0.077845596
253	0xbdaa70ef	-0.083223216
254	0xbbb2b616	-0.0054538352
255	0xbd09f7db	-0.03368364

fc1.bias f4 [20]
0	0xbcaf3b08	-0.021390453
1	0x3d8b83de	0.06812261
2	0x3c3d1d89	0.011542686
3	0xbc5962c9	-0.013268181
4	0xbd510a8b	-0.051035445
5	0x3d979ce7	0.074029736
6	0x3b796dd7	0.0038059854
7	0x3d3d4ccb	0.046215814
8	0xbd229ad1	-0.039698426
9	0xbd619cf3	-0.05508132
10	0x3dc188f3	0.09449949
11	0xbbfd61e5	-0.007732617
12	0xbdcc3c44	-0.09972432
13	0xbd25919e	-0.040422074
14	0xbdabd71d	-0.08390639
15	0xbcbf8444	-0.023378499
16	0x3d886dbb	0.066615544
17	0x3d549d99	0.05190811
18	0xbd3d5b8b	-0.04622988
19	0x3cc9086e	0.024540152

fc2.weight f4 [1, 20]
0	0xbe451bf7	-0.19248949
1	0x3dd10d47	0.102076106
2	0xbe6e967b	-0.23299591
3	0xbca35c52	-0.019941483
4	0x3d769ad3	0.060206246
5	0x3bfa6d11	0.0076423963
6	0x3b724d26	0.0036972254
7	0x3dd33293	0.10312381
8	0x3e242205	0.16028602
9	0xbcd11a88	-0.025525346
10	0x3d13c4f9	0.03607652
11	0x3dd43639	0.10361905
12	0xbe25d66a	-0.16195074
13	0xbe83e41a	-0.25759965
14	0x3ce686fe	0.028140541
15	0x3e06368b	0.13106744
16	0xbd8c8b8e	-0.068625554
17	0x3c1be9c5	0.009516184
18	0x3d0c8513	0.034306597
19	0xbe345503	-0.17610554
