notebooks/lightning_logs/version_147/checkpoints/epoch=0-step=253.ckpt (torch, 9999 bytes, 3 tensors)

fc1.weight f4 [20, 94]
-0.029707465 0.043771837 -0.04866264 0.09982592 0.034769256 -0.07363128 0.07940774 -0.06521463
-0.010801246 -0.0028912209 0.07560475 0.06313371 -0.0413109 -0.100394644 0.04513082 -0.07613567
-0.074807495 0.062583745 0.051007833 0.077716924 0.0640927 0.0070164963 -0.0031948017 -0.092171006
0.0387048 -0.047986455 -0.08172795 0.08410091 -0.04925498 0.012293352 -0.0005711352 -0.10066634
0.039680056 -0.06471938 0.03618679 0.023707421 0.049322795 -0.093061924 0.08251249 -0.06983681
-0.05135352 -0.06631305 -0.095388815 0.0139403595 0.017865814 0.017416025 -0.031600334 0.08921071
-0.016594691 0.028551409 -0.0866637 -0.034299415 -0.044620663 -0.070249595 0.04986425 -0.06421927
0.031174233 -0.022091636 -0.03044379 -0.054053254 -0.054636877 0.01177615 -0.017637618 0.036432702
-0.09505364 0.03676447 -0.0658413 0.016275182 0.026082542 0.054434318 0.07391414 -0.0027936664
0.031338863 -0.04415257 -0.042723067 -0.035344556 0.03782715 -0.0062914267 0.081388436 0.07923045
-0.0033155086 0.05548206 -0.05536 -0.0043604253 0.050919585 -0.012542529 0.033281192 -0.057516187
0.07325824 0.07215087 0.009693821 -0.02890412 -0.06441659 0.07508245 -0.059497993 0.03040146
0.05925295 0.0057571465 0.013418892 0.090978645 -0.08815288 -0.06801567 0.096638694 0.0065964647
0.05281234 -0.08086975 -0.07296968 -0.073130816 -0.076405756 0.024730396 0.09622799 0.048622094
-0.010585687 -0.010250276 0.06984984 -0.09874663 -0.10766876 -0.0806036 -0.09483604 -0.07978799
-0.071521565 0.014249661 0.054858644 -0.09125108 0.03337759 -0.010253377 -0.028188583 -0.012994131
0.04531908 0.06411017 -0.038209677 -0.023302056 0.053922314 0.03216816 -0.023689875 -0.032274824
-0.04613451 0.0062309033 0.016849037 0.06947384 0.05307136 -0.026621798 -0.08218202 -0.021453248
0.08210926 -0.063694604 -0.007342764 0.081812754 0.004244762 0.0286022 0.011155724 -0.07042132
0.07292669 -0.069688536 0.08776762 -0.03277522 0.053075626 0.011133823 0.021176701 -0.07940324
-0.018176043 -0.043016806 -0.066839 0.0148741305 -0.093826264 0.078142986 -0.05081421 -0.011129673
-0.005382748 -0.011552066 -0.078131616 0.04244999 0.07030978 0.043573864 0.099933185 0.011852613
-0.0109205255 0.0021230816 -0.006150932 -0.016011713 0.03384067 0.04682664 -0.104402386 -0.025657162
0.022775939 -0.04018725 -0.081964254 0.020898575 0.0968398 -0.048981097 0.00965463 -0.018032065
-0.07785965 -0.0860962 0.06326638 -0.053898662 0.042247858 0.019608658 -0.052485604 0.061760712
-0.059332095 -0.0365437 -0.055450395 -0.08550944 0.039850473 0.021283666 0.038008146 -0.061669294
-0.035891898 -0.077948086 0.040363256 -0.07298025 0.045498624 -0.060306545 -0.06967593 -0.053932853
0.037224215 -0.09488741 0.050103866 0.07075113 0.0012819231 -0.028906016 0.04647236 0.068309605
0.03518268 -0.09346261 0.026317667 0.082359046 -0.065396704 0.03694077 0.025621843 0.065820545
0.0714575 0.051582083 0.056861904 -0.0013927749 0.045359172 0.07936075 0.031435765 0.070180744
0.053369753 -0.056615114 0.032615047 0.100216135 -0.033915624 0.05344782 -0.00015660297 0.060680155
-0.026824519 -0.07348387 -0.078426436 -0.03312428 0.07633657 0.07949859 -0.013896369 -0.028388927
00000000: 125d f3bc 194a 333d 7a52 47bd 8871 cc3d
00000010: 356a 0e3d ffcb 96bd 86a0 a23d 3f8f 85bd
00000020: b6f7 30bc a37a 3dbb aad6 9a3d 3f4c 813d
00000030: 9e35 29bd b59b cdbd 18db 383d 05ed 9bbd
00000040: ac34 99bd e82b 803d 97ed 503d 0d2a 9f3d
00000050: 0943 833d a3ea e53b e15f 51bb 27c4 bcbd
00000060: ed88 1e3d 728d 44bd fc60 a7bd 193d ac3d
00000070: 97bf 49bd 0e6a 493c 3cb8 15ba 272a cebd
00000080: 8e87 223d 988b 84bd 9938 143d 1136 c23c
00000090: b306 4a3d 4097 bebd 4ffc a83d 9a06 8fbd
000000a0: 1258 52bd 23cf 87bd 365b c3bd 1b66 643c
000000b0: 545b 923c 0dac 8e3c 5a6f 01bd 1bb4 b63d
000000c0: 97f1 87bc a5e4 e93c bd7c b1bd 8b7d 0cbd
000000d0: 28c4 36bd 05df 8fbd 753e 4c3d 6585 83bd
000000e0: 1b61 ff3c 85f9 b4bc 4165 f9bc f266 5dbd
000000f0: ebca 5fbd c1f0 403c c47c 90bc 753a 153d
00000100: 7cab c2bd 5796 163d ced7 86bd 8853 853c
00000110: 0eab d53c 85f6 5e3d 4c60 973d f215 37bb
00000120: 2e5d 003d 53d9 34bd 62fe 2ebd 74c5 10bd
00000130: a4f0 1a3d 5028 cebb fbae a63d 9343 a23d
00000140: 0149 59bb 2841 633d 2bc1 62bd e6e1 8ebb
00000150: 0e91 503d 2e7f 4dbc dc51 083d 1896 6bbd
00000160: 6b08 963d d6c3 933d d5d2 1e3c 55c8 ecbc
00000170: d8ec 83bd d4c4 993d 2bb4 73bd 7c0c f93c
00000180: 39b3 723d 72a6 bc3b eada 5b3c 0353 ba3d
00000190: 7f89 b4bd cd4b 8bbd 82ea c53d 2827 d83b
000001a0: c151 583d 0a9f a5bd 2171 95bd 9cc5 95bd
000001b0: 9f7a 9cbd 6697 ca3c 2e13 c53d f627 473d
000001c0: 976f 2dbc c6f0 27bc 6f0d 8f3d ac3b cabd
000001d0: 7081 dcbd 8013 a5bd 6639 c2bd e367 a3bd
000001e0: e679 92bd 6977 693c 75b3 603d d9e1 babd
000001f0: f1b6 083d c8fd 27bc beeb e6bc 56e5 54bc
00000200: 80a0 393d 314c 833d c081 1cbd f4e3 bebc
00000210: a5dd 5c3d c3c2 033d 4511 c2bc 9b32 04bd
00000220: 8af7 3cbd 9b2c cc3b fe06 8a3c 4d48 8e3d
00000230: 5b61 593d f515 dabc 0c4f a8bd b9be afbc
00000240: e628 a83d 5172 82bd 929b f0bb 728d a73d
00000250: a517 8b3b 294f ea3c 7fc6 363c 0e39 90bd
00000260: 975a 953d ddb8 8ebd 83bf b33d 4f3f 06bd
00000270: d465 593d a36a 363c c37a ad3c 2a9e a2bd
00000280: ede5 94bc 6432 30bd e3e2 88bd a0b2 733c
00000290: fc27 c0bd 6e09 a03d 9022 50bd 3b59 36bc
000002a0: c361 b0bb e044 3dbc 7803 a0bd 0ae0 2d3d
000002b0: 93fe 8f3d 827a 323d c5a9 cc3d 7631 423c
000002c0: 01ec 32bc 6623 0b3b c28d c9bb ff2a 83bc
000002d0: 849c 0a3d 4acd 3f3d ebd0 d5bd f82e d2bc
000002e0: 9b94 ba3c 639b 24bd e0dc a7bd 7d33 ab3c
000002f0: f253 c63d 67a0 48bd 742e 1e3c fbb7 93bc
00000300: e174 9fbd 3453 b0bd ce91 813d d8c4 5cbd
00000310: 170c 2d3d 56a2 a03c 25fb 56bd cdf8 7c3d
00000320: 3606 73bd d9ae 15bd f41f 63bd 931f afbd
00000330: 403a 233d 155b ae3c 6eae 1b3d f198 7cbd
00000340: 6203 13bd 3fa3 9fbd f153 253d ab76 95bd
00000350: c45c 3a3d ff03 77bd 41b2 8ebd b2e8 5cbd
00000360: 6b78 183d 5554 c2bd b639 4d3d f8e5 903d
00000370: 3406 a83a 4fcc ecbc cd59 3e3d e8e5 8b3d
00000380: b71b 103d 5369 bfbd 2698 d73c dcab a83d
00000390: b5ee 85bd 344f 173d e6e4 d13c eccc 863d
000003a0: 4f58 923d bc47 533d 07e8 683d c58d b6ba
000003b0: 8aca 393d e487 a23d cac2 003d ecba 8f3d
000003c0: 3e9a 5a3d 40e5 67bd 5b97 053d 1e3e cd3d
000003d0: 1ceb 0abd 1aec 5a3d ca35 24b9 c18b 783d
000003e0: 18bf dbbc b67e 96bd 0a9e a0bd 53ad 07bd
000003f0: 5956 9c3d 28d0 a23d 99ad 63bc e58f e8bc

fc1.bias f4 [20]
-0.09902502 0.069520205 -0.09963622 0.0068665203 -0.02976767 0.083585426 -0.09677503 -0.0888621
0.08263354 -0.094007745 -0.10076045 0.00729586 -0.08149628 0.08577447 -0.06441199 0.071841314
0.093651526 0.07547999 -0.021671303 0.08872613
00000000: a1cd cabd 9c60 8e3d 130e ccbd 8c00 e13b
00000010: 54db f3bc d62e ab3d fd31 c6bd 55fd b5bd
00000020: c63b a93d 2287 c0bd 7f5b cebd 1c12 ef3b
00000030: 86e7 a6bd 86aa af3d 6fea 83bd 8a21 933d
00000040: 5fcc bf3d 4195 9a3d 0488 b1bc 0cb6 b53d

fc2.weight f4 [1, 20]
-0.15587124 -0.028838662 0.025998998 0.17907721 -0.15665631 -0.022081237 0.17220491 0.20936845
0.045977645 0.049071945 0.1689915 -0.22609383 -0.23956485 0.039048463 -0.14209613 0.19326507
-0.08207369 -0.24147198 0.026529737 0.084329985
00000000: b69c 1fbe 0f3f ecbc dafb d43c 0460 373e
00000010: 836a 20be b6e3 b4bc 7c56 303e af64 563e
00000020: 0e53 3c3d aaff 483d 1c0c 2d3e 2485 67be
00000030: 7d50 75be 48f1 1f3d a681 11be 47e7 453e
00000040: 4016 a8bd 6e44 77be e454 d93c 33b5 ac3d
