notebooks/lightning_logs/version_66/checkpoints/epoch=1-step=505.ckpt (torch, 27799 bytes, 9 tensors)

fc1.weight f4 [20, 94]
000000 78 b8 ad 3f 98 06 9d 3f 04 51 b2 3f 45 e3 8e 3e
       1.357192 1.2267637 1.3930974 0.27907768
000010 6e ce ae 3f 5b 12 0c 3f 04 c3 0e 3f 53 a5 34 bf
       1.3656747 0.5471551 0.5576632 -0.70564765
000020 85 0d 4d 3e 65 02 ec bf 74 7c 24 be 65 a7 8e bf
       0.20024689 -1.8438231 -0.160631 -1.1144835
000030 b3 53 ff bf 8b 29 e6 bd 3b 2d ac bf 31 4f ac be
       -1.9947418 -0.112383924 -1.3451303 -0.33654168
000040 5c 96 cf bc e3 50 12 be 59 93 82 bf 22 39 61 bf
       -0.025340252 -0.14288668 -1.0201217 -0.879778
000050 e6 f3 07 bf 98 49 4c be bd 1a b4 3d 95 9f fe be
       -0.53106534 -0.19949949 0.087941624 -0.49731126
000060 78 23 ac bf 8d ca e5 bf de 82 09 c0 2f 90 0c c0
       -1.3448324 -1.7952439 -2.1486125 -2.1963003
000070 20 7d 17 c0 94 3d 13 c0 50 33 0f c0 79 48 14 c0
       -2.367012 -2.3006334 -2.2375069 -2.3169234
000080 4b 80 0d c0 30 17 ff bf ca a8 04 c0 56 a9 f5 bf
       -2.2109554 -1.9928951 -2.072802 -1.9192302
000090 e2 3b e8 bf c6 ca d9 bf 15 20 9b bf f0 e8 f5 be
       -1.8143275 -1.7015007 -1.2119166 -0.4802928
0000a0 5d f5 0f bf 89 e8 58 bf d2 15 af bf f8 b7 47 bf
       -0.5623377 -0.8472982 -1.3678534 -0.7801509
0000b0 c8 a0 10 bf ed a9 59 bf 6e 6b d7 bf 43 8f 06 bf
       -0.5649533 -0.8502491 -1.682966 -0.5256235
0000c0 18 d9 c2 bf 76 41 17 3f 86 9f c9 3e c1 4a 16 3e
       -1.5222502 0.5908426 0.3937952 0.14676954
0000d0 21 e8 54 bd d7 1d eb be ff 18 24 bf d0 23 6f bf
       -0.051979188 -0.45921203 -0.6410064 -0.9341402
0000e0 3f ed ec bf 42 44 a9 bf 88 a7 a1 bf 64 fa 1d bf
       -1.8509902 -1.3223956 -1.2629251 -0.6171019
0000f0 f6 ec b6 be 47 f7 98 be 2f 58 c4 be 84 97 41 bf
       -0.35727662 -0.29876158 -0.3834853 -0.7562182
000100 a3 d0 82 bf 8a ad 17 bf c3 35 41 bf a4 25 46 3f
       -1.0219921 -0.59249175 -0.7547266 0.77401185
000110 bd 6f 8b 3f 52 91 cd 3e 53 50 32 3f 39 0e c6 3f
       1.0893475 0.40149933 0.69653815 1.547309
000120 9d 8b 96 3f b9 7f 6e 3e 41 9f dc 3f 7d da b8 3f
       1.1761357 0.2329091 1.72361 1.4441677
000130 99 0a 20 3f 21 da 3d 3f c1 8e bf 3f bf df d2 3e
       0.6251617 0.74160963 1.496544 0.4118633
000140 9a 6b 81 bf 55 e6 85 bf 8f be a8 bf ff ad 3e bf
       -1.0110962 -1.0460917 -1.3183154 -0.74484247
000150 6e ba 45 bf 79 7a aa bf d2 44 64 bf 32 75 6c bf
       -0.77237594 -1.3318626 -0.8916751 -0.92366326
000160 4a b5 97 bf d0 4c 09 bf f0 da 5d be da f8 c2 bf
       -1.18522 -0.5363283 -0.2166555 -1.5232193
000170 eb 32 35 bf a4 77 6d bf b2 2f 3e 3f ff 87 31 3f
       -0.7078082 -0.9276068 0.7429153 0.6934814
000180 af 84 5e 3f 39 70 9d 3e 66 04 8c 3f 21 b2 cc be
       0.8692121 0.30749682 1.0938842 -0.39979652
000190 a8 37 98 bd be 65 5f be cd 12 5f 3f 0c d2 93 bf
       -0.074324906 -0.21816155 0.8713806 -1.1548476
0001a0 da 0e bc 3e ef 3e 67 bf ef d2 9e be 9b b1 f4 be
       0.3673008 -0.90330404 -0.31020305 -0.47791752
0001b0 2d 6c 7c bf cf 25 c0 be ba 7d b6 3d ca 30 82 3c
       -0.98602563 -0.37528846 0.08910699 0.015892405
0001c0 78 43 d6 be f5 90 c3 3c 6c d8 f6 3e d2 ce 2e 3f
       -0.4184835 0.023872832 0.48211992 0.6828433
0001d0 df 07 76 3f 5c 77 13 be e4 5a c6 bf 55 32 c8 bf
       0.9610576 -0.14401 -1.5496488 -1.564036
0001e0 56 02 b3 bf cd 41 e8 bf 26 b4 0b c0 32 4f 12 c0
       -1.3985088 -1.8145081 -2.1828704 -2.2860837
0001f0 57 5b 07 c0 b1 6f 12 c0 b5 e8 0b c0 4b 20 13 c0
       -2.11495 -2.288067 -2.1860783 -2.298846
000200 37 b6 0b c0 61 aa fd bf e4 fd a1 bf 80 95 83 bf
       -2.1829965 -1.981762 -1.2655606 -1.0279999
000210 c6 b6 42 bf 73 a5 da 3d 1c c1 dd 3d 8e 60 a4 be
       -0.7606014 0.10676088 0.10827848 -0.32104915
000220 22 94 06 bf b0 47 62 bf 00 e0 ed 3f 38 47 27 c0
       -0.5256978 -0.88390636 1.8583984 -2.6137218
000230 7a c2 6b bf 98 30 6e 3f db 48 6c 3f 48 0b 32 3f
       -0.9209362 0.930429 0.9229867 0.69548464
000240 b4 35 2c bf 52 0f 3e c0 f0 cf d4 3e ae df 1d 3d
       -0.67269444 -2.969685 0.41564894 0.038543396
000250 d3 f5 7f be d7 51 f0 be b9 45 cc be 1e c4 49 3e
       -0.24996118 -0.4693744 -0.39896944 0.19703719
000260 ba 44 4e 3e 25 96 3f bf df 44 89 bf d2 ec 35 bf
       0.20143405 -0.7483848 -1.0724143 -0.71064484
000270 fa a6 fe be 11 41 d9 be 4f 72 cf bf 40 af bd bf
       -0.49736768 -0.42432454 -1.6206759 -1.4819107
000280 7c d4 2c bf 60 ad 27 3e 3f 52 64 be 7c 8b a1 be
       -0.67511725 0.16374731 -0.22297 -0.3155173
000290 85 2c 51 3c 38 a1 11 be df 7a a4 ba 89 73 d3 3e
       0.012766962 -0.14221656 -0.0012548825 0.41299084
0002a0 24 c8 b2 3f 8d ac 88 3f fd e7 05 40 77 ab d8 bd
       1.3967328 1.0677658 2.0922844 -0.10579579
0002b0 da bf fb 3f 4d df 2f 3e 57 ed 85 3d d0 b3 21 be
       1.9667923 0.17175026 0.065394096 -0.1579125
0002c0 50 aa df 3d 2e 48 1c bd 08 3b f6 bc 3f f5 99 bf
       0.109211564 -0.038154773 -0.030057445 -1.2027968
0002d0 24 56 e2 be 48 8b 5d bf a1 51 6b bf f7 b7 c6 be
       -0.44206345 -0.8654065 -0.9192143 -0.3881223
0002e0 21 c6 a4 be 6c 00 b6 be 57 81 42 be 65 a5 f0 be
       -0.3218241 -0.35547197 -0.18994652 -0.47001186
0002f0 0f e2 cd 3e d3 fe ca 3e b8 f6 fd 3e 6c 0c fb bd
       0.40211532 0.3964754 0.49602294 -0.12258229
000300 75 07 34 3e 33 13 85 be 92 6b 47 3e 65 1d 04 bf
       0.1758097 -0.2599121 0.19474629 -0.5160735
000310 aa b3 2a 3f 81 a8 86 bf fa fa 4f be 1d 05 62 bf
       0.66680396 -1.0520173 -0.20310584 -0.8828905
000320 e7 45 4a bf fb af ad be 56 ac 86 bf fa 49 ea be
       -0.7901291 -0.33923325 -1.0521343 -0.45759565
000330 60 78 87 bc 0e 8a 32 be c1 c8 ae be 67 32 b7 be
       -0.016536891 -0.17435476 -0.34137538 -0.3578064
000340 7c 74 dd be f9 68 3c bf d4 32 80 bf d4 b3 92 bf
       -0.43252933 -0.73597676 -1.0015512 -1.1461129
000350 5c d4 a6 bf 4a 3a 7a bf 6e b5 69 bf 09 8d 96 bf
       -1.3033557 -0.9774519 -0.91292465 -1.176179
000360 25 ca ab bf 9a 25 b0 bf f0 a6 bb bf 76 43 bc bf
       -1.3421065 -1.3761475 -1.466032 -1.4708087
000370 fd 6d b1 bf 3d 5a a4 bf 4c 4d 9d bf d1 28 5c bf
       -1.3861691 -1.2840039 -1.2289214 -0.8599978
000380 0d 79 c7 be 77 10 f9 be 27 89 00 bf f2 93 fb bd
       -0.38959542 -0.48645374 -0.5020928 -0.12284078
000390 65 6b 25 be 75 c8 05 bf f2 06 ec be a8 44 e5 be
       -0.16154249 -0.52259 -0.4609905 -0.44778943
0003a0 4c 41 a4 bf 11 6f 9a bf 87 4f e0 bf 92 e0 20 bf
       -1.2832427 -1.2065145 -1.752427 -0.6284267
0003b0 6d fe 31 be f6 02 5e 3f 30 d8 26 bf af ab eb bf
       -0.17382212 0.8672327 -0.65173626 -1.8411769
0003c0 76 d3 85 bf a5 38 a5 be 91 ce 9e be 0b f6 40 bf
       -1.0455158 -0.3226978 -0.31016973 -0.7537543
0003d0 72 fa 86 bf 4f 12 94 bf a8 55 48 bf b5 95 0c bf
       -1.054518 -1.1568087 -0.782557 -0.54915935
0003e0 6b f7 bd be 34 5d 0e bf a4 20 e3 be fa 2c f9 be
       -0.37102827 -0.55610967 -0.4436084 -0.48667127
0003f0 31 50 5b be bb d5 cb be 44 80 bf 3d 86 2b a0 be
       -0.2141731 -0.398115 0.093506366 -0.31283206

fc1.bias f4 [20]
000000 a3 ab cc bf fb dd 9a bf a6 04 9a bf 0e 17 ae bf
       -1.5989879 -1.2098993 -1.2032669 -1.3600786
000010 bd 38 b4 bf 01 e5 a8 bf ee fb 8d bf 83 39 82 bf
       -1.4079815 -1.3194886 -1.1092508 -1.0173801
000020 85 22 a2 bf d2 2d 9a bf 53 7e d9 bd 12 ce 92 bf
       -1.2666785 -1.2045233 -0.106197976 -1.1469138
000030 65 7f a6 bf 6c d8 8f bf 3c 72 a6 bf 0e 88 a4 bf
       -1.3007628 -1.1237922 -1.3003612 -1.285402
000040 0f de b6 bf 8f aa 9c bf 7a f3 a3 bf 1b f9 8e bf
       -1.4286517 -1.223955 -1.2808678 -1.1169771

fc2.weight f4 [1, 20]
000000 06 9a 84 bd dd 56 52 be 1b 81 41 bd d3 7e 50 3e
       -0.0647469 -0.20540948 -0.047242265 0.2036088
000010 41 b6 35 3d 65 e2 2e bd be b2 6c be cc 9d 34 be
       0.044363264 -0.042696375 -0.2311506 -0.1763832
000020 5a 55 8c 3d 0e 86 af 3d ef 2c 06 3f a8 54 8d 3d
       0.06852217 0.08570491 0.52412313 0.069009125
000030 c4 3a 4f 3c 45 a7 46 be 13 4b 95 3d bb eb 16 3e
       0.012648288 -0.19399746 0.0728971 0.14738362
000040 99 5c f4 bd a8 1b aa 3d b8 e9 52 bc 37 b4 3c 3e
       -0.11931724 0.08306056 -0.012873106 0.18428122

exp_avg f4 [20, 94]
000000 03 02 73 37 03 02 73 37 03 02 73 37 79 3f 9c b6
       1.4484397e-05 1.4484397e-05 1.4484397e-05 -4.6565515e-06
000010 56 f9 b2 b5 4e c8 ac 36 6b 2e c2 36 ec a7 37 b7
       -1.33346e-06 5.149318e-06 5.7870543e-06 -1.0946747e-05
000020 e2 f1 12 36 13 ba 92 37 86 63 a8 b1 66 39 cc 36
       2.189649e-06 1.7491204e-05 -4.900758e-09 6.086356e-06
000030 2b f1 1c 35 1f cf bd af 52 d4 bc b5 15 b8 1d 26
       5.8465474e-07 -3.4526068e-10 -1.4068885e-06 5.4719795e-16
000040 00 00 00 00 ff 0b 4b 27 1e 13 57 35 1f bc 9a 32
       0.0 2.8178412e-15 8.012156e-07 1.8013507e-08
000050 ef ea 28 b4 c0 f0 b4 b4 e3 36 6f b5 43 46 36 b5
       -1.5731688e-07 -3.370278e-07 -8.911431e-07 -6.790253e-07
000060 8a 60 05 b4 68 bc 26 34 bd 04 aa 34 d5 f0 0d 35
       -1.2421711e-07 1.5528497e-07 3.1668415e-07 5.287705e-07
000070 bb 98 f1 34 bb 52 2f 35 5b 31 cd 34 51 40 16 35
       4.5000874e-07 6.531297e-07 3.8220136e-07 5.597295e-07
000080 bd cd 8b 35 69 d5 37 35 2d 98 eb 35 cc a2 00 36
       1.0416185e-06 6.8483365e-07 1.7553153e-06 1.9168247e-06
000090 49 d9 f3 35 40 9c 02 36 7b c8 84 36 94 4e 7c 36
       1.8168149e-06 1.946246e-06 3.9572456e-06 3.7596665e-06
0000a0 ff 9a 3e 36 59 dc b5 35 40 3f 3e 2a 35 a6 bc 29
       2.8402426e-06 1.354968e-06 1.6897334e-13 8.3777095e-14
0000b0 16 68 0b 2d 07 6a 81 ac f1 3f 11 2f be 3b 11 31
       7.924347e-12 -3.678172e-12 1.321039e-10 2.1134237e-09
0000c0 fc 09 53 33 82 03 5a 34 34 7c f7 36 44 e6 82 37
       4.9136347e-08 2.0304108e-07 7.375633e-06 1.5604433e-05
0000d0 44 f5 f0 b2 11 01 f5 b4 de 3a ad b4 e4 7c f2 b2
       -2.8051211e-08 -4.5635582e-07 -3.2266593e-07 -2.8229302e-08
0000e0 7d 9c 98 33 71 f3 31 b2 82 81 94 b4 52 a9 9d b4
       7.1065166e-08 -1.0358108e-08 -2.7661378e-07 -2.9366726e-07
0000f0 31 68 bc 34 80 10 84 b1 2c ef 40 b4 ad 75 2a 36
       3.5093538e-07 -3.8435815e-09 -1.7968404e-07 2.540047e-06
000100 2a 90 5a 35 19 63 17 35 ca de 99 33 24 20 1d 36
       8.1421115e-07 5.639609e-07 7.165143e-08 2.3413531e-06
000110 b8 85 38 37 da 2b a4 b2 f4 1f fa 34 1a dd 4b 35
       1.09983885e-05 -1.9112054e-08 4.6589378e-07 7.594514e-07
000120 ae 41 42 35 ca 4d 1c 35 1b 0c 89 36 30 db d9 35
       7.236621e-07 5.8227727e-07 4.0843274e-06 1.6231552e-06
000130 ac b8 d9 35 86 e4 c3 35 00 ab 06 36 80 5d f4 b6
       1.6221506e-06 1.4595141e-06 2.006709e-06 -7.2826515e-06
000140 35 26 2e 34 2d 6b c9 34 fb af a3 b2 4c ce e2 b4
       1.6218912e-07 3.7517148e-07 -1.9055724e-08 -4.224588e-07
000150 43 12 04 b2 22 3e 76 37 ba 70 07 37 15 27 f7 b4
       -7.6875635e-09 1.4677209e-05 8.072873e-06 -4.603577e-07
000160 96 ee da 35 f4 04 f4 36 03 df 8d 36 41 9e 06 36
       1.6311703e-06 7.2723433e-06 4.2280894e-06 2.0059672e-06
000170 25 a8 84 36 4d 39 8a 36 51 29 d3 38 51 29 d3 38
       3.953481e-06 4.119391e-06 0.0001006896 0.0001006896
000180 51 29 d3 38 f1 21 24 ba ee b9 f2 36 68 ce ae b8
       0.0001006896 -0.0006261161 7.233807e-06 -8.335413e-05
000190 25 d1 3b 39 d8 79 3b b9 14 a3 b5 b9 ee 1d 71 37
       0.00017911622 -0.000178791 -0.00034644513 1.4371688e-05
0001a0 1c 00 ba b3 36 6b 0a b8 d0 bc 9d 37 b2 7f c9 b3
       -8.66132e-08 -3.3001612e-05 1.8803781e-05 -9.3830195e-08
0001b0 51 67 01 b9 3e d8 b2 26 00 00 00 00 55 92 fb 26
       -0.00012340887 1.2409844e-15 0.0 1.7456287e-15
0001c0 76 cf 5e b7 31 a3 43 b8 65 49 c2 b8 3a ed e6 b8
       -1.3280534e-05 -4.6643607e-05 -9.264312e-05 -0.000110114415
0001d0 32 67 04 b9 54 4e 8c b8 c9 e8 57 b7 44 95 15 37
       -0.00012626944 -6.69031e-05 -1.2869198e-05 8.915846e-06
0001e0 3e d5 04 38 69 93 90 37 c6 a2 6a b5 df 0b 56 b7
       3.166985e-05 1.723478e-05 -8.740866e-07 -1.2758158e-05
0001f0 9e d3 79 b7 b6 74 34 36 3b 9f d4 36 3c 14 30 36
       -1.48908275e-05 2.6890025e-06 6.336629e-06 2.6237822e-06
000200 b5 0e 1a 37 21 12 52 37 94 08 4b 37 06 7f 5a 37
       9.1825395e-06 1.2521196e-05 1.210174e-05 1.30233875e-05
000210 60 26 5a 38 93 5f d4 38 c4 64 e0 38 0c 3e 38 b6
       5.201099e-05 0.0001012675 0.000106999214 -2.7454253e-06
000220 08 1e 56 28 b7 d5 46 29 76 41 8b ae 98 6a 22 30
       1.1885898e-14 4.41502e-14 -6.3326164e-11 5.9086736e-10
000230 3b 4b 3b af e1 2a 59 b1 a2 32 c9 b3 4e 8e a8 b5
       -1.7034278e-10 -3.160203e-09 -9.369002e-08 -1.2558392e-06
000240 d5 57 0d b7 6a 2b be 37 38 7d 9a b8 ca 5e 83 b8
       -8.424705e-06 2.2669981e-05 -7.366616e-05 -6.2642226e-05
000250 db 87 55 b8 b4 c3 11 b6 e5 4d f6 b4 86 f5 17 b7
       -5.0909683e-05 -2.1720598e-06 -4.5877746e-07 -9.057467e-06
000260 79 fb d3 b7 48 1b 06 b7 6b a1 63 37 5d a3 e9 b5
       -2.5270261e-05 -7.993374e-06 1.3567837e-05 -1.7407398e-06
000270 78 f9 d2 35 e3 4b 95 38 31 ff 49 38 1c cc ff 37
       1.5718824e-06 7.119009e-05 4.81598e-05 3.0493415e-05
000280 18 e1 e6 37 fc 35 e0 37 3a 58 93 37 e1 06 f0 35
       2.7522954e-05 2.672802e-05 1.756485e-05 1.7883395e-06
000290 df 1d 51 35 e6 d4 7c b2 16 61 08 36 ca 5b be 37
       7.7902035e-07 -1.4716738e-08 2.032209e-06 2.2692508e-05
0002a0 27 4d da 38 c7 1b 8b 37 8a 1b 29 38 bf 1a c9 b5
       0.00010409421 1.6583026e-05 4.0318388e-05 -1.4983451e-06
0002b0 77 ee 41 38 ff d9 64 b9 bf 21 97 b8 b0 93 57 b8
       4.6236873e-05 -0.00021824984 -7.206527e-05 -5.139754e-05
0002c0 cb 06 16 b8 18 56 f7 b8 29 6b 59 b4 13 bf 58 b9
       -3.5769113e-05 -0.00011793914 -2.0248685e-07 -0.00020670546
0002d0 f7 ab ae 38 56 d1 98 b8 ce 3b c4 36 9c c6 bd 38
       8.3289975e-05 -7.286917e-05 5.8482174e-06 9.049216e-05
0002e0 6f 7a 52 b9 0b 09 f7 b7 54 a6 b2 38 2e 97 fe b5
       -0.0002007277 -2.9448905e-05 8.5186824e-05 -1.8968474e-06
0002f0 2f c3 51 36 2f c3 51 36 2f c3 51 36 9d ad 19 b6
       3.1257039e-06 3.1257039e-06 3.1257039e-06 -2.2899833e-06
000300 1c 7e 83 32 70 31 12 b7 83 7b 66 b5 14 c9 56 b7
       1.5307755e-08 -8.713789e-06 -8.586141e-07 -1.2802211e-05
000310 90 df c4 b6 64 5c c3 36 fc 65 5b b2 e8 46 b2 b6
       -5.8672813e-06 5.8222085e-06 -1.2770666e-08 -5.313068e-06
000320 0f e9 c5 35 ab 98 d2 b1 b2 61 15 b6 7a 08 48 26
       1.4745473e-06 -6.1291607e-09 -2.2259596e-06 6.9400427e-16
000330 00 00 00 00 00 d3 87 a6 dd 86 68 b6 37 c1 b6 b6
       0.0 -9.424698e-16 -3.4649195e-06 -5.446516e-06
000340 53 e7 ba b6 26 19 83 b6 a8 7b 2d b6 b9 1d dc b5
       -5.5701616e-06 -3.907032e-06 -2.5850986e-06 -1.6399928e-06
000350 11 a5 fe b4 99 cc 43 35 d9 69 05 36 2e 1f b1 35
       -4.7431288e-07 7.294089e-07 1.9880156e-06 1.3196602e-06
000360 80 20 97 34 66 46 82 b4 c7 66 c1 b4 e5 0b bf b3
       2.814959e-07 -2.4265609e-07 -3.6023832e-07 -8.896294e-08
000370 11 14 63 34 b2 43 31 34 78 82 39 35 0a 0f 8b 35
       2.1148323e-07 1.6509037e-07 6.910773e-07 1.0360684e-06
000380 96 4f 02 36 65 6e 02 36 48 1b 86 36 7b a4 ad 36
       1.9417835e-06 1.9435768e-06 3.996687e-06 5.17495e-06
000390 04 b1 91 36 83 69 a2 b4 33 ef d1 27 20 3b c4 28
       4.341944e-06 -3.025162e-07 5.8268493e-15 2.1786013e-14
0003a0 dd b8 a6 2a b4 be 2d 2a d6 98 c9 aa d2 c9 da ad
       2.9615798e-13 1.543165e-13 -3.5810824e-13 -2.4873357e-11
0003b0 80 24 c5 b1 2f 07 65 b4 5d 41 25 b5 83 0e a6 36
       -5.737604e-09 -2.13299e-07 -6.1562406e-07 4.948875e-06
0003c0 15 e4 b9 36 02 5a 26 b7 c7 01 0e b7 d9 ea 62 b5
       5.539982e-06 -9.915328e-06 -8.464273e-06 -8.453331e-07
0003d0 3d 18 28 b3 b3 1a df b4 94 13 b7 b5 d1 3c 60 b5
       -3.9137593e-08 -4.1556413e-07 -1.364026e-06 -8.3535e-07
0003e0 5e f4 1f 35 79 e9 aa 32 be 14 f4 34 15 ad 07 37
       5.9587717e-07 1.9896776e-08 4.5463634e-07 8.086926e-06
0003f0 ce bb c1 36 55 10 69 36 4c da 02 37 f7 c9 db 35
       5.7737116e-06 3.4729212e-06 7.79943e-06 1.6375551e-06

exp_avg_sq f4 [20, 94]
000000 bc 40 74 38 bc 40 74 38 bc 40 74 38 ea 37 82 36
       5.8234422e-05 5.8234422e-05 5.8234422e-05 3.880811e-06
000010 0d 34 af 34 79 12 20 38 1f 9e 9b 39 00 78 a4 38
       3.2634162e-07 3.8164177e-05 0.00029681713 7.842481e-05
000020 3a 3c 18 39 2e e1 b7 36 15 d5 c3 2f c7 e1 0e 38
       0.00014518286 5.4800394e-06 3.5621697e-10 3.406571e-05
000030 cc e6 0d 34 2e 42 89 31 08 7d e2 36 15 be 56 31
       1.3215612e-07 3.9947485e-09 6.7498804e-06 3.1249148e-09
000040 00 00 00 00 a8 77 e1 33 5d 6a a3 34 72 8d 96 34
       0.0 1.0499144e-07 3.0438505e-07 2.8042592e-07
000050 83 af 6c 34 c2 2f 26 34 53 2c 05 34 ef d6 58 33
       2.2043064e-07 1.5477329e-07 1.2402715e-07 5.04869e-08
000060 aa b5 19 33 3a 01 6b 33 2a 4b e6 33 0e d1 4a 34
       3.578831e-08 5.4716317e-08 1.0723882e-07 1.888877e-07
000070 74 a0 44 34 c7 3e 3b 34 ef 43 72 34 26 ad 87 34
       1.8312295e-07 1.743857e-07 2.256272e-07 2.5271692e-07
000080 51 84 43 34 07 5e 21 34 92 a5 25 34 0d 5f 46 34
       1.8208927e-07 1.50285e-07 1.5427057e-07 1.8474766e-07
000090 8f 41 b2 34 e9 39 ab 34 ef 59 a6 34 3a 7e 8d 35
       3.3202784e-07 3.1893367e-07 3.0985345e-07 1.0542055e-06
0000a0 e4 72 64 35 6d c5 df 34 18 a0 ac 38 c3 0f c2 34
       8.5103807e-07 4.1680633e-07 8.231419e-05 3.6146784e-07
0000b0 a1 4f 8b 36 14 e6 bb 34 01 03 af 32 f9 24 f0 33
       4.151793e-06 3.4998868e-07 2.0374047e-08 1.1182596e-07
0000c0 a6 37 00 34 e5 43 d0 33 e5 d6 0f 35 79 80 30 35
       1.1941174e-07 9.698105e-08 5.3584364e-07 6.575206e-07
0000d0 eb 6b a8 35 49 77 2d 33 05 bd 4e 37 0f 82 9a 35
       1.2548384e-06 4.038819e-08 1.2322566e-05 1.1511746e-06
0000e0 78 83 cd 36 9c 9b 1a 38 5c 58 cd 34 8e 7a 3b 34
       6.124781e-06 3.6861384e-05 3.8248515e-07 1.7460317e-07
0000f0 b4 27 73 33 6c bf 1c 33 d6 51 e8 32 2f 03 c7 33
       5.6613956e-08 3.6495678e-08 2.704557e-08 9.267239e-08
000100 51 71 90 34 a3 ba 77 34 68 c1 16 33 ee 58 8f 33
       2.690454e-07 2.3071566e-07 3.51005e-08 6.6751326e-08
000110 0c fb bf 33 c3 9f a4 33 49 b8 03 34 8f 83 89 33
       8.939796e-08 7.6659056e-08 1.2267368e-07 6.40349e-08
000120 30 8c 93 33 d5 11 48 35 5c 2f 93 34 c7 da 95 33
       6.870721e-08 7.4531755e-07 2.7415342e-07 6.9781485e-08
000130 90 1a 81 33 05 98 f3 34 c4 31 db 33 8f d2 59 35
       6.011862e-08 4.5372886e-07 1.02070345e-07 8.11452e-07
000140 d1 2f 16 35 0b 7c 90 34 1d 2d 6a 33 92 d4 f7 33
       5.5948937e-07 2.6912343e-07 5.45234e-08 1.15405e-07
000150 a5 b7 d5 33 eb 55 e9 37 f9 15 23 38 16 7d db 34
       9.95199e-08 2.7815773e-05 3.8882692e-05 4.088294e-07
000160 07 e1 3d 35 ab a8 52 37 7f 47 16 36 ba 2d fc 36
       7.0735445e-07 1.25562465e-05 2.2393358e-06 7.5155085e-06
000170 2b a6 1d 38 3f 33 65 35 32 39 80 38 32 39 80 38
       3.7586473e-05 8.538372e-07 6.114169e-05 6.114169e-05
000180 32 39 80 38 00 57 12 38 51 9b e7 34 dd 52 cd 37
       6.114169e-05 3.4890138e-05 4.314011e-07 2.447649e-05
000190 19 47 c2 37 7e e9 05 38 bf f9 dd 38 fc 46 04 38
       2.315971e-05 3.1927128e-05 0.0001058462 3.153736e-05
0001a0 ab 19 a2 2f 15 ad 11 38 9a 53 9d 33 2c e3 f8 32
       2.9485867e-10 3.473189e-05 7.326089e-08 2.8974306e-08
0001b0 57 19 18 36 2f e6 a8 31 00 00 00 00 09 76 18 34
       2.2664515e-06 4.9156124e-09 0.0 1.4199044e-07
0001c0 51 fd 93 34 b4 0f a0 34 5e 49 a6 34 04 4b 82 34
       2.7565196e-07 2.9813748e-07 3.097329e-07 2.4268968e-07
0001d0 2a b7 4b 34 1f 12 42 34 29 0a 09 34 e6 79 1f 34
       1.8972483e-07 1.807425e-07 1.2762816e-07 1.4852375e-07
0001e0 e9 f5 7e 34 16 62 4c 34 de 4d 42 34 b8 07 4b 34
       2.3745055e-07 1.9034664e-07 1.8095986e-07 1.8908656e-07
0001f0 ac f4 9a 34 06 29 9b 34 f7 a7 bd 34 b3 95 cb 34
       2.8862758e-07 2.8900848e-07 3.5326204e-07 3.7920617e-07
000200 4d b6 e4 34 c3 3e 00 35 ab 2d 23 35 d5 ea fb 34
       4.260095e-07 4.7775046e-07 6.078869e-07 4.6923256e-07
000210 03 01 c0 34 1a 71 fb 34 31 51 e4 34 b7 42 89 34
       3.5763523e-07 4.6834685e-07 4.2527384e-07 2.556678e-07
000220 e5 84 9f 37 5c cc 0c 34 01 72 03 38 06 a0 95 38
       1.901616e-05 1.3112862e-07 3.133901e-05 7.13468e-05
000230 1c 42 9a 33 3a ed 46 34 96 8b 16 35 72 7e 81 34
       7.183209e-08 1.852649e-07 5.608248e-07 2.4120123e-07
000240 0b 45 99 34 42 2f 03 33 5d e4 99 33 1c 92 7a 30
       2.8548706e-07 3.0543795e-08 7.166157e-08 9.1157104e-10
000250 00 82 7a 37 23 93 ec 35 1b 36 07 35 14 82 8d 35
       1.4931429e-05 1.7626193e-06 5.0370153e-07 1.0543176e-06
000260 6b 40 cc 35 03 24 f2 35 2d b9 07 36 88 1f 26 35
       1.5217933e-06 1.8040886e-06 2.0224354e-06 6.1885703e-07
000270 94 08 36 36 d3 9a 93 37 95 cc e8 36 9a ec 63 36
       2.7125106e-06 1.7595861e-05 6.9379553e-06 3.3963356e-06
000280 a7 c5 82 36 c1 bf e7 35 e3 ec de 34 bc d0 2b 34
       3.8973117e-06 1.7266649e-06 4.152308e-07 1.6001553e-07
000290 39 c0 02 35 75 9b 7f 35 f1 3b 1f 35 c9 e2 0a 36
       4.8708495e-07 9.522112e-07 5.931934e-07 2.0695609e-06
0002a0 c5 17 1d 36 12 15 1e 34 7d 79 0e 34 b0 4b 7e 35
       2.3408659e-06 1.4722562e-07 1.3268978e-07 9.4732513e-07
0002b0 29 1a 48 34 f5 6a e4 35 7f 9e 0b 36 7f 05 4a 36
       1.8635969e-07 1.7018452e-06 2.080487e-06 3.0103545e-06
0002c0 1a d6 46 35 39 17 a8 35 a3 cd b8 35 96 08 99 38
       7.4072307e-07 1.2523734e-06 1.3768916e-06 7.297208e-05
0002d0 14 cc 04 38 be 4c e8 36 0f 89 c3 36 7c f0 87 37
       3.1661315e-05 6.9230728e-06 5.8274086e-06 1.6205238e-05
0002e0 72 2c e1 36 3e 08 bd 37 9e 2b 75 37 62 42 d2 36
       6.7106967e-06 2.2534394e-05 1.4613293e-05 6.2662157e-06
0002f0 26 94 fc 36 26 94 fc 36 26 94 fc 36 d5 2f 3b 35
       7.527432e-06 7.527432e-06 7.527432e-06 6.9732533e-07
000300 07 ac de 35 3c 69 7f 36 57 98 1a 36 96 bc e5 35
       1.6590355e-06 3.8059216e-06 2.3036462e-06 1.7116715e-06
000310 73 6b 20 36 b4 d1 c4 35 a4 f7 96 30 9d fc ef 35
       2.3904402e-06 1.466417e-06 1.098432e-09 1.7880408e-06
000320 31 e0 31 32 5a cf e3 30 eb 9d 65 33 c0 2a 84 30
       1.0353731e-08 1.6575357e-09 5.3461843e-08 9.616414e-10
000330 00 00 00 00 94 51 2c 33 ea 6a 5a 33 46 ee 88 33
       0.0 4.0121066e-08 5.0854318e-08 6.376335e-08
000340 39 80 78 33 88 f2 25 33 2e 14 cb 32 bc 1b 98 32
       5.7858617e-08 3.8637637e-08 2.3641487e-08 1.7707741e-08
000350 ec 40 2b 32 7d 97 ee 31 4a 57 00 32 e5 65 b2 31
       9.9682715e-09 6.943934e-09 7.470428e-09 5.192066e-09
000360 f5 fa 93 31 64 67 c2 31 31 41 24 32 44 a3 5e 32
       4.3067936e-09 5.6578973e-09 9.560879e-09 1.2959223e-08
000370 57 a2 81 32 76 ab 87 32 83 bc 9d 32 24 8f f6 32
       1.50914e-08 1.579404e-08 1.836293e-08 2.8703262e-08
000380 2c 74 38 33 90 b5 27 33 3f 8d 02 33 5c 26 04 33
       4.2946496e-08 3.9047848e-08 3.0396446e-08 3.0768533e-08
000390 c2 59 e9 32 33 00 a7 32 81 67 99 36 dd 1b 92 35
       2.7165587e-08 1.944145e-08 4.5718048e-06 1.0885957e-06
0003a0 74 9a f5 34 21 a1 26 31 2c 1f e9 31 94 86 05 32
       4.5747186e-07 2.424777e-09 6.7847363e-09 7.772218e-09
0003b0 c9 e7 e2 31 7d 6b 62 32 8f 2a f7 32 12 d9 b5 31
       6.6038166e-09 1.3179371e-08 2.8773938e-08 5.2924714e-09
0003c0 ef 36 00 31 26 f7 4a 2f 3d c1 5b 36 9a 84 0f 34
       1.8657678e-09 1.8459598e-10 3.2746022e-06 1.3366153e-07
0003d0 01 20 dd 32 f7 8d 2a 33 e9 1f a4 32 dc b0 32 33
       2.574234e-08 3.9710326e-08 1.9106624e-08 4.1604707e-08
0003e0 39 72 09 34 a9 51 f8 33 dc 07 23 33 96 23 be 33
       1.2800673e-07 1.1563254e-07 3.7958543e-08 8.8540375e-08
0003f0 82 b0 07 34 b7 15 76 33 f1 f0 5d 34 bc 26 c1 33
       1.2637068e-07 5.7296088e-08 2.0669883e-07 8.9943086e-08

exp_avg f4 [20]
000000 71 d7 be 37 17 69 01 b9 e8 35 8c b4 d3 e8 19 3b
       2.2750088e-05 -0.00012341548 -2.6116254e-07 0.0023484721
000010 5c 10 42 38 72 7b 0a 38 28 e1 48 38 5d 18 af 38
       4.626844e-05 3.301673e-05 4.789341e-05 8.349188e-05
000020 eb a6 e5 38 9b a4 52 39 c8 70 d3 3a ff 08 92 38
       0.00010950662 0.00020088481 0.0016131634 6.963498e-05
000030 c5 0c 1c 37 44 80 ba b7 7b b9 a8 38 cd e9 8f 39
       9.301298e-06 -2.2232656e-05 8.045413e-05 0.0002744928
000040 7d ff 51 38 00 f3 e6 38 db 2b 1b 37 b8 9c 24 3a
       5.0067425e-05 0.00011012517 9.248931e-06 0.00062794564

exp_avg_sq f4 [20]
000000 ea 8c bc 38 31 a4 01 39 4b c3 cd 36 25 89 af 39
       8.990786e-05 0.00012363565 6.132211e-06 0.00033480782
000010 74 8d b4 39 9c bb 6e 38 81 07 cf 37 d0 bc 03 38
       0.00034437666 5.6918347e-05 2.4679817e-05 3.140868e-05
000020 05 05 a7 39 76 4d 0c 39 ce 10 84 37 77 ed 95 38
       0.00031856462 0.00013380297 1.5743452e-05 7.149105e-05
000030 d6 53 f4 36 49 49 5b 38 8f 3a 8e 39 94 b6 21 3a
       7.2815265e-06 5.228192e-05 0.0002712798 0.0006168869
000040 54 4c 44 38 d3 ec 5f 39 15 e8 02 37 5b c9 74 3a
       4.6801128e-05 0.00021355161 7.80264e-06 0.00093378656

exp_avg f4 [1, 20]
000000 d8 33 6e b8 6d da 3f 3a 27 e8 1b 39 a9 a4 13 3d
       -5.6791905e-05 0.000731862 0.00014868435 0.036045704
000010 32 b6 43 3a c8 1c e8 b9 f5 b9 4e b9 54 a7 4f b9
       0.0007465809 -0.00044271932 -0.00019714965 -0.00019803393
000020 85 97 c2 3a 5a 75 34 3b e0 c2 25 3d 1d 4f 42 3a
       0.0014846182 0.0027535767 0.04046905 0.00074123015
000030 40 c1 61 36 17 4d 53 39 ff 74 9a 3a 64 99 f6 3a
       3.36401e-06 0.00020151246 0.0011784135 0.0018814025
000040 f2 d4 c3 b9 65 a9 d1 3a 66 c1 7d b9 5f d2 3b 3c
       -0.00037351955 0.0015995918 -0.00024200007 0.011463731

exp_avg_sq f4 [1, 20]
000000 7c 9c c3 3b 68 e7 a5 3b be 86 38 3b d2 fb fe 3c
       0.005969582 0.005062986 0.0028156484 0.031125937
000010 f8 ac dc 3c f9 b8 cc 3b 02 5f 94 3b f6 b0 8c 3b
       0.026937947 0.0062476364 0.0045279274 0.0042935563
000020 4d f4 de 3c 16 67 8c 3c bd 01 8b 3b 7c a2 71 3c
       0.027216101 0.017138999 0.0042421506 0.014748212
000030 ed ca 24 3b ac 1a a7 3b 75 8b ba 3c da 04 16 3d
       0.0025145367 0.005099615 0.022771576 0.03662572
000040 ad f7 14 3c 7a 62 a6 3c 0d d7 63 3b b0 4d 93 3d
       0.009092254 0.02031063 0.0034765631 0.07192552
