notebooks/lightning_logs/version_83/checkpoints/epoch=14-step=3704.ckpt (torch, 10127 bytes, 3 tensors)

fc1.weight f4 [20, 94]
000000 b2 79 b0 3d b8 ff c6 3d 5e 96 b8 bd 93 01 2e 3c
       0.086169615 0.09716743 -0.09013055 0.0106204925
000010 7d cd 8d bb 09 28 ee bc ef 7e 5a 3d 10 9a e4 3c
       -0.0043274746 -0.029071825 0.05334371 0.027905494
000020 e3 91 d4 bd 70 15 fd 3d 4d 94 5e bd 1e 9a b7 3c
       -0.10379388 0.123576045 -0.05434065 0.022412356
000030 de 25 13 bd c1 ee 84 3b 8e f2 35 3d 56 7e ab 3d
       -0.035924785 0.004056782 0.04442077 0.08373706
000040 0c 79 b9 3d d2 95 8b bd b2 05 9c bd cf 90 bd bd
       0.09056291 -0.06815685 -0.07618274 -0.09256136
000050 3d 19 de 3c ee ac 97 bd ef f2 9b bb 50 17 36 3d
       0.027111644 -0.074060306 -0.0047591846 0.044455826
000060 10 c8 e0 3c 63 76 2d bd 59 0a 84 bd df 0a a5 3d
       0.027439147 -0.04234923 -0.06447286 0.08058714
000070 c6 f8 1f bd ca 50 76 3d e4 3c 89 bd a0 ac ad bd
       -0.03905561 0.06013564 -0.06701067 -0.08480191
000080 5b 49 84 bd 99 9a 12 be c0 7b 54 3d 32 78 eb 3a
       -0.06459304 -0.14316787 0.05187583 0.0017964898
000090 15 52 57 bd 1a 2b 70 3d 83 80 0a bc 23 17 04 3e
       -0.052568514 0.058634855 -0.008453491 0.12899451
0000a0 42 b0 02 3e 16 31 6a 3d 88 df 63 bd 7d 10 e5 bd
       0.1276255 0.05717572 -0.055633098 -0.111847855
0000b0 00 d3 8d bb b3 73 fd 3d 5c d7 99 3c 57 9a da 3c
       -0.0043281317 0.123755835 0.01877945 0.026684923
0000c0 81 88 d1 bd ce 37 c8 bd 49 c8 49 bc df f9 40 bc
       -0.10231114 -0.09776269 -0.012315818 -0.011778324
0000d0 e8 3f 4c bc 05 48 1b bd b0 0f 90 3d e3 54 02 3d
       -0.012466408 -0.03791048 0.07034242 0.031819236
0000e0 1d c9 e4 3c 0c 8c 53 bc 6c 9a bb 3d 93 fb 8f 3c
       0.02792793 -0.012911808 0.09160313 0.017576015
0000f0 5d 13 80 bd 42 09 28 bd 4d 84 b7 bd fb 63 a6 bd
       -0.06253693 -0.041024454 -0.08960781 -0.081245385
000100 87 89 5c bd ec 69 c8 bd 49 00 7b bd 95 2e 46 3d
       -0.053842094 -0.09785828 -0.06127957 0.048384268
000110 62 26 72 bd 48 bd e9 bd ca 6e d7 bd cf 9f a8 3d
       -0.059118636 -0.11413056 -0.10519178 0.08233606
000120 dd cd df bd bd 62 6c bd ee 33 97 bc b1 6b 50 3c
       -0.10927937 -0.05771135 -0.01845738 0.012720988
000130 a7 c5 47 bd 93 68 4e 3d 07 e4 2d 3d e5 d6 1c 3d
       -0.04877248 0.0503927 0.042453792 0.038290877
000140 0a 42 b1 3c f8 94 07 3d 65 85 ae bd 19 70 79 3d
       0.021637935 0.033101052 -0.08521537 0.06089792
000150 76 44 59 3d 32 a6 a0 bd 45 49 50 3d 5f 49 5c bd
       0.053043805 -0.07844199 0.050851125 -0.05378091
000160 f1 67 b2 3d 2f 5f 2a 3c 58 07 2a bc c4 e4 bb bc
       0.087112315 0.01039867 -0.010377727 -0.022936232
000170 24 0c e1 3d c8 28 fb bb 49 38 2a bc db 3f b6 bc
       0.10988644 -0.0076647736 -0.010389396 -0.022247246
000180 d1 e0 4f 3d 32 45 03 3d 85 c5 95 bd 38 7d d9 3d
       0.05075151 0.03204841 -0.073130645 0.10619587
000190 af 9e 25 bd db 68 0c 3d c0 d3 a2 3b d5 bc 58 3d
       -0.040434536 0.034279685 0.00496909 0.05291446
0001a0 4c a4 61 3d c9 a6 4a 3d 42 5c b2 bd f0 87 9c bd
       0.055088326 0.049475465 -0.08709003 -0.076431155
0001b0 7b f3 49 3d 5c 59 ed bc 30 c8 25 bc f6 84 46 bd
       0.049304467 -0.028973274 -0.010118529 -0.048466645
0001c0 d1 df 8e bc b8 2f fd 3c 8d 02 59 3c bd 80 99 bd
       -0.017440708 0.030906543 0.013245237 -0.07495258
0001d0 c4 bf 59 3d d5 21 76 3d 71 d9 9c 3d ca 55 0a 3e
       0.053161398 0.06009086 0.07658661 0.13509288
0001e0 1d 2f 74 3d c0 e8 c4 3d 07 4a 65 bc 95 61 d7 bd
       0.059615243 0.09614706 -0.0139947 -0.10516659
0001f0 28 50 d1 3c 5d 57 ea bc 79 87 98 bd 2d 2c ca 3c
       0.025550917 -0.028606111 -0.07447714 0.024679268
000200 52 4e 7f bd c8 39 32 3d 4e 23 8d 3d 55 86 2e 3d
       -0.06233055 0.043512136 0.068914995 0.042608578
000210 ef 94 4e 3d 0b 03 77 bd b4 6a e5 bc 2a 96 dc bc
       0.050435003 -0.060305636 -0.028004982 -0.026927073
000220 cf 59 94 bd 29 74 93 bc 71 50 92 3d 11 7c 37 bd
       -0.07243692 -0.017999725 0.07144249 -0.044796053
000230 1f 61 f1 3d cd 43 9d 3d 42 0c 94 bd da c8 05 3d
       0.117861025 0.076789476 -0.072289005 0.03266225
000240 cb 5b 9d 3d 88 ad 8a bd 06 84 a5 bd e2 6c 37 3d
       0.07683524 -0.0677138 -0.08081822 0.044781573
000250 09 19 7c bd 76 ed 81 bc 2c a1 60 3d e5 ce c4 3d
       -0.061547313 -0.0158603 0.054841205 0.096097745
000260 4f 15 12 bd ec 21 25 3d 96 e4 aa bd 02 1d b8 bd
       -0.035664853 0.040315554 -0.083443806 -0.08989908
000270 bd 58 61 bd 53 c7 53 bd 68 1a 0e bd 9e f8 54 bd
       -0.055016268 -0.051703762 -0.03469315 -0.051994912
000280 51 70 c2 3d c9 94 31 bd f4 40 19 bd 07 90 28 3d
       0.09494079 -0.043354783 -0.03741546 0.04115298
000290 e3 58 aa 3d 44 7a 83 bd f9 85 35 3d cd 77 da bc
       0.08317735 -0.06419805 0.04431722 -0.026668454
0002a0 fc 1a fd 3c 76 0d 4b 3d 40 a9 50 3d 8d d7 29 bd
       0.030896656 0.049573384 0.05094266 -0.04146533
0002b0 de 1b 67 bd 75 6b 9a bc a1 cf 98 bd 99 7f c7 3d
       -0.05642306 -0.018850068 -0.07461477 0.09741134
0002c0 a1 b1 13 3d c2 a0 99 bd d7 cf 58 bd 54 e4 34 be
       0.036058072 -0.07501365 -0.052932587 -0.17665225
0002d0 16 6a 90 3c c3 c5 10 3b 04 7d f8 bd 15 57 f2 bd
       0.01762871 0.0022090531 -0.1213322 -0.11833016
0002e0 d5 30 19 bd 4c 1c 71 bd 77 d0 38 3c e4 7d 4d 3c
       -0.037400085 -0.058864877 0.011280171 0.012542222
0002f0 82 a6 f2 bd 28 d4 de bb a7 af c4 3b 28 3c 3d bd
       -0.11848165 -0.0068001933 0.0060023847 -0.046199948
000300 9c 79 09 bd 3b 49 0a bb 71 80 3d bd e8 aa 89 bd
       -0.03356324 -0.0021100778 -0.04626507 -0.06722051
000310 2d 2a d0 bc a2 a1 0a be e0 b9 2b 3c fb c2 56 bd
       -0.025410736 -0.1353822 0.010481328 -0.05243204
000320 62 51 45 3d 1f cf 70 3d 5f 63 22 3d d7 b1 08 3d
       0.048173316 0.058791276 0.03964555 0.033372726
000330 b8 7b 92 bc 09 e2 2c bd 4c 9a ab be 7d 51 ae be
       -0.01788126 -0.04220775 -0.33516157 -0.34046546
000340 65 d9 c0 be 26 17 b1 be 0c 66 af be 4d 1c 91 be
       -0.3766586 -0.34587973 -0.34257543 -0.28341904
000350 c5 d1 cf bd 9a 85 22 3e 91 80 69 3e 59 ee 88 3d
       -0.10147432 0.15871277 0.2280295 0.06686086
000360 2e 8e 6f bd fa 84 c8 bc dd 01 91 3d 12 1d 77 3d
       -0.058485202 -0.02447747 0.070804335 0.060330458
000370 55 26 c7 3d 46 c2 1a 3e df 03 df bc 29 a1 04 3e
       0.09724108 0.15113172 -0.027223526 0.12952103
000380 2d 77 4e 3e 58 0b 8c 3e 90 99 7d 3e 3b 68 81 3e
       0.2016265 0.27352405 0.2476561 0.25274834
000390 a7 67 6b 3e 42 24 b4 3d b1 8f 03 3f f0 63 ce 3e
       0.22988759 0.08795978 0.5139113 0.4031062
0003a0 3a ae 5d be 46 da 9e be 82 c2 73 be 66 ae 7f be
       -0.21648493 -0.31025904 -0.23804668 -0.24968871
0003b0 86 5c 2b be 2d 9d 6d bc 23 0f 5d 3d 3c e2 9e 3c
       -0.16734514 -0.014502806 0.053969514 0.019394986
0003c0 e4 a4 aa bc 88 3a 04 bc de 9b cf be b8 e9 bd bd
       -0.02083058 -0.008070596 -0.40548605 -0.09273094
0003d0 e8 4d 66 3e 17 34 bf 3d 99 20 c9 3d 82 f1 1e 3d
       0.22490656 0.09336107 0.09820671 0.03880454
0003e0 4e 16 c1 3d b6 93 b1 3d 12 06 ad 3d 85 3c 5a 3d
       0.094280824 0.08670752 0.084484234 0.053280372
0003f0 4c 4f 80 bd 62 c4 79 bd 29 14 8a 3c 50 29 c4 3d
       -0.06265125 -0.0609783 0.016855316 0.09578192

fc1.bias f4 [20]
000000 2f ca 88 3d 6d 2a 48 3d 4b db 88 be 44 49 51 bd
       0.066791885 0.048868585 -0.26729807 -0.051095262
000010 ea 1e 09 be bd cb 4c 3c 29 11 60 be 27 ea 59 be
       -0.13390699 0.012499747 -0.21881546 -0.21280728
000020 98 38 40 bc 55 2c 3e be bb 72 63 3d 3f 5e f8 bc
       -0.011732243 -0.18571599 0.055529337 -0.030318378
000030 30 94 d6 3d ad ef 92 bd b5 f2 cf 3b c1 5c 07 3d
       0.10477483 -0.07174621 0.0063460716 0.03304744
000040 c2 57 db 3d 40 0f 12 3e f7 c1 9f bd 16 e9 3d 3e
       0.10710098 0.1426363 -0.07800668 0.18545946

fc2.weight f4 [1, 20]
000000 3d 74 57 be c0 56 69 be 54 25 69 3f ef fd fd 3c
       -0.21040435 -0.22786999 0.91072583 0.031004874
000010 f1 b2 29 3f e3 c2 ac be a4 b2 2c 3f ab 9f e7 3e
       0.6628867 -0.33742437 0.67460084 0.45239004
000020 3f 20 65 bd 12 a7 52 3f 54 32 85 be 57 c6 11 be
       -0.055938955 0.8228618 -0.2601496 -0.14235817
000030 19 4e 97 be 54 e7 68 3f cb 45 9b 3d 79 a3 d3 3c
       -0.2955177 0.9097798 0.07581671 0.025834786
000040 1b 43 82 be 3e 83 a2 be dc bd 02 be 8d 74 bc be
       -0.25441822 -0.31740755 -0.12767738 -0.3680767
