notebooks/lightning_logs/version_67/checkpoints/epoch=0-step=252.ckpt (torch, 27799 bytes, 9 tensors)

fc1.weight f4 [20, 94]
0.38342196 0.2874201 0.25196087 -0.12023656 0.2047512 0.05163237 -0.015455125 -0.11034303
-0.020613799 -0.4282355 -0.010973571 -0.44605455 0.13925536 -0.3151512 -0.0927271 -0.16283906
0.0758594 -0.058608394 -0.4654296 -0.84517944 -1.1546522 -1.3772634 -1.4915887 -1.6209792
-1.3715776 -0.63825136 0.0891553 -0.061932933 -0.45864597 -0.33620143 -0.12190577 0.09548107
0.40840796 0.53134674 0.48001385 1.1216601 1.3970581 1.1720295 0.8449509 0.75413114
0.6467721 0.12715828 0.22501817 -0.21852383 -0.9175994 1.0871594 0.7860584 0.45475143
-0.0949015 -0.13240062 0.5210343 1.6957653 0.42220473 0.0013993941 0.20338283 0.19104843
0.25644553 0.18036996 0.2084747 0.21031204 0.008710175 -0.18008602 -0.1837351 -0.1572349
-0.13627633 -0.3798769 -0.40786576 -0.35587448 -0.3543784 -0.58559245 -0.38852698 -0.39476445
-0.47291353 -0.3262598 -0.28753766 -0.2515104 -0.26347992 -0.06209534 0.16402546 -0.05754406
-0.17710817 -0.09750013 0.18728973 0.014668348 0.08093736 -0.44412917 -0.28249997 -0.6275402
-0.5075225 -0.27128386 0.012756628 0.10600692 0.09232056 -0.61994624 0.3098935 0.30500615
0.15790418 -0.12516516 0.2673576 -0.2743439 -0.005724716 -0.16550438 0.3555405 -0.729222
-0.09379199 -0.9135925 -0.45195305 -0.23085694 -0.36762878 -0.18633066 0.009393871 -0.044724137
-0.58334064 -0.69343644 -0.88069105 -1.1554998 -1.2877543 -1.3322831 -1.2881967 -0.7273836
-0.42152232 -0.7679579 -1.0968258 -1.2008659 -1.1918927 -1.1128718 -0.91262877 -0.9397015
-0.82072556 -0.44774216 0.1383846 0.24299774 0.0730683 0.35561442 0.36639872 -0.34111294
-0.16617154 -0.030471547 -0.6664701 -0.91864586 -1.080839 -0.58168447 -0.07928918 0.06147717
-0.3271231 -1.0528787 0.066598356 0.2765814 -0.13929093 -0.27010146 -0.10891124 -0.18155189
-0.049144424 -0.109252445 -0.15872371 -0.43522108 -0.4267264 -0.40028068 -0.3056734 -0.48903033
-0.37843895 -0.37560272 -0.4596993 -0.41725346 -0.15967566 -0.44891596 -0.44533512 -0.27615172
0.18160199 -0.21146731 0.036411524 0.09130435 0.44187507 0.47885588 0.23917708 0.4437069
0.32144824 0.11364946 0.18412796 -0.7765656 -0.64133954 -0.65492356 -0.36621025 -0.27208674
-0.2382804 -0.02874194 -0.20783468 -0.41837883 0.3410573 0.31442267 0.22127149 -0.06252928
0.27990696 -0.21758291 0.09484758 -0.1958022 0.32107013 -0.8064836 -0.001915113 -0.56475574
-0.594299 -0.48733553 -0.56979185 -0.3995396 0.10308014 0.16522077 -0.13675246 -0.36564004
-0.36600596 -0.43707395 -0.6920307 -0.98912466 -0.989667 -0.5066849 -0.3405341 -0.60959685
-0.7773037 -0.89296955 -0.9815685 -0.9522279 -0.8664485 -1.0424664 -0.9842147 -0.77871674
-0.52164006 -0.40058815 -0.2682747 -0.029157361 -0.1370036 -0.23316269 -0.31197166 -0.15664998
-0.4981096 -0.818807 -0.92039055 -0.43676257 -0.010768391 0.1966909 -0.23364675 -0.8912384
0.27171677 0.10959886 -0.098379806 -0.14878353 -0.27240306 -0.25780508 -0.3782293 -0.115815446
-0.12278529 -0.24478245 -0.39845333 -0.5296836 -0.34423947 -0.48068342 -0.46968678 -0.5245142
00000000: e24f c43e ba28 933e 0401 813e 963e f6bd
00000010: 4caa 513e 777c 533d 7e37 7dbc 87fb e1bd
00000020: 45de a8bc af41 dbbe 7eca 33bc 4361 e4be
00000030: f598 0e3e 805b a1be b5e7 bdbd 48bf 26be
00000040: 2c5c 9b3d 5b0f 70bd ca4c eebe ae5d 58bf
00000050: a5cb 93bf 2b4a b0bf 61ec bebf 3f7c cfbf
00000060: db8f afbf 7164 23bf 0e97 b63d 63ad 7dbd
00000070: a5d3 eabe 9822 acbe bba9 f9bd 948b c33d
00000080: d91a d13e 5706 083f 60c4 f53e 8f92 8f3f
00000090: cdd2 b23f 1005 963f b44e 583f bd0e 413f
000000a0: db92 253f c835 023e 2a6b 663e b6c4 5fbe
000000b0: cbe7 6abf 0a28 8b3f 203b 493f 2ed5 e83e
000000c0: b85b c2bd 0794 07be 8162 053f d60e d93f
000000d0: 382b d83e e06b b73a 9743 503e 33a2 433e
000000e0: d44c 833e e7b2 383e 647a 553e 0a5c 573e
000000f0: 1fb5 0e3c 7868 38be 0e25 3cbe 3002 21be
00000100: 068c 0bbe 3a7f c2be c8d3 d0be 2e35 b6be
00000110: 1671 b5be 63e9 15bf 02ed c6be 911e cabe
00000120: b921 f2be 860b a7be 2338 93be f9c5 80be
00000130: d7e6 86be af57 7ebd 4af6 273e 52b3 6bbd
00000140: d85b 35be 26ae c7bd e1c8 3f3e 8353 703c
00000150: 7dc2 a53d e664 e3be d6a3 90be 79a6 20bf
00000160: ffec 01bf b8e5 8abe 2d01 513c 281a d93d
00000170: 9012 bd3d ccb4 1ebf 5caa 9e3e c429 9c3e
00000180: a2b1 213e 4c2b 00be 18e3 883e ce76 8cbe
00000190: 6696 bbbb fb79 29be 6809 b63e 4bae 3abf
000001a0: 0416 c0bd 33e1 69bf 6466 e7be c365 6cbe
000001b0: d739 bcbe 77cd 3ebe c0e8 193c a830 37bd
000001c0: d055 15bf 0d85 31bf f874 61bf 6be7 93bf
000001d0: 22d5 a4bf 4188 aabf a1e3 a4bf d035 3abf
000001e0: c6d1 d7be e498 44bf ca64 8cbf f9b5 99bf
000001f0: f18f 98bf 9572 8ebf 0aa2 69bf 4790 70bf
00000200: 121b 52bf 763e e5be b1b4 0d3e 66d4 783e
00000210: d5a4 953d 1813 b63e 9d98 bb3e 5ba6 aebe
00000220: df28 2abe 779f f9bc c99d 2abf 602c 6bbf
00000230: ef58 8abf 46e9 14bf 5e62 a2bd 7ccf 7b3d
00000240: ae7c a7be bbc4 86bf b864 883d 149c 8d3e
00000250: 48a2 0ebe bd4a 8abe db0c dfbd bde8 39be
00000260: aa4b 49bd bfbf dfbd 7888 22be 4cd5 debe
00000270: e27b dabe 97f1 ccbe 3981 9cbe 2f62 fabe
00000280: c0c2 c1be 004f c0be b55d ebbe 3fa2 d5be
00000290: 0482 23be 50d8 e5be f702 e4be c263 8dbe
000002a0: dff5 393e e38a 58be 4024 153d c6fd ba3d
000002b0: 733d e23e 992c f53e d6ea 743e 8d2d e33e
000002c0: dd94 a43e 0cc1 e83d 0a8c 3c3e 01cd 46bf
000002d0: d42e 24bf 12a9 27bf e97f bbbe f44e 8bbe
000002e0: c7ff 73be 3874 ebbc 9dd2 54be c035 d6be
000002f0: 109f ae3e 02fc a03e fe94 623e 5a0f 80bd
00000300: f74f 8f3e 0ece 5ebe 733f c23d 5f80 48be
00000310: 4e63 a43e b675 4ebf 8704 fbba d593 10bf
00000320: fb23 18bf 0b84 f9be e1dd 11bf 7490 ccbe
00000330: ae1b d33d a22f 293e d608 0cbe 2c35 bbbe
00000340: 2265 bbbe 28c8 dfbe ed28 31bf 4637 7dbf
00000350: d15a 7dbf 1ab6 01bf 7c5a aebe 8a0e 1cbf
00000360: 60fd 46bf a799 64bf 1348 7bbf 35c5 73bf
00000370: 92cf 5dbf 8a6f 85bf 7ff5 7bbf fb59 47bf
00000380: 348a 05bf e419 cdbe 4d5b 89be 6bdb eebc
00000390: ac4a 0cbe 33c2 6ebe c0ba 9fbe da68 20be
000003a0: 3908 ffbe 569d 51bf b79e 6bbf 589f dfbe
000003b0: e86d 30bc 5769 493e 1841 6fbe 3328 64bf
000003c0: 761e 8b3e 5e75 e03d 5a7b c9bd b65a 18be
000003d0: 6a78 8bbe 07ff 83be 45a7 c1be a630 edbd
000003e0: db76 fbbd 40a8 7abe 1302 ccbe 5899 07bf
000003f0: 2840 b0be 231c f6be c97a f0be 9046 06bf

fc1.bias f4 [20]
-0.54771215 -0.8831119 -0.6512547 -0.69481915 -0.34582695 -0.6801034 -0.66610086 -0.16147391
-0.94565517 -0.5848131 -0.74700284 -0.9501757 -0.8182822 -0.8176035 -0.5267837 -0.82374996
-0.64841336 -0.52598286 -0.816642 -0.66409415
00000000: dd36 0cbf 9f13 62bf a1b8 26bf abdf 31bf
00000010: 3b10 b1be 421b 2ebf 9685 2abf 6b59 25be
00000020: 7516 72bf 50b6 15bf 943b 3fbf b73e 73bf
00000030: f17a 51bf 774e 51bf 4cdb 06bf 47e1 52bf
00000040: 6bfe 25bf d0a6 06bf 730f 51bf 1302 2abf

fc2.weight f4 [1, 20]
0.21801013 -0.0789578 -0.08477215 -0.0035375846 0.21002176 0.0254724 -0.023114158 -0.46484655
-0.089187615 0.14000036 -0.09246538 -0.08132464 -0.08285386 -0.1234078 0.023341058 -0.07127732
0.03232857 0.16955099 -0.11498665 -0.1517505
00000000: 0c3e 5f3e a1b4 a1bd 059d adbd d2d6 67bb
00000010: f20f 573e 7fab d03c e759 bdbc 5e00 eebe
00000020: ffa7 b6bd 415c 0f3e 7d5e bdbd 888d a6bd
00000030: 49af a9bd 3bbd fcbd bf35 bf3c d8f9 91bd
00000040: f66a 043d c69e 2d3e 1f7e ebbd 7c64 1bbe

exp_avg f4 [20, 94]
0.00082272734 0.00082272734 0.00082272734 5.6116012e-05 -0.0002009361 -0.0021415248 -1.4084548e-05 0.00067085406
0.0021127318 0.0016250589 -1.4793691e-05 0.0010865652 -2.2033204e-05 -7.4067234e-06 0.0007607689 1.9560816e-14
0.0 -9.440748e-15 0.0002098293 0.00015510492 0.00014007301 0.00013471986 0.00011351755 7.3358795e-05
5.182596e-05 0.00011948634 0.00014860879 0.0001637871 0.0001071783 7.374298e-05 0.00010145243 3.035749e-05
-0.00010575839 -0.00011038576 -0.0001331037 -7.620791e-05 0.00021885445 0.0004581502 0.00046559543 0.00037384251
0.00030698453 0.00040714513 -3.3237153e-13 -1.2545556e-12 2.0417411e-10 -5.776428e-11 -3.6059974e-10 -2.4978024e-09
6.060882e-09 7.4753035e-07 2.4522837e-05 -0.00017751854 0.0040319287 -0.00045152387 -0.00033706403 -0.00021975378
-2.3730343e-05 4.337524e-05 3.687214e-05 3.8933613e-05 -2.8775369e-06 2.4621113e-05 3.091378e-05 -6.1891464e-05
1.3956011e-05 -0.00012869405 -0.0002450853 -0.00024680194 -3.835385e-06 -9.099017e-05 -0.00018174593 -0.00020020074
-0.00023866633 -1.2930561e-05 7.743108e-05 0.00014214341 -0.000103948034 -0.00010798835 0.00026302834 0.0018064469
0.0012765899 0.00073051034 0.00066586304 0.0005398783 -5.619973e-05 0.0021947487 0.0012334109 0.00036811025
-0.00067322457 -5.543616e-05 0.0015328593 0.0010224401 0.00047862763 0.0007547831 1.1338234e-05 1.1338234e-05
1.1338234e-05 -1.1994726e-05 2.4316218e-05 0.00017263679 -2.3354192e-05 -5.4784305e-06 -0.00017733041 -0.00022658754
5.791361e-07 -0.000104687555 -1.9430831e-06 9.50324e-08 -8.2313476e-05 9.759842e-15 0.0 -3.9520037e-15
-1.8926094e-05 -1.5763579e-05 -1.6413736e-05 -1.4839598e-05 -1.190343e-05 -7.92584e-06 -4.284758e-06 -1.1067487e-05
-2.1239655e-05 -1.6717448e-05 -9.656706e-06 -6.5188983e-06 -3.820903e-06 -1.0484439e-06 9.689852e-07 7.480581e-07
2.5008824e-06 -6.373548e-06 -3.4059874e-05 -5.2596934e-05 -4.841693e-05 -4.6813544e-05 -3.8796592e-05 -3.1891446e-05
-7.8306414e-14 7.8041536e-14 3.1038616e-11 2.5197774e-11 5.484601e-10 2.2875757e-09 7.842012e-09 -1.5960379e-07
-2.4809392e-06 3.2857686e-06 -0.00041804506 2.5315617e-06 3.097488e-06 4.796956e-06 8.160231e-07 -2.9576615e-06
-3.87763e-06 -3.6937647e-06 6.512831e-07 -2.3538673e-06 -2.9734542e-06 2.6996363e-06 -6.7906503e-06 1.8510743e-06
2.4246985e-05 1.2068727e-05 -9.54035e-07 2.3253644e-06 8.36488e-06 6.607184e-06 4.7041276e-06 -1.7343518e-06
-7.4655622e-06 -8.169614e-06 1.4729316e-06 3.2508387e-07 -3.2286658e-05 -0.00016349531 -9.948867e-05 -5.294709e-05
-4.5885783e-05 -5.5121738e-05 1.3105442e-06 -0.0003195673 -9.529022e-05 -5.524316e-05 1.0593716e-05 -3.3109864e-05
-0.00016242002 -7.938801e-05 -4.253313e-05 -5.275708e-05 3.3935212e-05 3.3935212e-05 3.3935212e-05 -3.9806342e-05
3.8366416e-05 0.00026119925 -5.1270938e-05 -8.435528e-05 -0.0003032607 -0.00031683248 3.3152233e-07 -0.00020229058
-4.577449e-06 9.2383104e-08 -0.00013129057 6.2065018e-15 0.0 -2.5582614e-14 -4.0363408e-05 -3.139495e-05
-3.7557245e-05 -4.0165705e-05 -2.913699e-05 -1.6145337e-05 -9.47739e-06 -2.0643374e-05 -2.8718712e-05 -2.4027939e-05
-1.8486882e-05 -1.3993721e-05 -1.1576934e-05 -6.976619e-06 -3.5394526e-06 -3.7320451e-06 -1.4499835e-06 -1.3376603e-05
-3.7383947e-05 -5.3211603e-05 -5.5997247e-05 -5.3890693e-05 -4.58883e-05 -5.7432113e-05 1.791673e-15 6.987902e-13
1.9855237e-12 7.225165e-11 4.0180534e-10 1.2422721e-09 -1.9857183e-09 -1.8247152e-07 -2.6798307e-06 -1.2002251e-06
-0.0006551993 4.6948644e-06 3.1069767e-06 9.573959e-06 9.0310544e-07 -2.9166313e-06 -3.9541997e-06 -3.945056e-06
1.01018145e-07 -1.920582e-06 -3.1478428e-06 2.435318e-06 -6.9476923e-06 3.3385348e-07 1.3527076e-05 9.1017955e-06
00000000: 4cac 573a 4cac 573a 4cac 573a 1c5e 6b38
00000010: 60b2 52b9 d358 0cbb ac4c 6cb7 41dc 2f3a
00000020: c275 0a3b eeff d43a 6b32 78b7 146b 8e3a
00000030: f2d3 b8b7 4587 f8b6 566e 473a 2c30 b028
00000040: 0000 0000 c411 2aa8 a005 5c39 a9a3 2239
00000050: 90e0 1239 9643 0d39 4510 ee38 34d8 9938
00000060: b35f 5938 be94 fa38 ded3 1b39 44be 2b39
00000070: e9c4 e038 76a6 9a38 dcc2 d438 37a8 fe37
00000080: 9aca ddb8 e77e e7b8 c191 0bb9 cfd1 9fb8
00000090: 4b7c 6539 e133 f039 291b f439 4b00 c439
000000a0: c4f2 a039 1876 d539 c91b bbaa 2190 b0ab
000000b0: e77d 602f cc0c 7eae e73d c6af cea5 2bb1
000000c0: 1540 d031 e5a9 4835 64b6 cd37 4524 3ab9
000000d0: 451e 843b 82ba ecb9 f8b7 b0b9 b56d 66b9
000000e0: 8610 c7b7 cfed 3538 29a7 1a38 a64c 2338
000000f0: b51b 41b6 7089 ce37 6ba9 0138 bacb 81b8
00000100: 9c24 6a37 0cf2 06b9 cb7e 80b9 3265 81b9
00000110: b5b1 80b6 fad1 beb8 0d93 3eb9 faec 51b9
00000120: 8142 7ab9 56f0 58b7 7f62 a238 550c 1539
00000130: adfe d9b8 ce77 e2b8 11e7 8939 4dc6 ec3a
00000140: 4053 a73a b87f 3f3a 508d 2e3a 9f86 0d3a
00000150: 00b8 6bb8 c6d5 0f3b 67aa a13a ecfe c039
00000160: 567b 30ba 2084 68b8 39ea c83a 6603 863a
00000170: 50f0 fa39 a3dc 453a 5839 3e37 5839 3e37
00000180: 5839 3e37 f53c 49b7 aefa cb37 d605 3539
00000190: bfe8 c3b7 5cd3 b7b6 c5f1 39b9 2198 6db9
000001a0: ee75 1b35 b48b dbb8 ea65 02b6 9d14 cc33
000001b0: b69f acb8 54d1 2f28 0000 0000 cd62 8ea7
000001c0: 7ac3 9eb7 073c 84b7 3bb0 89b7 97f7 78b7
000001d0: d8b4 47b7 39f9 04b7 cac5 8fb6 7fae 39b7
000001e0: d02b b2b7 723c 8cb7 3d03 22b7 e9bc dab6
000001f0: 4f35 80b6 42b8 8cb5 140e 8235 29ce 4835
00000200: d5d4 2736 5cdc d5b6 83db 0eb8 879b 5cb8
00000210: 4813 4bb8 a959 44b8 86b9 22b8 2ec3 05b8
00000220: 9354 b0a9 e2bb af29 6082 082e 58a4 dd2d
00000230: 73c2 1630 7533 1d31 89b9 0632 8e5f 2bb4
00000240: 367e 26b6 1381 5c36 0f2d dbb9 e6e3 2936
00000250: 70de 4f36 8af5 a036 ae0c 5b35 3d7c 46b6
00000260: 971c 82b6 65e2 77b6 d5d3 2e35 22f7 1db6
00000270: 8e8b 47b6 662b 3536 3edb e3b6 6e72 f835
00000280: 0166 cb37 ca7a 4a37 650c 80b5 750d 1c36
00000290: e356 0c37 47b3 dd36 26d8 9d36 e0c7 e8b5
000002a0: b180 fab6 3a10 09b7 8bb1 c535 3087 ae34
000002b0: 896b 07b8 f06f 2bb9 93a4 d0b8 8113 5eb8
000002c0: 7c75 40b8 8432 67b8 f5e5 af35 998b a7b9
000002d0: 8cd6 c7b8 e4b4 67b8 aabb 3137 72df 0ab8
000002e0: 4b4f 2ab9 1d7d a6b8 9a65 32b8 7c47 5db8
000002f0: a855 0e38 a855 0e38 a855 0e38 bcf5 26b8
00000300: a0eb 2038 92f1 8839 c00b 57b8 e5e7 b0b8
00000310: f6fe 9eb9 891c a6b9 15fc b134 f71d 54b9
00000320: fd97 99b6 2664 c633 0bab 09b9 e09c df27
00000330: 0000 0000 7e6d e6a8 e14b 29b8 12ae 03b8
00000340: c986 1db8 9977 28b8 366b f4b7 d96f 87b7
00000350: 1501 1fb7 4f2b adb7 f7e8 f0b7 9b8f c9b7
00000360: 4714 9bb7 93c6 6ab7 8e3a 42b7 b318 eab6
00000370: 5587 6db6 0c74 7ab6 0e9d c2b5 136c 60b7
00000380: b5cc 1cb8 862f 5fb8 96de 6ab8 b108 62b8
00000390: 3078 40b8 43e3 70b8 891a 0127 24b1 442b
000003a0: 04b8 0b2c 10e2 9e2e 13e5 dc2f 90bc aa30
000003b0: 2075 08b1 64ed 43b4 24d7 33b6 6c17 a1b5
000003c0: aec1 2bba 9488 9d36 7481 5036 d79f 2037
000003d0: ef6c 7235 58bb 43b6 51ae 84b6 c65f 84b6
000003e0: 50ef d833 59e3 00b6 873f 53b6 726e 2336
000003f0: 3920 e9b6 793c b334 59f2 6237 eab3 1837

exp_avg_sq f4 [20, 94]
0.000334 0.000334 0.000334 5.3343898e-05 3.5764397e-06 0.00022599235 0.00024822206 0.00017561503
0.00037580618 0.000115642295 3.9096255e-07 0.00013187595 6.663802e-07 7.19128e-07 1.1093472e-05 1.639209e-07
0.0 1.6965936e-07 3.6918973e-06 4.5192946e-06 4.333638e-06 3.993861e-06 3.9171127e-06 3.5102416e-06
1.7333056e-06 1.4761195e-06 2.2589568e-06 1.273038e-06 5.701152e-07 5.024677e-07 7.260186e-07 8.7569276e-07
1.0845368e-06 1.0800771e-06 1.1474797e-06 1.6836403e-06 3.1825068e-06 3.0631534e-06 2.7099668e-06 3.8687435e-06
4.1939265e-06 3.2466294e-06 9.464256e-05 0.000110300556 0.00021988493 9.547665e-07 6.1119884e-08 8.059173e-08
2.557161e-07 3.9667242e-07 1.7691929e-06 7.3628325e-07 2.2378533e-06 1.335887e-08 1.491106e-05 6.355756e-06
5.3987665e-06 6.623874e-06 2.816926e-06 3.7831253e-06 8.704772e-06 5.4107586e-06 4.2355623e-06 6.4340115e-06
5.1945212e-06 9.123586e-06 3.421446e-05 1.6641268e-05 1.6057485e-05 9.982825e-06 2.3472463e-05 9.299938e-06
1.6711074e-05 2.4701825e-05 9.316536e-06 6.6297466e-06 1.16223755e-05 3.0356525e-06 6.7860265e-06 1.7002283e-06
9.4871175e-06 3.2518692e-06 5.6490107e-06 6.991688e-06 2.4664807e-06 0.0002798931 9.655277e-05 3.6903333e-05
2.8461021e-05 4.0338356e-05 4.8249298e-05 6.9536654e-05 4.2919124e-05 3.0603e-05 1.566915e-05 1.566915e-05
1.566915e-05 5.451754e-06 1.7053659e-05 9.341196e-06 8.811561e-06 7.2461808e-06 2.3459392e-05 7.281887e-06
1.9219009e-08 5.117688e-06 4.7168996e-08 4.7734517e-08 3.8545897e-07 7.996669e-09 0.0 3.825066e-08
1.2116159e-07 1.5466055e-07 1.2853263e-07 9.682551e-08 8.763052e-08 8.0286206e-08 3.6032326e-08 3.4044024e-08
7.088122e-08 3.4667064e-08 1.42016585e-08 1.5051874e-08 2.7169156e-08 4.1472884e-08 6.534226e-08 6.705121e-08
8.2283265e-08 1.1587485e-07 2.3829425e-07 2.3944978e-07 1.7713234e-07 2.3711864e-07 2.4123378e-07 1.113197e-07
3.667259e-06 8.968289e-06 9.506588e-06 1.8099745e-07 6.462594e-08 8.38793e-08 3.921025e-08 2.1467894e-08
2.018157e-08 3.0392762e-09 1.4652112e-08 1.2435529e-10 1.6867712e-06 1.8123988e-07 1.10030626e-07 1.1545307e-07
1.3672211e-07 1.3045113e-07 2.165199e-07 5.071823e-07 3.6423063e-07 4.65249e-07 2.846483e-07 4.2633283e-07
2.7478288e-06 1.2585529e-06 5.012258e-07 8.276985e-07 1.8137977e-06 1.3400711e-07 3.7887898e-07 7.518597e-07
1.8190836e-07 1.14828055e-07 1.3447099e-06 1.077935e-07 2.3332262e-07 4.6667775e-08 1.5786931e-07 2.3378422e-07
2.9020632e-07 8.107166e-08 1.0389403e-07 1.3341486e-05 5.4516186e-06 2.1310034e-06 1.2667049e-06 2.439182e-06
1.2613821e-06 4.0750906e-06 1.9696506e-06 2.79172e-06 1.306631e-05 1.306631e-05 1.306631e-05 7.1739764e-06
2.0400748e-05 6.284618e-06 5.1060874e-06 4.7303056e-06 8.492938e-06 3.3785739e-06 4.1011833e-10 3.4847726e-06
4.194584e-08 7.833317e-10 4.1954658e-07 2.0831796e-09 0.0 5.2709556e-08 8.6588805e-08 1.0444563e-07
9.401866e-08 6.903483e-08 4.13202e-08 2.9129993e-08 1.6059545e-08 1.6763487e-08 3.2308474e-08 2.3846244e-08
1.7843567e-08 1.8200517e-08 3.014423e-08 4.0630624e-08 5.1305697e-08 4.2763403e-08 4.2216033e-08 5.4301047e-08
8.118722e-08 7.344012e-08 5.370918e-08 6.91046e-08 5.4867044e-08 3.2124657e-08 8.720918e-06 2.6395728e-06
6.3736525e-07 1.2440074e-06 4.101484e-08 4.1564206e-08 3.168444e-08 2.3116828e-08 2.3681741e-08 2.5370368e-09
3.0249705e-08 3.970117e-10 5.723716e-06 1.0505854e-06 2.5767335e-07 4.786927e-07 6.286476e-08 1.904379e-07
1.4672663e-07 1.8018909e-07 1.9509731e-07 5.680254e-08 7.554435e-08 1.100294e-07 4.9188026e-07 7.329608e-08
00000000: b91c af39 b91c af39 b91c af39 93bd 5f38
00000010: c402 7036 5cf8 6c39 cd23 8239 4d25 3839
00000020: da07 c539 fc84 f238 7ce5 d134 2e48 0a39
00000030: 4ce1 3235 1a0a 4135 191e 3a37 3c02 3034
00000040: 0000 0000 9c2b 3634 50c2 7736 72a4 9736
00000050: ab69 9136 0103 8636 be6f 8336 7e91 6b36
00000060: eda3 e835 141f c635 9598 1736 41dd aa35
00000070: 050a 1935 51e1 0635 9ee3 4235 2611 6b35
00000080: 6790 9135 2bf7 9035 1a03 9a35 71f9 e135
00000090: 0d93 5536 9390 4d36 e0dc 3536 41d0 8136
000000a0: 8eb9 8c36 abe0 5936 d67a c638 2951 e738
000000b0: e990 6639 8725 8035 0341 8333 c611 ad33
000000c0: 5a49 8934 3ef6 d434 0175 ed35 00a5 4535
000000d0: 072e 1636 ee80 6532 842a 7a37 8743 d536
000000e0: 0d27 b536 a542 de36 6c0a 3d36 99e1 7d36
000000f0: b60a 1237 108e b536 341f 8e36 bde3 d736
00000100: 994c ae36 8111 1937 7f81 0f38 da98 8b37
00000110: 30b3 8637 e87b 2737 bbe6 c437 ee06 1c37
00000120: c22e 8c37 c436 cf37 384e 1c37 1775 de36
00000130: b9fd 4237 1db8 4b36 86b3 e336 6633 e435
00000140: dc2a 1f37 b03a 5a36 a28c bd36 259a ea36
00000150: d185 2536 9ebe 9239 607c ca38 a7c8 1a38
00000160: 94bf ee37 fb30 2938 4a5f 4a38 35d4 9138
00000170: 0f04 3438 b95b 0038 3e71 8337 3e71 8337
00000180: 3e71 8337 36ee b636 740e 8f37 22b8 1c37
00000190: 5ed5 1337 3824 f336 a9ca c437 ef56 f436
000001a0: 0c17 a532 9bb8 ab36 dc96 4a33 a804 4d33
000001b0: 14f1 ce34 b961 0932 0000 0000 0c49 2433
000001c0: a518 0234 c510 2634 c802 0a34 63ee cf33
000001d0: 632f bc33 cf69 ac33 f6c1 1a33 cd37 1233
000001e0: 5d37 9833 d7e4 1433 8efb 7332 6c4b 8132
000001f0: 9b61 e932 eb1f 3233 4a52 8c33 cbfd 8f33
00000200: b4b3 b033 dfd6 f833 d3dd 7f34 ba8d 8034
00000210: c431 3e34 ad9a 7e34 eb82 8134 a70e ef33
00000220: 081b 7636 8276 1637 7c7e 1f37 3358 4234
00000230: 7cc8 8a33 2221 b433 2068 2833 6668 b832
00000240: be5b ad32 83db 5031 acb8 7b32 e7ba 082f
00000250: 0465 e235 d79a 4234 fa49 ec33 ffee f733
00000260: e3cd 1234 2212 0c34 897c 6834 4d25 0835
00000270: 7a8b c334 56c7 f934 c4d1 9834 bde2 e434
00000280: 5767 3836 8ceb a835 fa8b 0635 022f 5e35
00000290: 9d71 f335 98e3 0f34 bb68 cb34 68d3 4935
000002a0: 9752 4334 6497 f633 e17b b435 1a7c e733
000002b0: 3c87 7a34 c36f 4833 c982 2934 1e06 7b34
000002c0: a7cd 9b34 9e19 ae33 591c df33 3fd5 5f37
000002d0: 0ced b636 5c02 0f36 a603 aa35 d4b0 2336
000002e0: c24c a935 c3bc 8836 572e 0436 6259 3b36
000002f0: 6037 5b37 6037 5b37 6037 5b37 fdb7 f036
00000300: 4622 ab37 75e0 d236 f554 ab36 04b9 9e36
00000310: e47c 0e37 75bb 6236 0677 e12f f0db 6936
00000320: f027 3433 1152 5730 0b3e e134 af27 0f31
00000330: 0000 0000 c562 6233 b3f2 b933 984b e033
00000340: 4ee7 c933 4d40 9433 0a78 3133 8839 fa32
00000350: 50f3 8932 4cff 8f32 8bc3 0a33 72d6 cc32
00000360: 6b46 9932 5c57 9c32 ee77 0133 d881 2e33
00000370: 365b 5c33 dcaa 3733 0551 3533 a238 6933
00000380: 2559 ae33 22b6 9d33 dead 6633 a866 9433
00000390: f4a6 6b33 6ff9 0933 0f50 1237 8423 3136
000003a0: 6817 2b35 c5f7 a635 4b28 3033 5484 3233
000003b0: 6915 0833 7192 c632 b36c cb32 0658 2e31
000003c0: e7eb 0133 6e42 da2f 590e c036 d701 8d35
000003d0: 5b56 8a34 837f 0035 4400 8733 2c7b 4c34
000003e0: e98b 1d34 007a 4134 f17b 5134 0ef7 7333
000003f0: f23a a233 4d49 ec33 c109 0435 f266 9d33

exp_avg f4 [20]
0.0034281595 -0.00041485755 -0.00065456727 3.1873624e-05 0.0034563204 0.00053714105 -0.00015899263 -0.0024029992
-0.00043030817 0.0023120507 -0.00079939625 -0.00042704734 -0.00058720243 -0.0010372122 0.00058224704 -0.00039227575
0.0007558728 0.0029943162 -0.0007907896 -0.0017071238
00000000: f9aa 603b 3d81 d9b9 4497 2bba 0bb0 0538
00000010: 6f83 623b edce 0c3a 42b7 26b9 a37b 1dbb
00000020: fc9a e1b9 c685 173b 938e 51ba 53e5 dfb9
00000030: 7dee 19ba 11f3 87ba f0a1 183a 5caa cdb9
00000040: c425 463a 4a3c 443b fe4c 4fba 92c1 dfba

exp_avg_sq f4 [20]
0.00043206493 2.2646129e-05 1.3362851e-05 0.00011552588 0.00037069034 0.00013790526 0.00011771024 0.00018244455
1.6765633e-05 0.00026056723 1.174078e-05 4.5444678e-05 1.0707454e-05 1.3863317e-05 0.00016531737 3.8297698e-05
0.00013015146 0.0003651148 6.541633e-05 2.1191456e-05
00000000: c686 e239 31f8 bd37 0231 6037 7c46 f238
00000010: 3759 c239 a99a 1039 34db f638 964e 3f39
00000020: eca3 8c37 be9c 8839 44fa 4437 da9b 3e38
00000030: 2aa4 3337 7e96 6837 0b59 2d39 d7a1 2038
00000040: 4479 0839 e16c bf39 2030 8938 4ec4 b137

exp_avg f4 [1, 20]
0.029573357 0.006197208 0.010252614 0.011166793 0.03202578 0.021054031 0.012632647 0.05611415
0.005608093 0.027236069 0.01148021 0.00617101 0.009258592 0.010611568 0.023887679 0.006643648
0.025207378 0.0324045 0.008259135 0.015200055
00000000: d343 f23c f311 cb3b 94fa 273c edf4 363c
00000010: 772d 033d 8179 ac3c 29f9 4e3c f3d7 653d
00000020: 18c4 b73b 2d1e df3c 7e17 3c3c 2f36 ca3b
00000030: 59b1 173c 24dc 2d3c 18b0 c33c f5b2 d93b
00000040: b47f ce3c 95ba 043d 5351 073c a709 793c

exp_avg_sq f4 [1, 20]
0.019295335 0.0055830167 0.0037763198 0.018071026 0.019433318 0.019416746 0.01953635 0.013108656
0.0040125437 0.020681411 0.004953715 0.006334378 0.0033746224 0.004723266 0.018538222 0.0060970066
0.018736525 0.020964064 0.008633372 0.0041723484
00000000: 4011 9e3c bdf1 b63b 227c 773b b009 943c
00000010: 9f32 9f3c de0f 9f3c b20a a03c b0c5 563c
00000020: a87b 833b 106c a93c c652 a23b 9d90 cf3b
00000030: c528 5d3b a1c5 9a3b 78dd 973c 66c9 c73b
00000040: 577d 993c d4bc ab3c fd72 0d3c 32b8 883b
