notebooks/lightning_logs/version_36/checkpoints/epoch=14-step=3794.ckpt (torch, 10127 bytes, 3 tensors)

fc1.weight f4 [20, 94]
00000000: 71fb 6fbc d167 5b3d a33b 923d 2648 0a3c
00000010: 1664 6bbc bb7a a1bd 706a 693d 30e8 1b3d
00000020: 4865 09bd 810c 92bd 5599 c53d 44f7 a23d
00000030: 1d86 4bbd a8e8 443d ce9a 90bd f1d8 443d
00000040: 0035 b83c 4c24 6cbd 1100 58bd af08 01be
00000050: 2a50 4abd 618a 71be 135b b1bd 5a39 d2bd
00000060: b76f 03be f998 5e3d 5da9 03bd 2be2 c73d
00000070: 3645 92bd 2f72 96bd 1831 633d 40d2 bd3d
00000080: 96ed a23d d3ef cd3c f7f7 963d 33f1 323e
00000090: b4dc 263e 9fda 113e ab95 0c3d 85b3 af3c
000000a0: 5f7e c73c 3936 81bd 7032 5e3e 3126 eb3d
000000b0: de51 93be 7e27 87bd 3c65 9d3d 64a3 223d
000000c0: 10c0 f53c 8cc6 73bc bbc0 cc3d 0676 2e3c
000000d0: 9186 503d bb59 2e3d 8c8f ac3d 55bb 9fbd
000000e0: e56b 713d 6ee7 2cbc 8a1c de3c fa44 b0bc
000000f0: 7896 7fbd 55a5 6c3d 453f c33c 2ada 69bd
00000100: 66cf 3d3d 50a6 fabc fed3 8e3d cbc6 14bd
00000110: 875d d1bd a39b 9a3d d3ff a9bd 6196 263d
00000120: ae94 abbd b3ae d5bd 83d4 6fbd f30e 72bd
00000130: d0d7 223c 0bd5 033c a1ce 613d dbb6 4fbd
00000140: 21e1 1fbd 701e 103d 6fcc d83d beb3 b93d
00000150: fdf6 533d 4458 2abe 3b4e 6fbc f916 04be
00000160: 5834 123d 2f56 2a3d 7793 853c b2bf 10bc
00000170: b367 6bbd 5950 74bc 4438 a63d 38e5 af3d
00000180: 72ce dc3d 60c2 2ebd 5b54 bcbd 55a9 03bd
00000190: 50ff 623d 0509 b83c 8572 82b9 fbab 483d
000001a0: 0330 233d fe05 84bd a60d 943b f3f5 443d
000001b0: dd92 3b3c 463d 16bd 214f d1bd ef94 b5bc
000001c0: 945c ce3d 8f76 ebbc 685e 92bd 13fc 25bc
000001d0: fe36 0dbd 88ef 6dbd bfbc 7cbc dbeb 9f3d
000001e0: 400a 30bd 3462 1bbd a996 07bd 8455 1d3d
000001f0: 3f2d 15bc cb5b 8abd 99de c93d e189 d0bd
00000200: fd37 3abd 2ae4 863a a998 413c e983 4d3b
00000210: ca7f 8f3d 8876 a33d f0c6 763d e902 89bd
00000220: 7b50 31bb 8501 b33d 4171 b63d 4753 4bbd
00000230: 665e 03bd 114b 8b3d 937d 9cbc 8121 883b
00000240: 9c11 b83d 6059 a9bd 652a 69bc 2689 9ebc
00000250: f3f3 81bc 2523 513d 559d 773d 61b7 a23d
00000260: 0c04 a23b 4251 953c ec09 92bd 4375 4bbd
00000270: 4609 9d3d 7f02 17bd f888 c5bd c8eb 82bd
00000280: 4f18 e0bd d048 46bd 596f bebc 06a1 a73d
00000290: 7697 bb3c 2b25 933d 542f ed3b f73d 86bd
000002a0: 0237 23bd 5848 56bd ab7b cf3d 0c2e e93b
000002b0: 9dff 53bd 7c39 7a3b ed97 80bd 3046 433d
000002c0: a8ea c63c 0b36 c0bc d972 95bd d337 f6bd
000002d0: b073 973d dabb b4bd 126f 9e3d 7251 bcbd
000002e0: 203c 053d 21a1 83bc f5aa 433c a5fe 113d
000002f0: 8215 93bd f082 0f3d b856 96bd 6153 c1bd
00000300: 9c9a 963c 36f0 2dbd dc44 33bd cb10 253d
00000310: 1101 acbd 5057 e7bd 6686 83bd 5c35 7bbd
00000320: 9cfc b53d 8398 6f3d d63f 6b3d f8e2 3e3c
00000330: b062 353c c187 2f3d 2b22 6cbd 57e5 4fbe
00000340: f66e 79be d2f1 30be 798d a6be 859a 48be
00000350: 9565 46be a462 0bbe 5bfb 69bd 1995 62bd
00000360: 5134 cdbd 7e2f 123d ada3 b23a 1cdb b53c
00000370: 66c9 063e a92b 063d 54d4 6f3d 4713 423e
00000380: 7659 603e 0675 683e c68b 343d 7f43 c43d
00000390: 8124 ec3d 6b51 3cbd 8c8d f73e 32ac f83d
000003a0: 30f1 08bf df76 92bd b391 483d e5c9 a53d
000003b0: f684 483d 3b16 063d 235f d73d 934d 81bd
000003c0: b03c 833d 6c65 393d 18f0 733d aa38 5fbd
000003d0: c8b8 04bd 265d 6fbd 8439 e13d 8132 72bd
000003e0: aee6 c33d a7b0 3cbc e92c 823d 636e 3cbd
000003f0: 113b 50bc 7afb 77bd ea91 97bd b4a6 f8bd
-0.014647351 0.053565804 0.07140281 0.008440053 -0.014367124 -0.07884737 0.056986272 0.038063228
-0.033543855 -0.07131291 0.096483864 0.079573184 -0.049688447 0.04807344 -0.07060777 0.048058454
0.02248621 -0.057651803 -0.05273444 -0.12600969 -0.049392857 -0.23587944 -0.08659949 -0.10264845
-0.12835585 0.054345105 -0.03214394 0.09759935 -0.07142107 -0.073459975 0.05546674 0.09268618
0.07955472 0.025138771 0.07371514 0.17474823 0.16295129 0.14243554 0.034322422 0.021447906
0.02435225 -0.0630917 0.21698928 0.11481894 -0.28773397 -0.065993294 0.076853245 0.039706603
0.02999881 -0.01487888 0.09997698 0.010648256 0.050909583 0.042566042 0.08425817 -0.077994026
0.058940787 -0.010553224 0.027113218 -0.021517266 -0.062399358 0.05777486 0.02383388 -0.057092823
0.04634037 -0.030596882 0.06974028 -0.036322396 -0.10222917 0.075492166 -0.08300748 0.040670756
-0.08377968 -0.10433712 -0.058552276 -0.059096288 0.009939149 0.008046399 0.055128697 -0.050711494
-0.03903306 0.035185277 0.105858676 0.09067486 0.05174922 -0.16635233 -0.014606054 -0.12899388
0.03569445 0.041586097 0.016305668 -0.008834766 -0.057471942 -0.0149117345 0.081162006 0.08588642
0.10781564 -0.04266584 -0.09195777 -0.03214391 0.055419266 0.022465238 -0.00024880856 0.04899214
0.03984071 -0.064464554 0.0045182286 0.048086118 0.011448589 -0.03667953 -0.10220171 -0.022165744
0.100762516 -0.028743057 -0.07146913 -0.0101309 -0.034476273 -0.058089763 -0.01542586 0.07808658
-0.042978525 -0.03793545 -0.033102665 0.038411632 -0.009105026 -0.06755789 0.0985691 -0.10182548
-0.04546355 0.0010291387 0.011816182 0.0031359142 0.07006796 0.079815924 0.060248315 -0.06690008
-0.0027056027 0.08740524 0.0890832 -0.049639966 -0.032072447 0.06801427 -0.019102847 0.0041543846
0.08987734 -0.08269 -0.014231299 -0.019352507 -0.015863394 0.051058907 0.060452778 0.07945133
0.00494433 0.018227223 -0.07130799 -0.049672376 0.076677844 -0.036867615 -0.09645265 -0.06392628
-0.109421365 -0.048409283 -0.023246454 0.0818501 0.02289937 0.071848236 0.007238308 -0.065547876
-0.03984738 -0.052315086 0.1013101 0.007116085 -0.051757444 0.0038181236 -0.062789775 0.047674358
0.024281815 -0.02346327 -0.07297296 -0.120223664 0.073951125 -0.08824892 0.07736029 -0.09195222
0.032528043 -0.016068043 0.011942615 0.03564324 -0.07181837 0.03503698 -0.07340759 -0.094397314
0.01838427 -0.04246541 -0.04376684 0.04029922 -0.08398641 -0.112959504 -0.06422119 -0.061330184
0.08886072 0.058495056 0.057433926 0.011650793 0.011070892 0.042854074 -0.057649773 -0.2030233
-0.24358734 -0.17279747 -0.3252981 -0.19590195 -0.19374688 -0.13611847 -0.057124477 -0.05531797
-0.10019744 0.035689823 0.0013629101 0.022199206 0.13162765 0.03275648 0.0585521 0.18952666
0.21909127 0.22700891 0.04407861 0.09583186 0.115304 -0.045976084 0.4835018 0.12142219
-0.5349302 -0.07151579 0.048967075 0.08095149 0.048954926 0.032736044 0.10516193 -0.06313624
0.064080596 0.04526274 0.059555143 -0.0544974 -0.032402784 -0.058438443 0.10997298 -0.059130196
0.09565483 -0.011516727 0.06356222 -0.04600371 -0.012709395 -0.06054256 -0.07400878 -0.12141171

fc1.bias f4 [20]
00000000: d536 1fbd 21f1 f3bd 7d08 2ebe 612a 883c
00000010: 69a6 a4bd 4283 7539 52a1 b33c be09 5fbc
00000020: 20bd 30bc 255e 67bd 3ff2 2e3d cb45 2abe
00000030: 54d6 e9bd 4a45 a6bd 4463 cebe 41c6 d1bd
00000040: a9dc 8cbd 5e55 f3bd ca78 82bc 26dd 1ebd
-0.03887065 -0.11911226 -0.16995426 0.01662177 -0.08039553 0.00023413918 0.02192751 -0.013613163
-0.010787278 -0.056486268 0.042711493 -0.16628186 -0.11417833 -0.081186846 -0.4031011 -0.10242892
-0.06878025 -0.11881517 -0.015926737 -0.038785122

fc2.weight f4 [1, 20]
00000000: 572a ad3e b677 0bbe 8de2 393f 55c1 61bf
00000010: 486b 59be da36 343e ba99 47bf ad20 5ebf
00000020: 7e21 4f3e 2620 f43d eb71 06bf 6e15 da3e
00000030: 053a 8e3f 4f10 d3be 3688 f63f 5f1d aabe
00000040: ea64 85bd 427e 00bf 7b3e 4fbd 8ef1 5e3f
0.33821365 -0.13619885 0.72611314 -0.88185626 -0.21232331 0.17599049 -0.77968943 -0.8676861
0.2022762 0.11920194 -0.52517575 0.42594475 1.1111456 -0.4122338 1.9260318 -0.33225533
-0.065133885 -0.50192654 -0.050596695 0.87087333
