notebooks/lightning_logs/version_70/checkpoints/epoch=0-step=4036.ckpt (torch, 27799 bytes, 9 tensors)

fc1.weight f4 [20, 94]
0	0x3d8a1691	0.067425855
1	0x3e465b12	0.19370678
2	0x3de22e7d	0.11044023
3	0xbf60a07e	-0.8774489
4	0x3f4521a3	0.7700445
5	0xbf2d4ec4	-0.6769831
6	0x3d8ec7a4	0.06971672
7	0x3d18f39d	0.037341703
8	0x3ea298e7	0.3175728
9	0xbfdd7286	-1.7300575
10	0xbf9ce117	-1.2256192
11	0xbf76d2d0	-0.96415424
12	0xbe66afe2	-0.22528031
13	0xbf12df23	-0.5737173
14	0xbf31303f	-0.6921424
15	0x3f048d8e	0.51778495
16	0xbd8f7cce	-0.070062265
17	0x3ed67ddc	0.41892898
18	0xbebca85e	-0.36847204
19	0xbebd72a3	-0.37001523
20	0xbee2743c	-0.44229305
21	0xbf30b448	-0.6902509
22	0xbf2bf4a1	-0.6717015
23	0xbf8bcb1f	-1.0921363
24	0xbfad5227	-1.3540696
25	0xbfafa78f	-1.372301
26	0xbf499440	-0.78741837
27	0xbfc816a3	-1.5631908
28	0xbff3426d	-1.9004647
29	0xc0117e67	-2.27334
30	0xbfb9df9a	-1.4521363
31	0xbfaa6e89	-1.3314983
32	0xbf698ffb	-0.9123532
33	0xbf6ab3a4	-0.9168036
34	0xbd20abf6	-0.039226495
35	0x3e9ae660	0.30253887
36	0x3f35d5b3	0.71029204
37	0x3f0efe09	0.55856377
38	0x3e1d91c7	0.15387641
39	0x3f09196b	0.5355441
40	0x3f5ca01b	0.861818
41	0x3f5cb2bb	0.8621022
42	0xbf1fd1ae	-0.6242932
43	0xbf1d1e09	-0.61373955
44	0xbfe6cc4e	-1.8031099
45	0xc02bd105	-2.6846325
46	0xc04a0008	-3.156252
47	0xc06a8f56	-3.6649985
48	0xc019cd8e	-2.403171
49	0xc03c8655	-2.945699
50	0xbfaed81d	-1.3659703
51	0xbe85da7d	-0.26143256
52	0xc017c142	-2.3711705
53	0x3e27137d	0.16316028
54	0xbec323d1	-0.38113263
55	0x3e7085c1	0.23488523
56	0x3eecb38c	0.46230733
57	0xbf390292	-0.72269547
58	0xbbd8851a	-0.006607664
59	0xbd74aa98	-0.059733003
60	0xbee3030a	-0.44338256
61	0x3fc28742	1.5197527
62	0xbe3ae324	-0.1825071
63	0xbf5c5d8a	-0.8608023
64	0x3f009c11	0.5023814
65	0xbf8264f2	-1.0187056
66	0xbf15012b	-0.5820491
67	0xbf08b448	-0.5340009
68	0xbe76609f	-0.24060296
69	0xbf9aca4e	-1.2092988
70	0xc0087b3f	-2.1325223
71	0x3f252a8a	0.64518034
72	0xbfdc2aea	-1.7200596
73	0xbfa65902	-1.2995913
74	0x3e8a3b4e	0.2699837
75	0xbf2e6333	-0.68120116
76	0xbf224186	-0.6338123
77	0xbf4594f4	-0.7718041
78	0xbf972d31	-1.1810666
79	0x3efd38bf	0.49457356
80	0xbfa2d991	-1.2722646
81	0xbf7e2c79	-0.9928661
82	0xbe3c85cf	-0.18410419
83	0xbe26481f	-0.1623845
84	0xbf27b8b1	-0.6551619
85	0xbfa7db53	-1.3113807
86	0xbfc2f163	-1.5229915
87	0xc04ae20b	-3.1700466
88	0x3e03c6a5	0.12868746
89	0xbf365a2a	-0.7123133
90	0x3d465ced	0.048428465
91	0xbe543186	-0.20722017
92	0xbf102ef7	-0.5632166
93	0xbfc8295c	-1.5637622
94	0x3d8e3ee6	0.06945591
95	0xbdaba79c	-0.08381578
96	0x3d838964	0.064226896
97	0xbf016e12	-0.5055858
98	0x3f1eb0f8	0.6198878
99	0xbefb3b13	-0.49068508
100	0x3e707b93	0.2348464
101	0x3dcb99ce	0.09941445
102	0x3e63c87e	0.2224445
103	0xbf8c04ed	-1.0939003
104	0x3cf39d82	0.029738192
105	0xbf0ddc39	-0.5541416
106	0xbe8ce0ea	-0.27515346
107	0x40036dbb	2.0535724
108	0xbf7dce94	-0.9914334
109	0xbf165972	-0.5873023
110	0xbd31ff0f	-0.043456133
111	0x3ed15581	0.40885547
112	0xbf500af9	-0.8126674
113	0xbf99d6ff	-1.2018737
114	0xbf893073	-1.071791
115	0xbfcf74d0	-1.6207523
116	0xbfc8ee0b	-1.5697645
117	0xc0011d98	-2.0174313
118	0xbfb32535	-1.399573
119	0xbf87b9cf	-1.0603579
120	0xbf13451b	-0.5752732
121	0xbf7311a9	-0.9494882
122	0xbf7c3101	-0.98512274
123	0xbfc82c85	-1.5638586
124	0xbf3d1911	-0.73866373
125	0xbf3da33a	-0.7407719
126	0xbe4fe1c6	-0.2030097
127	0xbe632f32	-0.22185972
128	0x3e0069c9	0.12540354
129	0x3f08ad9e	0.5338992
130	0x3fc0ae70	1.5053234
131	0x3f769af2	0.9633018
132	0x3f9ecb39	1.2405769
133	0x3fbeb032	1.489752
134	0x3fc94b44	1.5726094
135	0x3f814f67	1.0102357
136	0xbe9af8af	-0.30267856
137	0xbf8d2dae	-1.1029565
138	0xc04e6f3f	-3.22554
139	0xbf2f1c0c	-0.6840217
140	0xc0700b3a	-3.7506852
141	0xc05270cf	-3.2881353
142	0xc080f983	-4.030458
143	0xc0877705	-4.2332788
144	0x3f79734e	0.97441566
145	0xbff7bdd3	-1.9354805
146	0xc01fb533	-2.4954345
147	0xbd978125	-0.07397679
148	0xbeb998f5	-0.3624951
149	0x3e1c0301	0.15235521
150	0xbf948e45	-1.1605917
151	0xbd60663e	-0.054785006
152	0x3f9136d1	1.1344854
153	0x3f6d5a67	0.9271607
154	0xbe681f43	-0.22668175
155	0x3e6cfcdf	0.23143338
156	0x3e8fb6b7	0.28069088
157	0xbf7cb2ff	-0.98710626
158	0xbdbee09d	-0.09320185
159	0xbfb1f68d	-1.3903366
160	0x3f110f50	0.5666399
161	0xbfb9b189	-1.4507304
162	0xbb8764ae	-0.004131875
163	0x3ceeeed7	0.029166622
164	0xbe62f809	-0.2216493
165	0xbe02d6bf	-0.12777232
166	0xbf719efe	-0.9438323
167	0xbf2f44a9	-0.6846414
168	0x3ec6efc4	0.38854802
169	0xbf001cab	-0.50043744
170	0xbf98d161	-1.1938897
171	0x3d170b0a	0.036875762
172	0xbf84c664	-1.0373044
173	0xbeebc4e3	-0.4604865
174	0xbf563492	-0.83673966
175	0xbe048b57	-0.12943779
176	0x3f3134ea	0.69221365
177	0x3e85e751	0.26153043
178	0xbf9ca3e8	-1.223752
179	0xbf6f61be	-0.9350852
180	0xbf95cdc4	-1.170342
181	0xc0290ace	-2.6412845
182	0x3f0f6f60	0.5602932
183	0xbef640c6	-0.48096293
184	0x3f0502ec	0.51957583
185	0xbe843fb3	-0.2582985
186	0xbe8f0b92	-0.27938515
187	0xbf9bc1ea	-1.2168553
188	0x3e791e48	0.24327958
189	0x3ed23f44	0.41063893
190	0x3ec438a5	0.38324466
191	0xbe59e65a	-0.21279278
192	0x3fa22d4e	1.2670076
193	0xbf2f075c	-0.68370605
194	0x3e8f7d9c	0.2802552
195	0xbe30a1c7	-0.17249213
196	0x3ecda032	0.40161282
197	0xbfe24ff0	-1.7680645
198	0xbf07c06f	-0.53028005
199	0xbf5a149f	-0.85187715
200	0xbf594276	-0.84867036
201	0xbf50ebfb	-0.8161008
202	0xbea3bf88	-0.31982064
203	0xbe8e2eb3	-0.27770004
204	0x3dc9124e	0.098179445
205	0xbe6b41fc	-0.2297439
206	0xbecb7fd8	-0.39745975
207	0xbeeb5fd3	-0.45971546
208	0xbed5148e	-0.41617244
209	0xbf80d44c	-1.0064788
210	0xbfba6465	-1.4561888
211	0xbfb4af70	-1.4116039
212	0xbf65a7f2	-0.8970939
213	0xbf82a4e2	-1.0206568
214	0xbf5de0b0	-0.8667097
215	0xbfb94cf7	-1.4476613
216	0xbfc69758	-1.5514936
217	0xbfdeb336	-1.7398441
218	0xbfa1af5c	-1.263164
219	0xbf904ffd	-1.127441
220	0xbf55a5a5	-0.8345588
221	0xbf8ece89	-1.115678
222	0xbf5129a4	-0.81704164
223	0xbf1cd9d0	-0.61269855
224	0xbce156ea	-0.027507264
225	0x3dbe7534	0.092996985
226	0x3e88bff8	0.2670896
227	0x3f3c5e1e	0.7358111
228	0x3fa5c688	1.2951212
229	0x3fdf9f11	1.7470418
230	0xbee6d786	-0.45086306
231	0xbfd5cdda	-1.6703446
232	0xbf86152b	-1.047521
233	0xbed302dd	-0.41213122
234	0xc001b35b	-2.026572
235	0xc05cabe8	-3.4479923
236	0xbf8f7ecc	-1.121057
237	0xc01204ad	-2.2815354
238	0xc003c509	-2.058901
239	0xc0035b63	-2.0524528
240	0xbfe4233a	-1.782325
241	0x3e37af8c	0.1793806
242	0xbe6f24a6	-0.23353824
243	0xbe5004a0	-0.20314264
244	0xbf3110f1	-0.69166476
245	0xbe800321	-0.25002387
246	0xbf9bda5d	-1.2176014
247	0xbf3eca2b	-0.74527234
248	0xbf08dd93	-0.53463095
249	0x3ebcc8a8	0.3687184
250	0x3e8affc3	0.27148256
251	0x3e569393	0.20954733
252	0xbd10b057	-0.03532442
253	0xbf5a4131	-0.85255724
254	0x3e45a3b1	0.19300725
255	0xbf0f14a4	-0.5589087

fc1.bias f4 [20]
0	0xbff1c699	-1.8888732
1	0xbfadd5a1	-1.3580819
2	0xc000111d	-2.0010445
3	0xbfd43c89	-1.6580974
4	0xc04350fd	-3.0518181
5	0xc03292f6	-2.7902198
6	0xbfc017ab	-1.5007223
7	0xbf7628ba	-0.96155894
8	0xc00aae30	-2.1668816
9	0xbf0a6184	-0.5405505
10	0xbfa3eacc	-1.2806029
11	0xbfcd9654	-1.6061502
12	0xbfb9b6a4	-1.4508862
13	0xbfa79241	-1.3091508
14	0xbff035f2	-1.8766463
15	0xbfa44c74	-1.2835832
16	0xc021b1d1	-2.526478
17	0xbf09e955	-0.5387166
18	0xbfb8c1c9	-1.4434139
19	0xc0193296	-2.3937125

fc2.weight f4 [1, 20]
0	0x3c2d071f	0.01056078
1	0xbbf55cce	-0.00748787
2	0x3cc517a4	0.024059124
3	0xbc81294a	-0.015766758
4	0x3cfdd377	0.030984623
5	0x3c1777ee	0.009244902
6	0xbd64439b	-0.055728536
7	0x3eb59808	0.35467553
8	0xbda9497c	-0.08265969
9	0xbc30f66e	-0.010800941
10	0x3cad8aba	0.021184314
11	0x3be636a1	0.0070255552
12	0x3d817317	0.0632078
13	0x3db92616	0.090404674
14	0xbebdaaca	-0.37044364
15	0x3e06d7b7	0.13168226
16	0x3d098156	0.03357061
17	0x3f0212bd	0.5080984
18	0x3ddec27d	0.108769394
19	0xbde2094e	-0.11036931

exp_avg f4 [20, 94]
0	0xb599bac9	-1.145375e-06
1	0xb599bac9	-1.145375e-06
2	0xb599bac9	-1.145375e-06
3	0xb3cd1c99	-9.551258e-08
4	0xb2e7317d	-2.6914444e-08
5	0x365f83d2	3.330632e-06
6	0x33fff18d	1.1918301e-07
7	0x351741d4	5.6347676e-07
8	0xb58782f0	-1.0096392e-06
9	0x3188a247	3.9765697e-09
10	0x9979261d	-1.2880695e-23
11	0x3516906f	5.6089533e-07
12	0xaa107c4e	-1.2832896e-13
13	0x96309722	-1.4264856e-25
14	0xb3e2f57d	-1.0568599e-07
15	0x80000004	-6e-45
16	0x00000000	0.0
17	0x00000004	6e-45
18	0x32fa52b1	2.9141434e-08
19	0x33c074eb	8.961964e-08
20	0xb3fe88fc	-1.1852714e-07
21	0xb3e44bf4	-1.0630893e-07
22	0xb405559f	-1.2417739e-07
23	0xb42e6058	-1.6240062e-07
24	0x3437b70d	1.7109797e-07
25	0x3348c8ae	4.6748646e-08
26	0xb3940d4d	-6.8942065e-08
27	0x328205be	1.5136603e-08
28	0xb24bc446	-1.1860783e-08
29	0x32930e7e	1.7119643e-08
30	0xb29d4cb9	-1.8312095e-08
31	0xb2f26404	-2.821799e-08
32	0xb32b25d0	-3.984843e-08
33	0xb2a38871	-1.9037744e-08
34	0x327f11c3	1.4846992e-08
35	0x341fda6a	1.4887488e-07
36	0xb2049863	-7.71806e-09
37	0x33a632c6	7.739213e-08
38	0x33a89834	7.850795e-08
39	0x33f1523e	1.1237397e-07
40	0x3415f54c	1.3965945e-07
41	0x3470898b	2.240178e-07
42	0x80000004	-6e-45
43	0x00000004	6e-45
44	0x80000004	-6e-45
45	0x00000004	6e-45
46	0x00000004	6e-45
47	0x80000004	-6e-45
48	0x00000004	6e-45
49	0x00000004	6e-45
50	0x00264592	3.514706e-39
51	0x9a4e45c7	-4.2656167e-23
52	0xb0d59e3c	-1.5542763e-09
53	0x34f75b9e	4.6073995e-07
54	0x3255b210	1.24387185e-08
55	0x34f0ae0e	4.4830125e-07
56	0x1d47a0dd	2.6420595e-21
57	0x1aa9206c	6.994914e-23
58	0x1e3e2246	1.0065604e-20
59	0x9e973b9b	-1.6012399e-20
60	0x9ec53be3	-2.0882955e-20
61	0x1fe062af	9.503095e-20
62	0x9e88ce88	-1.448498e-20
63	0xa260f66a	-3.0488111e-18
64	0x22ceadf2	5.6020584e-18
65	0x23eea267	2.5872792e-17
66	0xa4575ab1	-4.6697512e-17
67	0xa4f26121	-1.0511531e-16
68	0x25b2e08f	3.1030245e-16
69	0x22913214	3.935535e-18
70	0xa64369ac	-6.779743e-16
71	0x2928d037	3.748409e-14
72	0x283fe3be	1.0652014e-14
73	0xa90d801c	-3.1419406e-14
74	0xab98647f	-1.0828143e-12
75	0x2b081b30	4.8354636e-13
76	0xab45929c	-7.019192e-13
77	0x2e3c8efb	4.2873243e-11
78	0xae6fcfd1	-5.4526886e-11
79	0x2ffc5d02	4.590462e-10
80	0xb1188a8f	-2.2197673e-09
81	0xb1032db7	-1.9088995e-09
82	0xafa8b704	-3.0689062e-10
83	0x31275806	2.4351734e-09
84	0x9a1e6038	-3.275136e-23
85	0x34f7b69a	4.6140195e-07
86	0xb1184f21	-2.216389e-09
87	0x31274bab	2.434471e-09
88	0x32566efd	1.2481675e-08
89	0x34f0a692	4.482468e-07
90	0x2ffc5e85	4.5905693e-10
91	0xb1188b1d	-2.2197988e-09
92	0xb10340c5	-1.9099826e-09
93	0xafa872e9	-3.064067e-10
94	0x37018d4d	7.721898e-06
95	0x37018d4d	7.721898e-06
96	0x37018d4d	7.721898e-06
97	0x3545856a	7.358236e-07
98	0x34bbefea	3.5006025e-07
99	0xb7a8c681	-2.0119596e-05
100	0xb5e3a1af	-1.6959874e-06
101	0xb6cb41f2	-6.0575485e-06
102	0x361cdb0a	2.337331e-06
103	0xb2a174af	-1.8795928e-08
104	0x9ad1eec8	-8.6826146e-23
105	0xb6cab4df	-6.0411253e-06
106	0x2a8a425d	2.4559773e-13
107	0x98d9f27c	-5.633803e-24
108	0x33bc0ade	8.756409e-08
109	0x00000004	6e-45
110	0x00000000	0.0
111	0x80000004	-6e-45
112	0xb48458e4	-2.4651592e-07
113	0xb4304b08	-1.6418574e-07
114	0x3400f0b4	1.2008496e-07
115	0x33beb9e2	8.881376e-08
116	0x3405bac1	1.2454531e-07
117	0x344727fb	1.8547864e-07
118	0xb5140d78	-5.5153896e-07
119	0xb4d607c2	-3.986625e-07
120	0x3426424e	1.5484076e-07
121	0xb46cb9b9	-2.2046778e-07
122	0x321d4e46	9.1564e-09
123	0xb46fd8e0	-2.2337508e-07
124	0x34470767	1.8536012e-07
125	0x347f08c5	2.3751916e-07
126	0x34dbc8db	4.093807e-07
127	0x345119ef	1.9474076e-07
128	0xb37d028f	-5.890848e-08
129	0xb53770ac	-6.833677e-07
130	0x33d9cd61	1.0142208e-07
131	0xb51efd75	-5.9228415e-07
132	0xb58c0f52	-1.0435272e-06
133	0xb5a48c7e	-1.2259841e-06
134	0xb599ac48	-1.1449529e-06
135	0xb5a5140f	-1.2299296e-06
136	0x80000004	-6e-45
137	0x80000004	-6e-45
138	0x00000004	6e-45
139	0x80000004	-6e-45
140	0x00000004	6e-45
141	0x00000004	6e-45
142	0x00000004	6e-45
143	0x00000004	6e-45
144	0x00545981	7.74629e-39
145	0x9b4493da	-1.6260513e-22
146	0x33679098	5.3915386e-08
147	0xb6ca354a	-6.026273e-06
148	0xb677bdee	-3.6916422e-06
149	0xb61caca5	-2.3346304e-06
150	0x1d4b7d20	2.6931514e-21
151	0x1c31e307	5.8857813e-22
152	0x1fc6aa5b	8.413809e-20
153	0x20c0e8d8	3.2680148e-19
154	0x20a570e5	2.8026795e-19
155	0xa08c7f1d	-2.380104e-19
156	0x20a87390	2.853678e-19
157	0x23ad14c3	1.876549e-17
158	0xa31f92e3	-8.650512e-18
159	0xa4bd3fa2	-8.207348e-17
160	0x262f171a	6.074663e-16
161	0x25f00018	4.1633427e-16
162	0xa6c5a51b	-1.3714373e-15
163	0xa4d991d9	-9.4355824e-17
164	0x290df3d5	3.151978e-14
165	0xa9992a41	-6.801895e-14
166	0xaa2fd26d	-1.5616128e-13
167	0x2ade37b2	3.9473768e-13
168	0x2da5adf2	1.8835575e-11
169	0xab88dc65	-9.724553e-13
170	0x2c027bfe	1.854294e-12
171	0xb01fe147	-5.8164e-10
172	0x2ed1563e	9.519539e-11
173	0x31c9a53d	5.8686553e-09
174	0x32e36d07	2.6475858e-08
175	0x331e3274	3.683313e-08
176	0x3255f02b	1.245284e-08
177	0xb2ea1035	-2.7248555e-08
178	0x9b142ec3	-1.2257383e-22
179	0xb6ca0daf	-6.021662e-06
180	0x3353c221	4.9303825e-08
181	0xb2ea0c1f	-2.7246697e-08
182	0xb677c7ec	-3.6922238e-06
183	0xb61cab04	-2.3345356e-06
184	0x31c9a3e2	5.8685012e-09
185	0x32e36de4	2.647625e-08
186	0x331e4726	3.685195e-08
187	0x3255ebdf	1.2451863e-08
188	0xb520a612	-5.984631e-07
189	0xb520a612	-5.984631e-07
190	0xb520a612	-5.984631e-07
191	0xb4d34afa	-3.9356365e-07
192	0x33286f67	3.9216868e-08
193	0x36013dfb	1.9258575e-06
194	0xb501d452	-4.836521e-07
195	0x34910995	2.7015327e-07
196	0xb5d5de5b	-1.5934451e-06
197	0x33227b7c	3.7830873e-08
198	0x9872f07f	-3.1399186e-24
199	0x34d02f92	3.877763e-07
200	0xac66bddc	-3.279036e-12
201	0x93007e83	-1.6218246e-27
202	0xb592eced	-1.0946802e-06
203	0x00000004	6e-45
204	0x00000000	0.0
205	0x80000004	-6e-45
206	0xb33953b8	-4.314981e-08
207	0x336ac9d6	5.466594e-08
208	0xb37c99fd	-5.8813374e-08
209	0xb31f05db	-3.7025398e-08
210	0xb2dadc08	-2.5478599e-08
211	0xb355d4a4	-4.9786323e-08
212	0x3407b2d9	1.2637919e-07
213	0x33203b9d	3.730712e-08
214	0xb2a4256a	-1.9109127e-08
215	0x327d257a	1.4735059e-08
216	0x30d3af31	1.5402063e-09
217	0x32afebd3	2.0479922e-08
218	0xb26c7989	-1.3764642e-08
219	0xb28110cb	-1.5025213e-08
220	0xb04be983	-7.418281e-10
221	0x3313f6ad	3.4450455e-08
222	0x33366091	4.2463004e-08
223	0x32a4f487	1.9203311e-08
224	0xb19ebe58	-4.620045e-09
225	0xb1e09b77	-6.5369323e-09
226	0x329363ff	1.7158525e-08
227	0x33d2d678	9.817899e-08
228	0x346aee48	2.1879634e-07
229	0xb59101b0	-1.0803833e-06
230	0x80000004	-6e-45
231	0x00000004	6e-45
232	0x00000004	6e-45
233	0x80000004	-6e-45
234	0x00000004	6e-45
235	0x80000004	-6e-45
236	0x00000004	6e-45
237	0x00000004	6e-45
238	0x000944cf	8.51203e-40
239	0x99ab818b	-1.7733308e-23
240	0xb5623b8a	-8.42782e-07
241	0x343a83d4	1.7370559e-07
242	0xb3d32fc0	-9.834139e-08
243	0x34920dda	2.7204698e-07
244	0x1aaecd80	7.2296716e-23
245	0x1c1c92a8	5.180562e-22
246	0x1d843976	3.4999522e-21
247	0x9ce7951d	-1.5324843e-21
248	0xa0530d1d	-1.7876734e-19
249	0x217f871b	8.657617e-19
250	0xa16c6485	-8.0092947e-19
251	0xa2b5f003	-4.931427e-18
252	0xa3c85723	-2.1720947e-17
253	0x238a2bc7	1.498053e-17
254	0x1fb8797a	7.8128e-20
255	0xa5be69b7	-3.303138e-16

exp_avg_sq f4 [20, 94]
0	0x37560abf	1.2757896e-05
1	0x37560abf	1.2757896e-05
2	0x37560abf	1.2757896e-05
3	0x3658d34b	3.2309497e-06
4	0x36388003	2.749265e-06
5	0x37113b83	8.65653e-06
6	0x382154ce	3.846437e-05
7	0x3728dc5a	1.0064885e-05
8	0x3745cca7	1.1789764e-05
9	0x3681cee8	3.8685866e-06
10	0x322677b4	9.689689e-09
11	0x366c2106	3.5185963e-06
12	0x348c7e55	2.616895e-07
13	0x2b89a915	9.781365e-13
14	0x361fefd0	2.3832436e-06
15	0x31e77cf8	6.737192e-09
16	0x00000000	0.0
17	0x316e547f	3.4681589e-09
18	0x353ccf9c	7.033757e-07
19	0x34d268d8	3.9191832e-07
20	0x353b18f5	6.9699246e-07
21	0x347a3cdf	2.3305209e-07
22	0x34b72abd	3.4117502e-07
23	0x339f8810	7.428764e-08
24	0x33ea3845	1.09067095e-07
25	0x342bab15	1.5987855e-07
26	0x346056b0	2.0893162e-07
27	0x33920120	6.7988594e-08
28	0x33b3564a	8.351033e-08
29	0x32feac62	2.9647882e-08
30	0x3382f554	6.098222e-08
31	0x335caf7a	5.1382337e-08
32	0x341202d0	1.3598333e-07
33	0x33d5133e	9.9220856e-08
34	0x342be997	1.6010596e-07
35	0x33a71c5d	7.781703e-08
36	0x3429c9da	1.5812785e-07
37	0x34070ecb	1.2578236e-07
38	0x3441af48	1.8038293e-07
39	0x342f36a7	1.6318027e-07
40	0x34e34c39	4.2337504e-07
41	0x34b53b14	3.3756862e-07
42	0x3686123f	3.9956353e-06
43	0x36e7a5cc	6.9036378e-06
44	0x31a8ce31	4.9128848e-09
45	0x2e2d1cfe	3.9361396e-11
46	0x311eb062	2.3092288e-09
47	0x310106d3	1.877585e-09
48	0x33a754fb	7.792001e-08
49	0x31bf547c	5.5684364e-09
50	0x354441aa	7.3111244e-07
51	0x33807256	5.981262e-08
52	0x2e861d4a	6.098817e-11
53	0x31089229	1.9873687e-09
54	0x3590fa48	1.0801677e-06
55	0x330f3006	3.333846e-08
56	0x3453a63a	1.9711379e-07
57	0x350dab50	5.2775886e-07
58	0x32fcb6f8	2.9419866e-08
59	0x32ed9191	2.7656627e-08
60	0x33d2e4f6	9.820535e-08
61	0x3429907c	1.5791915e-07
62	0x34d7909d	4.015209e-07
63	0x3562a3fb	8.4430184e-07
64	0x3598cc75	1.1384387e-06
65	0x366fbdcf	3.5724258e-06
66	0x3531adeb	6.619072e-07
67	0x34ff8cd9	4.7599931e-07
68	0x33624ceb	5.2689682e-08
69	0x33b4ea1b	8.424487e-08
70	0x3295f3e2	1.7456788e-08
71	0x347f9d41	2.3805934e-07
72	0x32b63c02	2.1214877e-08
73	0x332f3948	4.079746e-08
74	0x324137b2	1.1246742e-08
75	0x3203698c	7.649202e-09
76	0x342930b5	1.5757071e-07
77	0x335275db	4.9001624e-08
78	0x35b43f39	1.3429445e-06
79	0x31f55fc7	7.141327e-09
80	0x31a2b0ca	4.734919e-09
81	0x3389f9b3	6.42498e-08
82	0x3269b244	1.3602918e-08
83	0x3316cf64	3.5113217e-08
84	0x3319830b	3.574227e-08
85	0x372070ab	9.562976e-06
86	0x360a3e19	2.0599748e-06
87	0x33dbc485	1.0233729e-07
88	0x36323a58	2.6558027e-06
89	0x3683cd53	3.928007e-06
90	0x35cabb10	1.5104615e-06
91	0x35a5327f	1.2308154e-06
92	0x35745f2f	9.1035594e-07
93	0x35928b59	1.0918403e-06
94	0x38192698	3.6513986e-05
95	0x38192698	3.6513986e-05
96	0x38192698	3.6513986e-05
97	0x363b4f1e	2.7911224e-06
98	0x398df83c	0.00027078565
99	0x37ae97a7	2.0813035e-05
100	0x383ded3f	4.5282064e-05
101	0x37dd6e63	2.6396656e-05
102	0x37c0532f	2.2926919e-05
103	0x3734cda3	1.0776715e-05
104	0x343c7c61	1.7554113e-07
105	0x372aca2c	1.0179861e-05
106	0x34ef2005	4.4540516e-07
107	0x2d745dbb	1.38906065e-11
108	0x3605f619	1.9961792e-06
109	0x341c8c98	1.457978e-07
110	0x00000000	0.0
111	0x35d2dc0c	1.5710261e-06
112	0x35a86f16	1.2549306e-06
113	0x3521f3e9	6.033211e-07
114	0x35939c98	1.0997928e-06
115	0x34bc3fb0	3.5064068e-07
116	0x352e6b02	6.497577e-07
117	0x345c144d	2.0496482e-07
118	0x34eb1db8	4.3793784e-07
119	0x34958cfc	2.7855992e-07
120	0x3553e9ff	7.8944134e-07
121	0x34940314	2.7569388e-07
122	0x3447129c	1.8540089e-07
123	0x34060802	1.2482636e-07
124	0x347f6625	2.3785886e-07
125	0x3422b506	1.5153282e-07
126	0x34ee7799	4.4417973e-07
127	0x3480314e	2.3877732e-07
128	0x35080773	5.067479e-07
129	0x34ac44c6	3.2087536e-07
130	0x3577c6d2	9.230399e-07
131	0x34d1004e	3.8929505e-07
132	0x3551bc0d	7.8132217e-07
133	0x350e9934	5.312206e-07
134	0x35a678f7	1.2403169e-06
135	0x351b962b	5.796052e-07
136	0x37bbf18d	2.2404618e-05
137	0x36b72a80	5.4587726e-06
138	0x34e25f9e	4.216535e-07
139	0x317eb913	3.7067067e-09
140	0x31cf7cb5	6.0386705e-09
141	0x3283760f	1.5304094e-08
142	0x325ee9ea	1.2975287e-08
143	0x32987b7a	1.775128e-08
144	0x356a6aaa	8.732701e-07
145	0x32b4b5e3	2.103747e-08
146	0x31a9c260	4.9406452e-09
147	0x3071d20c	8.7973784e-10
148	0x36110851	2.1611525e-06
149	0x3598c58a	1.1382374e-06
150	0x35d17029	1.5604356e-06
151	0x35ffa7af	1.9047783e-06
152	0x353d7ec8	7.059248e-07
153	0x357355c7	9.0649377e-07
154	0x3507f8f3	5.065369e-07
155	0x352b3113	6.3773876e-07
156	0x36030d84	1.9528388e-06
157	0x35e4c44e	1.7044456e-06
158	0x3606f57e	2.0110451e-06
159	0x3666c16f	3.4385264e-06
160	0x34965375	2.80004e-07
161	0x34e6a6f2	4.2962307e-07
162	0x351c4c6a	5.8225726e-07
163	0x352176db	6.015013e-07
164	0x356d7e8a	8.847352e-07
165	0x34f519f2	4.5653684e-07
166	0x3608541a	2.0314533e-06
167	0x34f6ceff	4.597168e-07
168	0x3407e642	1.2656622e-07
169	0x33d8b689	1.0091487e-07
170	0x34b367c8	3.341686e-07
171	0x351d1ee1	5.853199e-07
172	0x3463ab85	2.1203421e-07
173	0x349875b1	2.8397838e-07
174	0x352946ff	6.306072e-07
175	0x34f74aaa	4.606166e-07
176	0x34d404e2	3.949163e-07
177	0x3511146b	5.404642e-07
178	0x3494f11a	2.7742573e-07
179	0x379c0ef4	1.8603612e-05
180	0x372b1c55	1.0198991e-05
181	0x36603ff1	3.341582e-06
182	0x360dc989	2.1127946e-06
183	0x36ae14a2	5.188006e-06
184	0x3681232c	3.848594e-06
185	0x3683a5a9	3.9233896e-06
186	0x3691d1dc	4.3457676e-06
187	0x36b9eb6d	5.540837e-06
188	0x37047ea6	7.897301e-06
189	0x37047ea6	7.897301e-06
190	0x37047ea6	7.897301e-06
191	0x35c2e923	1.4521978e-06
192	0x33fec45c	1.1863514e-07
193	0x375597a4	1.2731096e-05
194	0x37742df9	1.4554237e-05
195	0x3712dc26	8.753535e-06
196	0x372316b3	9.720842e-06
197	0x364ef856	3.0840943e-06
198	0x338bc398	6.50827e-08
199	0x36789116	3.703933e-06
200	0x345b5a02	2.0428709e-07
201	0x339b935c	7.2445545e-08
202	0x34e8a31e	4.333205e-07
203	0x31aa5f36	4.9584754e-09
204	0x00000000	0.0
205	0x33f8d4e6	1.1587126e-07
206	0x3519e692	5.7332466e-07
207	0x34d1b213	3.905885e-07
208	0x35087683	5.0836405e-07
209	0x34146225	1.3819279e-07
210	0x33d47e87	9.8950345e-08
211	0x32f8ad15	2.8949708e-08
212	0x33fe0f75	1.1830608e-07
213	0x33b68a5e	8.500204e-08
214	0x341551b7	1.3906434e-07
215	0x333acca0	4.3492605e-08
216	0x339e276f	7.364621e-08
217	0x3219b859	8.947688e-09
218	0x32da7c39	2.543503e-08
219	0x332e39d9	4.0565144e-08
220	0x3401d2c5	1.2090739e-07
221	0x341d05b7	1.4623843e-07
222	0x3528e521	6.2918303e-07
223	0x34867e27	2.5051233e-07
224	0x3479901d	2.324236e-07
225	0x33e3def2	1.0611065e-07
226	0x33f87e97	1.15714265e-07
227	0x33b17542	8.263534e-08
228	0x348a3647	2.5743995e-07
229	0x3483c748	2.4545648e-07
230	0x36cbcff3	6.07408e-06
231	0x355ff58a	8.343128e-07
232	0x3635b21e	2.707478e-06
233	0x31a1477a	4.6938426e-09
234	0x31edd2ac	6.9215584e-09
235	0x31b39a51	5.2271294e-09
236	0x32f1ace3	2.8134712e-08
237	0x31a96658	4.9301825e-09
238	0x33463520	4.6148784e-08
239	0x3058d2e0	7.8880014e-10
240	0x30e8cd64	1.6938597e-09
241	0x31733a12	3.5394163e-09
242	0x361eaa1a	2.3642847e-06
243	0x341476b8	1.3826764e-07
244	0x3526beee	6.211766e-07
245	0x353218ea	6.634642e-07
246	0x351590cc	5.571753e-07
247	0x33ece6d6	1.1031595e-07
248	0x316fe217	3.4907595e-09
249	0x32b018a4	2.0500302e-08
250	0x339d5f78	7.328248e-08
251	0x34b43371	3.356504e-07
252	0x34e27f25	4.218829e-07
253	0x35a32ede	1.2158087e-06
254	0x35f3e7fd	1.8172428e-06
255	0x34e24ace	4.2150208e-07

exp_avg f4 [20]
0	0x34f68604	4.591858e-07
1	0xb6c86629	-5.9723575e-06
2	0xb5339a99	-6.6907666e-07
3	0xb77280f2	-1.44543465e-05
4	0x386bacb9	5.6189227e-05
5	0x3478717d	2.3138087e-07
6	0xb85506fa	-5.0789655e-05
7	0x3b4ed47a	0.0031559751
8	0xba74a073	-0.000933177
9	0x398ac150	0.0002646544
10	0x36bcf703	5.6315926e-06
11	0x37a0ccb7	1.9168814e-05
12	0x37e6db45	2.7520242e-05
13	0x378a93e7	1.6519754e-05
14	0xbb381596	-0.0028089038
15	0x38b2c995	8.525249e-05
16	0x37122bec	8.7125045e-06
17	0x3b7ce92c	0.003859113
18	0x39506fcc	0.00019878073
19	0x380acea5	3.3094217e-05

exp_avg_sq f4 [20]
0	0x3744b0ba	1.1723658e-05
1	0x37f555de	2.9246261e-05
2	0x37213e78	9.610892e-06
3	0x37812459	1.5394924e-05
4	0x37925e7d	1.7448556e-05
5	0x37c0194e	2.2899967e-05
6	0x391ddcb3	0.00015054904
7	0x3a2516e0	0.0006297659
8	0x374458ee	1.1703216e-05
9	0x39b86675	0.0003517155
10	0x36c0908d	5.738874e-06
11	0x38aaf5c3	8.1520084e-05
12	0x392f16a2	0.00016697732
13	0x391a50fd	0.00014716755
14	0x38684f41	5.538692e-05
15	0x3972a173	0.00023139063
16	0x372077e1	9.564655e-06
17	0x3a39a282	0.00070814055
18	0x391e3a2d	0.00015089726
19	0x373c5a41	1.1226687e-05

exp_avg f4 [1, 20]
0	0x381f2aa8	3.794828e-05
1	0x3ab39dd6	0.0013703655
2	0xb8051fa4	-3.173914e-05
3	0x3b61dc7e	0.00344637
4	0x3ad0d6da	0.0015933171
5	0x37ad9a77	2.0695135e-05
6	0x3a7754b0	0.00094349217
7	0x3d602084	0.05471851
8	0xbba069d9	-0.0048954305
9	0x3d595b70	0.053065717
10	0x3986bb15	0.0002569786
11	0x3b04b133	0.002024722
12	0x39ddf804	0.0004233719
13	0x38994d0e	7.309961e-05
14	0x3c2afef6	0.010436764
15	0x3a05db09	0.0005106186
16	0x39858de7	0.00025473462
17	0x3a81b5d8	0.0009896113
18	0xbbcd37b2	-0.006262743
19	0xb9945721	-0.00028293676

exp_avg_sq f4 [1, 20]
0	0x3be6e0c3	0.0070458367
1	0x3c7116e3	0.014714929
2	0x3ba2bbe8	0.004966248
3	0x3bd2f520	0.0064379126
4	0x3b982416	0.0046429737
5	0x3bbe3cc3	0.005805583
6	0x3c26a70d	0.010171664
7	0x3d32ed0c	0.043683097
8	0x3bb4e532	0.0055204863
9	0x3d3736eb	0.04473011
10	0x3b17b12e	0.0023146379
11	0x3c141314	0.009037752
12	0x3c6f86ca	0.014619539
13	0x3cf58c2a	0.029974062
14	0x3c625220	0.013813525
15	0x3c7a1218	0.015263103
16	0x3b902496	0.0043988926
17	0x3d6fedac	0.05857627
18	0x3c259297	0.0101057505
19	0x3b7a3b5d	0.0038182356
