notebooks/lightning_logs/version_81/checkpoints/epoch=14-step=3704.ckpt (torch, 10127 bytes, 3 tensors)

fc1.weight f4 [20, 94]
0.023906518 0.01329699 -0.06949694 -0.03726397 -0.05671276 -0.008068244 0.035811134 -0.02713653
0.05923807 -0.098245576 0.07924322 0.023914853 -0.060180403 0.038495757 -0.08179549 -0.027909536
-0.032824002 0.1269041 -0.08760979 -0.13141008 -0.24895297 -0.29897127 -0.29782918 -0.39533615
-0.22295746 -0.14692558 -0.067553855 -0.10109992 0.010547158 0.06315093 0.08341951 -0.05163204
0.014704119 0.16084288 0.09329108 0.1442211 0.21829174 0.14342986 0.10647633 0.13683112
0.09668535 0.087570064 0.5137883 0.37848344 -0.19437647 -0.26702783 -0.19077589 -0.13139635
-0.083291724 -0.09524985 0.111825205 0.074632056 -0.057778593 0.06394522 -0.036352105 0.11779718
0.041040685 0.020355213 0.048586767 0.0067727356 0.08302996 0.13862734 0.07137046 0.0605448
0.01391669 0.09413172 0.053051323 -0.0019818447 -0.011802171 -0.07500498 -0.020965846 -0.10671812
-0.06487157 -0.0627083 0.061437834 0.019305877 -0.117187604 0.042788338 0.0061284583 -0.023056418
-0.0013883207 -0.02093201 0.028032266 -0.006874685 0.018675497 -0.015890371 0.06879461 0.03143765
-0.08446295 -0.02665528 0.0753742 -0.022888025 0.03227623 -0.12136069 0.044065744 0.057979003
0.026782453 -0.067200124 -0.039727394 0.02650223 -0.08300555 0.07607841 0.0075490843 0.025534537
-0.074225515 -0.06989738 -0.00068996486 0.051638335 0.0763402 0.039165 -0.05854051 0.051363796
-0.027519982 -0.08118938 -0.060098223 -0.08100061 -0.079993285 -0.103367865 -0.029094594 -0.008221316
-0.027665747 0.029723099 -0.0626313 0.016510068 0.06196403 0.09896931 0.11414193 -0.023922993
0.14781831 0.06420826 0.13772938 -0.0053894413 0.106278755 0.07737243 0.06321923 0.054263797
0.2650286 0.048735574 -0.09949818 -0.016092235 -0.13375455 -0.033466194 0.046448898 -0.06521964
0.10332155 0.10431451 -0.06570409 0.078660645 -0.018134106 0.035336807 -0.057567257 0.011472133
-0.014146997 -0.028337719 0.12850542 0.034923706 -0.04361166 0.0526071 -0.019579481 0.06886246
-0.090156555 0.052055433 -0.06538299 0.062773176 -0.028745232 0.015998485 0.0076781698 -0.02175577
-0.07205886 0.045308314 0.0790429 -0.04780103 0.030974891 0.0692157 0.061157342 0.06866601
0.056886874 0.018435998 -0.05241504 -0.0088680005 -0.04871834 -0.08035938 0.08806602 -0.0486344
-0.0145122325 0.07024461 0.1258863 0.02487917 0.029642124 0.027467173 0.0470899 -0.02241112
-0.02301151 -0.020225918 0.013136467 0.02065227 -0.05691923 -0.035365406 -0.0760983 -0.087768175
-0.004139756 -0.05164865 0.0110273175 -0.055003673 -0.021100432 -0.055247184 0.05075646 -0.048325676
-0.10361981 -0.066418745 -0.07056069 -0.084166706 0.024025433 -0.08240147 0.01474187 -0.06442511
-0.035676584 -0.04446926 -0.034654643 -0.0058852118 -0.0011022049 -0.08920632 -0.04927788 0.022126488
0.0326006 0.048516072 0.0425795 0.09978155 0.1371446 0.1010024 -0.112108625 -0.085024066
-0.09682348 0.30305603 0.20548585 0.029223202 -0.007499518 0.0048616123 -0.15488468 -0.03283952
-0.057166938 0.09236736 0.06993508 0.099985875 0.12704222 -0.011028876 0.08895683 -0.032773063
0.079070374 -0.04913782 0.020090053 -0.044038206 0.030716792 -0.054175798 0.0008732283 -0.11212362
00000000: 9ad7 c33c 9edb 593c 6954 8ebd 1ba2 18bd
00000010: a44b 68bd ab30 04bc b2ae 123d 6e4d debc
00000020: 9ea3 723d fa34 c9bd 454a a23d 15e9 c33c
00000030: ba7f 76bd baad 1d3d 6584 a7bd 8aa2 e4bc
00000040: 7672 06bd 26f3 013e c36c b3bd 5d90 06be
00000050: 87ed 7ebe c312 99be 117d 98be 8069 cabe
00000060: f64e 64be a973 16be ad59 8abd 7a0d cfbd
00000070: fdcd 2c3c 4655 813d d9d7 aa3d 1e7c 53bd
00000080: 8ce9 703c ffb3 243e 650f bf3d b2ae 133e
00000090: df87 5f3e 47df 123e 4310 da3d 751d 0c3e
000000a0: f802 c63d ef57 b33d a187 033f 95c8 c13e
000000b0: a00a 47be dfb7 88be c15a 43be c48c 06be
000000c0: da94 aabd 5a12 c3bd 9d04 e53d b1d8 983d
000000d0: 3fa9 6cbd b6f5 823d f2e5 14bd a63f f13d
000000e0: 471a 283d fabf a63c eb02 473d d3ed dd3b
000000f0: 9d0b aa3d 53f4 0d3e ad2a 923d d3fd 773d
00000100: d402 643c 22c8 c03d 584c 593d d6e1 01bb
00000110: e55d 41bc 369c 99bd 91c0 abbc 088f dabd
00000120: 63db 84bd 366d 80bd 3da6 7b3d 5c27 9e3c
00000130: 0e00 f0bd d342 2f3d 3cd1 c83b d0e0 bcbc
00000140: 50f8 b5ba 9b79 abbc eca3 e53c 0a45 e1bb
00000150: 5bfd 983c 862c 82bc 30e4 8c3d c4c4 003d
00000160: e9fa acbd 2c5c dabc ca5d 9a3d ab7f bbbc
00000170: 1534 043d f48b f8bd 487e 343d 647b 6d3d
00000180: e066 db3c 38a0 89bd 31b9 22bd 341b d93c
00000190: d0fe a9bd ffce 9b3d 4f5e f73b ce2d d13c
000001a0: 8c03 98bd 5c26 8fbd c2de 34ba b882 533d
000001b0: 4058 9c3d 7b6b 203d 2cc8 6fbd d862 523d
000001c0: 9671 e1bc 9e46 a6bd 8e29 76bd a6e3 a5bd
000001d0: 85d3 a3bd 88b2 d3bd c957 eebc b3b2 06bc
000001e0: 47a3 e2bc db7d f33c d744 80bd 1f40 873c
000001f0: ffcd 7d3d 6cb0 ca3d 3fc3 e93d 27fa c3bc
00000200: af5d 173e 9f7f 833d ee08 0d3e e999 b0bb
00000210: ada8 d93d 7075 9e3d 1579 813d b743 5e3d
00000220: d4b1 873e f49e 473d b4c5 cbbd ddd3 83bc
00000230: f4f6 08be d913 09bd 3341 3e3d e091 85bd
00000240: 409a d33d d9a2 d53d de8f 86bd d518 a13d
00000250: fa8d 94bc 54bd 103d a5cb 6bbd 9df5 3b3c
00000260: cec8 67bc 8124 e8bc ed96 033e 290c 0f3d
00000270: 24a2 32bd 8b7a 573d 2665 a0bc c307 8d3d
00000280: 00a4 b8bd 1438 553d 84e7 85bd 398f 803d
00000290: 1f7b ebbc 410f 833c 2899 fb3b 2839 b2bc
000002a0: 9893 93bd 3695 393d 3ee1 a13d 03cb 43bd
000002b0: 0ebf fd3c f6c0 8d3d 1f80 7a3d c4a0 8c3d
000002c0: 3602 693d 1707 973c 27b1 56bd 174b 11bc
000002d0: e28c 47bd 7593 a4bd f55b b43d dd34 47bd
000002e0: b7c4 6dbc 68dc 8f3d 57e8 003e 67cf cb3c
000002f0: 0ad4 f23c d602 e13c 57e1 403d 8697 b7bc
00000300: a282 bcbc d3b0 a5bc 563a 573c f32e a93c
00000310: 2324 69bd 51db 10bd 6dd9 9bbd cdbf b3bd
00000320: caa6 87bb 898d 53bd ecab 343c 884b 61bd
00000330: d0da acbc df4a 62bd 01e6 4f3d 25f1 45bd
00000340: 9f36 d4bd 8d06 88bd 1f82 90bd 985f acbd
00000350: fcd0 c43c 1ac2 a8bd e287 713c 50f1 83bd
00000360: 9c21 12bd 6625 36bd 07f2 0dbd bcd8 c0bb
00000370: dc77 90ba ceb1 b6bd 9ad7 49bd 9c42 b53c
00000380: 3588 053d cab8 463d d767 2e3d 455a cc3d
00000390: a26f 0c3e 59da ce3d 3599 e5bd 1921 aebd
000003a0: 644b c6bd 292a 9b3e e26a 523e 7f65 ef3c
000003b0: 84be f5bb 294e 9f3b 179a 1ebe bc82 06bd
000003c0: e127 6abd 192b bd3d 203a 8f3d 65c5 cc3d
000003d0: 5b17 023e 75b2 34bc 002f b63d 0c3d 06bd
000003e0: a6ef a13d bd44 49bd e593 a43c 6861 34bd
000003f0: c8a1 fb3c 71e7 5dbd 5ce9 643a 12a1 e5bd

fc1.bias f4 [20]
-0.049101915 -0.029008524 0.007938052 0.05904674 -0.049615696 -0.24415946 -0.025766974 -0.042139683
-0.054011595 -0.16057658 0.11113179 -0.03453118 -0.08553925 0.016803121 -0.14865017 0.0153757995
0.030829228 -0.107329346 0.23543154 -0.24815688
00000000: 171f 49bd 49a3 edbc 9a0e 023c ffda 713d
00000010: d439 4bbd f004 7abe 4315 d3bc a99a 2cbd
00000020: 433b 5dbd 306e 24be 1099 e33d 9170 0dbd
00000030: 342f afbd b3a6 893c c037 18be c7ea 7b3c
00000040: 948d fc3c 7dcf dbbd f714 713e d61c 7ebe

fc2.weight f4 [1, 20]
0.5007076 0.18152842 -0.38475788 -0.2067071 0.49116698 0.9518718 0.20329572 0.17292012
0.052361697 0.5520183 -0.4400773 0.039280854 -0.10232934 0.4072547 0.32205662 0.40767977
-0.20977479 0.8746561 -0.5368461 1.0078034
00000000: 602e 003f 96e2 393e fcfe c4be 07ab 53be
00000010: 3d7a fb3e dfad 733f c12c 503e f911 313e
00000020: 3879 563d 1251 0d3f d051 e1be f6e4 203d
00000030: 0c92 d1bd b083 d03e 9be4 a43e 67bb d03e
00000040: 34cf 56be 76e9 5f3f bf6e 09bf b4ff 803f
