notebooks/lightning_logs/version_170/checkpoints/epoch=0-step=253.ckpt (torch, 9999 bytes, 3 tensors)

fc1.weight f4 [20, 94]
000000 01 f6 20 3d 8e 23 9b bd 57 d8 21 bd 0f 0d 9b bd
       0.039297108 -0.07575141 -0.03951296 -0.0757085
000010 10 7a 90 3c 01 38 10 bc a5 2f 4c 3d 43 43 e0 3d
       0.017636329 -0.008802415 0.049850125 0.10950329
000020 08 86 d3 bd f9 24 18 3c 36 db 77 3d bb 9e 4b 3d
       -0.10328299 0.009286159 0.06051179 0.049711924
000030 93 ed 89 bc 85 eb bf 3c 76 d5 90 bd 9b a7 e1 3c
       -0.016836917 0.023427734 -0.070719644 0.02754574
000040 54 e7 17 3d a4 b8 01 3d 81 90 81 3d e8 38 e5 bd
       0.037085846 0.031670228 0.0632639 -0.11192495
000050 02 7a fe bc 8c ce 0d bd 2d 3f cb bc d4 fe 2e 3d
       -0.031064037 -0.034620807 -0.024810398 0.04272349
000060 e1 ba a2 3d 54 fa ab 3c ff 8d a5 bd 67 55 c3 3d
       0.079458006 0.02099339 -0.08083724 0.095377736
000070 25 08 ef bc b6 69 48 bc af 87 90 3d 24 fb bc 3c
       -0.029178688 -0.012232235 0.070571296 0.023068972
000080 1c 57 3e 3d dc 97 67 bd c7 3f 19 3d 09 a7 ce 3d
       0.046469793 -0.05654131 0.03741434 0.10090453
000090 3e 68 7b bc 11 22 ad bd 6b cb d3 3d d0 4d df 3d
       -0.0153446775 -0.08453763 0.10341533 0.109035134
0000a0 b5 dc 9d bd 6b 0a b7 bd dd 36 54 3d f8 2b bd bd
       -0.07708112 -0.08937534 0.051810134 -0.09236902
0000b0 9e ec 93 bd b2 94 a2 3c c4 f5 90 3d b8 5e 07 bd
       -0.072228655 0.019846294 0.07078126 -0.033049315
0000c0 c6 cc 95 bd 4d e4 b4 3d d8 1d 74 bd b4 9a 61 bb
       -0.07314448 0.088326074 -0.059598774 -0.0034424486
0000d0 17 fd c8 3d 2d ae ce 3d 72 de 6e bd 5b 79 f4 bc
       0.09813898 0.10091815 -0.05831761 -0.029843023
0000e0 4c 67 61 bd df 0a ca bd ab 07 4b 3d 85 54 be 3d
       -0.055030152 -0.09865355 0.04956786 0.092934646
0000f0 95 93 c4 3d 2a 92 0c bd c0 43 bc bd f5 77 ce bd
       0.095984615 -0.03431908 -0.0919261 -0.10081474
000100 d5 3b ae 3c 1e b2 f0 3c 13 d7 8a bd 25 98 8b bd
       0.021268765 0.029381808 -0.067793034 -0.06816129
000110 b3 52 a6 3d 7b 51 9c bd 27 d7 5b bd d9 eb af bd
       0.081212424 -0.07632729 -0.053671982 -0.08589906
000120 7d b4 ab bd 8d 28 8a 3d 2a 58 8f 3d 2d 3e 55 bb
       -0.08384035 0.06746016 0.06999238 -0.003253828
000130 14 d1 0c bc a7 8c d0 bc 9c ab ce 3d 54 77 b5 3b
       -0.00859477 -0.025457693 0.10091326 0.0055379067
000140 a3 55 93 3c 7f 5f 81 bd 79 01 b4 3d 4a 08 9f 3d
       0.01798517 -0.063170426 0.087893434 0.07765253
000150 89 7c 58 bd 74 7a b2 bd 87 fb 9b 3d 6b 9e ab 3c
       -0.05285314 -0.08714762 0.076163344 0.020949563
000160 8a 8b 8c 3d a8 1b 34 bd 00 ba cb 3d e8 27 62 bd
       0.068625525 -0.043971688 0.09947586 -0.05521384
000170 88 11 8e bb cc ed c2 bd 99 c7 a6 bd 03 3f 86 3d
       -0.004335586 -0.095180124 -0.08143539 0.06554987
000180 0e 86 5c 3c c4 f8 8d bd 92 f4 c8 bd 16 a0 17 3b
       0.0134596955 -0.06932214 -0.09812273 0.002313619
000190 19 37 40 bd 4b 20 43 bd b9 98 31 bd 2f 6a 57 bd
       -0.046927545 -0.04763822 -0.04335854 -0.0525915
0001a0 b9 e3 43 3d bf 4e cc 3d 04 f1 63 bb db 26 21 3c
       0.047824595 0.09975957 -0.0034781108 0.009835924
0001b0 25 ae 52 3d 5d 11 97 3d 00 02 36 39 bf a9 98 bd
       0.05143561 0.07376359 0.00017357618 -0.074542515
0001c0 94 0b 83 bc 1e 16 d1 bd e9 42 39 bd 65 5a 02 3d
       -0.015996732 -0.10209297 -0.045229826 0.03182449
0001d0 5b bf 95 3d c0 20 01 bd 20 8c 92 3d 43 0c b7 bc
       0.07311889 -0.031525373 0.07155633 -0.022344714
0001e0 66 27 3d bd 4e 6b 44 bd 35 7c b2 bd 7b d3 8a 3d
       -0.04618015 -0.047953896 -0.08715097 0.06778618
0001f0 9c f9 62 bd ae 28 86 3d 50 4b c8 bc 90 be b4 3d
       -0.055413827 0.06550728 -0.024449974 0.088254094
000200 66 2b a2 bd c5 37 0a bd 52 16 21 bd fb e8 f5 3c
       -0.07918434 -0.033744592 -0.039327927 0.03001832
000210 38 c8 ae bc 96 99 bf bd 7f 70 85 3d db 9b bb bd
       -0.021335706 -0.09355466 0.065155976 -0.091605864
000220 55 29 c9 3c d2 b0 32 3d cb b9 c6 bd 57 9e 0b bd
       0.024555841 0.04362566 -0.09703406 -0.03408655
000230 e3 3d 7f bd 2b 63 50 3d 1b d4 08 3c c0 20 8b bd
       -0.06231488 0.050875824 0.008351351 -0.06793356
000240 cf 75 a1 3d 8c 17 32 3d f5 a2 59 3d c3 71 29 3d
       0.07883798 0.043479487 0.053133924 0.041368257
000250 2f cd 8d 3d ca 48 b2 bc 94 04 c5 3d 92 21 89 3d
       0.06923901 -0.021763224 0.09620014 0.06695856
000260 a6 a6 0a 3d 0a d7 d0 bd 64 73 25 bd f6 07 46 3d
       0.033850335 -0.101972654 -0.04039325 0.048347436
000270 f9 e8 31 bd 40 5f 4f bd 59 d4 35 3d 23 4a 90 bd
       -0.04343507 -0.050627947 0.044391964 -0.070453905
000280 70 bd 5a 3d 5b 40 d6 bc db 5c 9e 3d dc e5 8e bb
       0.053403318 -0.026153734 0.077325545 -0.0043608975
000290 b7 f6 48 bd 12 09 85 3d 5e cf 0f bc 12 5a bf 3d
       -0.04906341 0.06495871 -0.0087774675 0.093433514
0002a0 03 ac fe 3b a0 fe 95 bd 1a c2 80 bd 2a 30 2d bc
       0.0077719702 -0.073239565 -0.06287022 -0.010570565
0002b0 30 1a 46 3d 46 e8 34 3d 08 0d a1 3c 80 46 54 bd
       0.048364818 0.044166826 0.019659534 -0.051825047
0002c0 4e 82 55 3d e0 06 42 3b d4 b3 62 3d a5 81 e1 3b
       0.05212622 0.0029606149 0.05534728 0.00688191
0002d0 db 16 f2 bc dc cf 80 3c 58 01 2c bd 90 69 00 3b
       -0.029551914 0.015724115 -0.04199347 0.001959417
0002e0 d1 bf dd bc 5f 63 37 bd 7b e6 52 3d 96 bd 39 bd
       -0.027069004 -0.044772502 0.051489335 -0.04534682
0002f0 2e 9a 7c 3d 52 61 58 bd c2 d1 aa bb 14 60 26 bc
       0.061670475 -0.052827187 -0.0052129934 -0.010154743
000300 f2 2e 75 bc a9 de a0 bd 8b bf 98 bd fa 2b 94 bd
       -0.014964806 -0.07854969 -0.07458409 -0.0723495
000310 c9 e8 28 3d a4 52 83 bd e6 47 80 bd 0a 8f 79 3d
       0.041237626 -0.06412247 -0.062637135 0.06092743
000320 5c ea c6 bd d9 75 19 3d 54 84 3a bd 4f f1 49 3d
       -0.09712669 0.037465904 -0.045536354 0.049302395
000330 18 24 cc 3c 92 3a 8e 3d 39 d0 e2 bc ec 86 5f 3d
       0.024919555 0.06944765 -0.027687179 0.05457203
000340 93 eb ab bd d8 3d a0 bd 26 25 04 3d cc c7 a4 bd
       -0.083945416 -0.07824296 0.03226199 -0.08045921
000350 83 3e dc bd fe 0a b2 bd 8e 90 ac bd 1d 28 cb 3d
       -0.10754111 -0.08693503 -0.08426009 0.099197604
000360 89 a8 2b bd c8 59 91 bd 2a 39 e9 3a 96 e2 5d 3d
       -0.041908775 -0.070972025 0.0017793525 0.054171167
000370 dc f6 90 3c 8f be 0f bc 9a 38 7d 3d 36 cb 45 bd
       0.017695837 -0.00877346 0.061821558 -0.0482895
000380 50 61 b7 3c 25 0d bc 3d ce e3 95 bc 3f 15 20 bc
       0.02238527 0.091821946 -0.018297102 -0.00977069
000390 11 71 9e bd 02 72 b3 3d b3 87 8a 3d b8 34 c9 3c
       -0.077364095 0.0876198 0.06764164 0.024561271
0003a0 1d 99 40 bd 0e 63 17 3d a2 03 ac bd 99 f9 17 bc
       -0.04702102 0.0369597 -0.083991304 -0.009275817
0003b0 2f db 48 3d 3d 60 7f 3d 3f fb 60 3d 40 7c 91 bd
       0.049037155 0.06234764 0.054927107 -0.07103777
0003c0 4f 8e 3c bd 49 a9 b8 bd 8e a3 66 3d d9 a7 3c 3d
       -0.046034154 -0.090166636 0.05630832 0.04605851
0003d0 bd e5 2f bd 65 43 c3 bd ef 1d a5 bc ed a5 40 3d
       -0.042943705 -0.09534339 -0.020155875 0.04703324
0003e0 1d 60 7a bd c1 4e cd 3d 61 dd 63 3d 11 96 ac bc
       -0.061126817 0.10024787 0.055631045 -0.021067651
0003f0 3a 86 a3 bc 1f 62 59 bd bf 09 6e bd a5 08 80 3d
       -0.019961465 -0.05307209 -0.058114763 0.06251649

fc1.bias f4 [20]
000000 fb f2 30 ba ce 32 ae bd 01 92 9c 3d 27 67 8f 3c
       -0.0006750074 -0.08505784 0.076450355 0.017505242
000010 f2 37 92 3d 80 d3 45 3c 9a d9 cd bd a0 93 c3 bd
       0.07139577 0.012074351 -0.1005127 -0.095496416
000020 4f ae 2a 3d 38 3c 2e bd 68 54 c4 bc 8d 33 a4 bc
       0.04167014 -0.042537898 -0.02396603 -0.020044113
000030 56 c8 6d bd 11 13 62 bd 4d cd 79 3d a3 c0 ca 3c
       -0.058052383 -0.055193964 0.060986806 0.02475006
000040 fd f2 fb bb 4e dc 5f 3d 05 6a 82 3d b4 ef d5 39
       -0.0076888786 0.05465346 0.06367878 0.0004080512

fc2.weight f4 [1, 20]
000000 f5 59 fe 3d fe 61 7e bd 6d fb 3d 3e cd 12 f9 bd
       0.12419502 -0.06210517 0.18552943 -0.12161789
000010 d4 04 84 3e e0 38 28 be 0a 11 41 3e ff 67 21 bd
       0.25784934 -0.16427946 0.18854156 -0.03940582
000020 ab 58 4a 3c e0 b3 31 3b ae 8e 23 be 78 30 36 bd
       0.012350242 0.002711527 -0.15972397 -0.044479817
000030 56 84 02 3d 79 42 e6 3c e4 0b 18 3e c1 87 b1 bd
       0.031864487 0.028107869 0.14848286 -0.08668471
000040 95 c0 64 be dd 08 5b 3d 24 00 98 3d 02 44 4c be
       -0.22339089 0.05347525 0.07421902 -0.19947818
