notebooks/lightning_logs/version_27/checkpoints/epoch=14-step=3704.ckpt (torch, 15823 bytes, 9 tensors)

fc1.weight f4 [10, 94]
0	0x3f4116b6	0.7542528
1	0x3f4049de	0.7511271
2	0x3f3b47fd	0.7315672
3	0xbdcd81ea	-0.10034545
4	0x3e192d04	0.14958578
5	0xbd66f264	-0.056383505
6	0xbe24fbfc	-0.1611175
7	0xbecda47d	-0.40164557
8	0xbe891bb7	-0.26778957
9	0xbeb4532c	-0.35219705
10	0x3fd29734	1.6452394
11	0x3f528485	0.8223346
12	0x3f5d942f	0.86554235
13	0x3f8e0e53	1.1098121
14	0x3fd6fb9f	1.6795539
15	0xbf88c475	-1.0684954
16	0x3bba7910	0.0056907013
17	0xbf4022c2	-0.75053036
18	0xc072ac3d	-3.7917626
19	0xc091b0ab	-4.552816
20	0xc0a29734	-5.0809574
21	0xc0aa67c8	-5.3251686
22	0xc0a95e20	-5.29274
23	0xc0a11314	-5.033579
24	0xc059580e	-3.3959994
25	0xbfbb89ab	-1.4651388
26	0xbe3cada1	-0.18425609
27	0xbe93df77	-0.28881428
28	0xbe9424ad	-0.2893423
29	0x3e103abf	0.1408491
30	0x3e5012b5	0.20319636
31	0x3e0909e5	0.1338268
32	0x3f195da4	0.5990851
33	0x3f406d9d	0.75167257
34	0x3f0b18e8	0.5433488
35	0x3f29a654	0.6626942
36	0x3e7dde32	0.24791792
37	0x3cdb7c53	0.02679268
38	0xbf269d12	-0.6508342
39	0xbfa49bbb	-1.2860025
40	0xbfb6bf69	-1.4277164
41	0xbfc0401f	-1.5019568
42	0xbe8a0fd6	-0.26965207
43	0x3eb16727	0.34649011
44	0xc05e32c3	-3.4718482
45	0xc080bf47	-4.0233493
46	0xc0b16168	-5.5431404
47	0xbfec7f23	-1.8476299
48	0xbec6b5bc	-0.38810527
49	0x3fc38324	1.5274396
50	0x405fe362	3.4982533
51	0x40c05eaf	6.011558
52	0x40810260	4.03154
53	0xbd561309	-0.052264247
54	0xbfc78175	-1.5586382
55	0xbf4fcb7c	-0.8116987
56	0xbf3b7d09	-0.73237664
57	0xbf3d431f	-0.73930544
58	0xbe6c430c	-0.23072451
59	0xbfa34c1c	-1.2757602
60	0xbfc19b69	-1.5125552
61	0xbf37afc0	-0.7175255
62	0xbe86373c	-0.26214015
63	0xbea1059d	-0.31449595
64	0xbfa489a3	-1.2854503
65	0xbf873dc9	-1.056573
66	0xbdf86afb	-0.1212978
67	0xbf26d5b4	-0.65169835
68	0x3f07940d	0.5296028
69	0x3f184f43	0.59495944
70	0x3f76217e	0.96144855
71	0x3fd310d4	1.648951
72	0x3f12f878	0.57410383
73	0xbf3d8a70	-0.74039364
74	0x3f04c9b6	0.51870286
75	0x3fc03a3f	1.5017775
76	0x3f3b744d	0.73224336
77	0x3f66093d	0.89857846
78	0x400f9e5e	2.244041
79	0x3fa02124	1.2510114
80	0xbf45d82f	-0.77282995
81	0x3f5f9aab	0.8734538
82	0x3f313f84	0.6923754
83	0x3fb89bfc	1.4422603
84	0x3ffe06ef	1.9845866
85	0xbf325fea	-0.69677603
86	0xbf8502d6	-1.039149
87	0xbf29859f	-0.66219515
88	0x3ec446d7	0.38335297
89	0xbe6f6181	-0.23377039
90	0xbee5a6bd	-0.44853774
91	0x3c81f9a2	0.015866105
92	0x3d9c0fe1	0.07620216
93	0xbf88b659	-1.0680648
94	0x3eaffac1	0.34370998
95	0x3e99bdd3	0.30027637
96	0x3e9b93ef	0.30386302
97	0xbdefa9ea	-0.117023304
98	0x3d7196d8	0.058981746
99	0x3f44f8ef	0.7694234
100	0x3cf3d590	0.02976492
101	0xbec742e6	-0.38918227
102	0x3e3323c8	0.17494118
103	0xbfc3bdf8	-1.5292349
104	0xbda8113e	-0.08206414
105	0xbf8c2a87	-1.0950478
106	0xbf6daae6	-0.92838895
107	0xbd881f82	-0.06646635
108	0xbf36af87	-0.71361583
109	0xbef10a7d	-0.47078314
110	0xbdca390a	-0.098741606
111	0xbe926b21	-0.28597358
112	0xbf584ac6	-0.84489095
113	0xbf4b688c	-0.794564
114	0xbf9208d4	-1.1408944
115	0xbf8efc8b	-1.117082
116	0xbfa7a752	-1.3097937
117	0xbfb21827	-1.3913621
118	0xbf9b9367	-1.2154359
119	0xbf9d1635	-1.2272402
120	0xbfb89bd7	-1.4422559
121	0xbfc44eca	-1.5336545
122	0xbf6ca550	-0.92439747
123	0xbf88734a	-1.0660183
124	0xbf71ad00	-0.944046
125	0xbf81108e	-1.0083177
126	0xbf93e4d2	-1.1554205
127	0xbf94d282	-1.1626742
128	0xbfad9b88	-1.3563089
129	0xbf9b71df	-1.2144126
130	0xbf8921fe	-1.0713499
131	0xbf79a5f1	-0.9751883
132	0xbf65f0b4	-0.8982041
133	0xbf657294	-0.8962796
134	0xbf700d5b	-0.9377038
135	0xbf96312a	-1.1733754
136	0xbe53ca6b	-0.20682685
137	0xbe444117	-0.19165455
138	0xbe3be1b2	-0.18347815
139	0x3eeddfe0	0.46459866
140	0xbf9dbe68	-1.2323732
141	0xbf3444cd	-0.7041748
142	0xbfd0f643	-1.6325153
143	0xbedc9aec	-0.43086946
144	0xbe9f9c1f	-0.31173798
145	0xbdab6542	-0.08368923
146	0xbeb892ee	-0.36049598
147	0x3d0fb2c8	0.03508261
148	0xbdddcee9	-0.108304806
149	0xbe56e52a	-0.20985857
150	0xbf1871b7	-0.59548515
151	0xbe2db799	-0.16964568
152	0xbf9894bb	-1.1920389
153	0xbeb60358	-0.35549426
154	0xbe56a16e	-0.20960018
155	0x3e26f6c7	0.16305076
156	0xbe69f67f	-0.22847937
157	0x3ebf0620	0.3730936
158	0x3eacee10	0.33775377
159	0x3f1a53ac	0.60283923
160	0xbe8b275e	-0.27178472
161	0x3f276149	0.6538282
162	0x3f78562d	0.97006494
163	0x3f190dd7	0.5978674
164	0x3f67cd53	0.90547675
165	0x3ea30049	0.31836155
166	0xbd26e9e6	-0.040750407
167	0x3d75faa8	0.060053498
168	0xbf953cbb	-1.1659158
169	0xbfb35c53	-1.401255
170	0xbff494bf	-1.9107894
171	0xbf71e3a8	-0.94488
172	0xbf8c6702	-1.0968935
173	0xbd399d78	-0.04531619
174	0x3f26d90b	0.6517493
175	0xbf839107	-1.0278634
176	0xbf339937	-0.7015566
177	0xbf0f1da5	-0.5590461
178	0xbdccecda	-0.10006113
179	0xbf9d073e	-1.2267835
180	0xbe805864	-0.25067437
181	0xbec02125	-0.37525287
182	0xbfb5191f	-1.4148291
183	0xbf76069b	-0.9610383
184	0xbebab22f	-0.36464068
185	0xbec0649f	-0.37576768
186	0xbe85f46f	-0.2616305
187	0xbe990142	-0.29883772
188	0x3e841bdf	0.25802514
189	0x3e6ae86a	0.22940221
190	0x3e9a4e0d	0.30137673
191	0x3d1c9c74	0.038235143
192	0xbed5da00	-0.41767883
193	0x3e2b38da	0.16720906
194	0x3de18841	0.110123165
195	0xbe23e4fa	-0.16005316
196	0x3dcc031b	0.0996153
197	0xbedeeeca	-0.43541557
198	0xbe521765	-0.20516737
199	0xbec2c06e	-0.38037437
200	0xbe89286c	-0.26788652
201	0xbea7b7eb	-0.32757506
202	0xbeaa49e9	-0.33259514
203	0xbdad3841	-0.08457995
204	0xbc3d6210	-0.011559024
205	0xbefb3e05	-0.49070755
206	0xbdd67624	-0.10471752
207	0xbe68e1c5	-0.22742374
208	0xbed275d0	-0.4110551
209	0xbf141b22	-0.578539
210	0xbf23cbae	-0.63982666
211	0xbf30e096	-0.6909269
212	0xbf1d6616	-0.61483896
213	0xbf018235	-0.50589305
214	0xbef803bd	-0.48440352
215	0xbf0c0c0c	-0.5470588
216	0xbf42ccd4	-0.7609379
217	0xbf3d27c2	-0.7388879
218	0xbf3ad519	-0.7298141
219	0xbf2eccc4	-0.682812
220	0xbf1b0425	-0.605532
221	0xbf25af33	-0.6472046
222	0xbf096beb	-0.53680295
223	0xbeed737c	-0.4637717
224	0x3ee30000	0.44335938
225	0xbd3d7332	-0.046252437
226	0x3dc6fb3a	0.097158864
227	0x3e9affaf	0.30273196
228	0x3e256ce9	0.16154827
229	0xbd5e86ca	-0.054327764
230	0xbdd7f6b1	-0.105450995
231	0x3e420a98	0.18949354
232	0xbf2b87c5	-0.6700404
233	0x3e5077a6	0.20358142
234	0xbf36b86f	-0.71375173
235	0xbf23b6fd	-0.6395109
236	0xbf249cab	-0.64301556
237	0xbf7311cf	-0.9494905
238	0xbfa9918c	-1.3247542
239	0xbf4170f8	-0.75563
240	0x3e0444c3	0.12916856
241	0x3d9e9924	0.07744053
242	0xbe3d389c	-0.18478626
243	0xbe126470	-0.14296126
244	0xbe40e671	-0.18837906
245	0x3d272b2f	0.040812667
246	0x3ece6ea2	0.4031878
247	0x3eb07607	0.34465048
248	0x3f2a55de	0.6653727
249	0x3db71dc9	0.08941228
250	0xbf13584a	-0.57556593
251	0x3d749e6a	0.059721388
252	0x3ec59c8a	0.38595992
253	0xbe34bf2c	-0.17651051
254	0xbeb49b27	-0.35274622
255	0xbec5d78c	-0.38641012

fc1.bias f4 [10]
0	0xbfc447dc	-1.533443
1	0xbfba5b39	-1.4559089
2	0xbf23fad5	-0.64054614
3	0xbee0c58a	-0.4390071
4	0xbf8bf597	-1.0934323
5	0xbf420eb7	-0.75803703
6	0xbfe63a1a	-1.7986481
7	0xbf8c8260	-1.0977287
8	0xbf87608f	-1.0576342
9	0xbfb2081c	-1.3908725

fc2.weight f4 [1, 10]
0	0x3e6faf79	0.23406781
1	0xbdecf48e	-0.115700826
2	0x3d8f7d03	0.07006266
3	0x3f699660	0.9124508
4	0xbebe6a7c	-0.37190616
5	0x3c2ce0a1	0.010551603
6	0xbd5598bb	-0.05214761
7	0x3d589141	0.0528729
8	0xbe8126f9	-0.25225046
9	0x3f1ada3d	0.60489255

exp_avg f4 [10, 94]
0	0xbbca6abb	-0.006177274
1	0xbbca6abb	-0.006177274
2	0xbbca6abb	-0.006177274
3	0xbb03ea95	-0.0020128835
4	0xb9da7924	-0.00041670457
5	0x3ab1f591	0.0013577213
6	0x3b8227ea	0.0039720433
7	0x3708c800	8.152798e-06
8	0xbc31eb35	-0.0108593
9	0x3b6ad040	0.0035829693
10	0xb90d04a7	-0.00013448541
11	0x3ba09914	0.004901061
12	0x3925689a	0.00015774593
13	0xb7c80485	-2.3843962e-05
14	0xbab42128	-0.0013742791
15	0x00000004	6e-45
16	0x00000000	0.0
17	0x00000004	6e-45
18	0x370d4823	8.421051e-06
19	0x25d0a82d	3.6196209e-16
20	0x2c70ba1f	3.420937e-12
21	0x2cf8588e	7.0584155e-12
22	0x2d133a40	8.368917e-12
23	0x2d4bd078	1.1585503e-11
24	0x3727f1f4	1.001031e-05
25	0x38887cfa	6.508264e-05
26	0x3a3a9ba9	0.0007118532
27	0x3a0d4b9a	0.00053899887
28	0x39374cc3	0.00017480836
29	0x3a097ab1	0.00052444177
30	0x395d72a2	0.00021118906
31	0xb8ec1e30	-0.0001125898
32	0x3a1778a8	0.0005778172
33	0x39ac31a8	0.00032843393
34	0xba2c13a8	-0.00065642083
35	0x38c11729	9.207271e-05
36	0x3a89c99d	0.0010512356
37	0x3b0d6614	0.0021575736
38	0x39f35e11	0.00046418657
39	0x396b326f	0.00022430134
40	0xb65792c0	-3.2122916e-06
41	0x3a423d52	0.000740965
42	0x2af6cf89	4.3842385e-13
43	0xad969ef2	-1.7123612e-11
44	0x2fb3cb12	3.27042e-10
45	0xad19bacb	-8.7385195e-12
46	0x320b1730	8.096137e-09
47	0x33992f76	7.133251e-08
48	0xb404b31c	-1.2358618e-07
49	0xb6b4e30c	-5.3908498e-06
50	0xb8b9bccc	-8.8566536e-05
51	0xbb0b0e36	-0.0021218187
52	0x3c18c7d6	0.009324988
53	0x00000000	0.0
54	0xb80a58bd	-3.2984408e-05
55	0xb7dfbcea	-2.6671642e-05
56	0xb9ff8e50	-0.0004874342
57	0xb9cf33ff	-0.00039520857
58	0xba26b3ac	-0.00063591707
59	0xba4996ca	-0.0007690011
60	0xba82597a	-0.0009944879
61	0xba228c24	-0.0006200692
62	0x39cde6dd	0.00039272654
63	0x3a025f8e	0.0004973345
64	0xba9858e1	-0.0011623168
65	0xb9955190	-0.00028480263
66	0xba58a304	-0.00082640373
67	0xb91786bd	-0.00014450676
68	0xb92e40db	-0.00016618094
69	0xb93da03b	-0.00018084135
70	0x3b156941	0.0022798332
71	0x3a957fa9	0.0011405844
72	0xb9220daa	-0.00015454614
73	0xbab26013	-0.0013608955
74	0x3b988c85	0.004655423
75	0x3b55098a	0.0032506906
76	0x394096ac	0.00018366677
77	0x3ba30a80	0.004975617
78	0xb7e0b743	-2.6788219e-05
79	0xb8fbc229	-0.00012004778
80	0xb99767b9	-0.00028878244
81	0xb98c89a5	-0.00026805434
82	0xb98115ff	-0.00024621186
83	0xba0c1876	-0.0005344221
84	0xba0d97c2	-0.0005401337
85	0x3aaf9298	0.0013395129
86	0x3bbd0f60	0.005769655
87	0x3a106e3d	0.0005509591
88	0x3bed6af0	0.007245414
89	0xba6cdfdb	-0.00090360426
90	0xbad2febc	-0.0016097645
91	0xbb813869	-0.003943492
92	0x3b43344a	0.0029785805
93	0x3b36ea78	0.002791075
94	0x80000004	-6e-45
95	0x80000004	-6e-45
96	0x80000004	-6e-45
97	0x00000004	6e-45
98	0x80000004	-6e-45
99	0x80000004	-6e-45
100	0x00000004	6e-45
101	0x00000004	6e-45
102	0x80000004	-6e-45
103	0x00000004	6e-45
104	0x00000000	0.0
105	0x00000004	6e-45
106	0x00000004	6e-45
107	0x00000000	0.0
108	0x00000004	6e-45
109	0x00000004	6e-45
110	0x00000000	0.0
111	0x00000004	6e-45
112	0x00000004	6e-45
113	0x00000004	6e-45
114	0x00000004	6e-45
115	0x00000004	6e-45
116	0x00000004	6e-45
117	0x00000004	6e-45
118	0x00000004	6e-45
119	0x00000004	6e-45
120	0x00000004	6e-45
121	0x00000004	6e-45
122	0x00000004	6e-45
123	0x00000004	6e-45
124	0x00000004	6e-45
125	0x00000004	6e-45
126	0x00000004	6e-45
127	0x00000004	6e-45
128	0x00000004	6e-45
129	0x00000004	6e-45
130	0x00000004	6e-45
131	0x00000004	6e-45
132	0x00000004	6e-45
133	0x00000004	6e-45
134	0x00000004	6e-45
135	0x00000004	6e-45
136	0x00000004	6e-45
137	0x00000004	6e-45
138	0x00000004	6e-45
139	0x00000004	6e-45
140	0x00000004	6e-45
141	0x00000004	6e-45
142	0x00000004	6e-45
143	0x00000004	6e-45
144	0x00000004	6e-45
145	0x00000004	6e-45
146	0x00000004	6e-45
147	0x00000000	0.0
148	0x80000004	-6e-45
149	0x00000004	6e-45
150	0x00000004	6e-45
151	0x80000004	-6e-45
152	0x00000004	6e-45
153	0x00000004	6e-45
154	0x00000004	6e-45
155	0x00000004	6e-45
156	0x80000004	-6e-45
157	0x80000004	-6e-45
158	0x80000004	-6e-45
159	0x00000004	6e-45
160	0x00000004	6e-45
161	0x80000004	-6e-45
162	0x80000004	-6e-45
163	0x80000004	-6e-45
164	0x00000004	6e-45
165	0x80000004	-6e-45
166	0x00000004	6e-45
167	0x80000004	-6e-45
168	0x00000004	6e-45
169	0x00000004	6e-45
170	0x00000004	6e-45
171	0x00000004	6e-45
172	0x00000004	6e-45
173	0x80000004	-6e-45
174	0x80000004	-6e-45
175	0x00000004	6e-45
176	0x00000004	6e-45
177	0x00000004	6e-45
178	0x00000000	0.0
179	0x00000004	6e-45
180	0x00000004	6e-45
181	0x80000004	-6e-45
182	0x00000004	6e-45
183	0x00000004	6e-45
184	0x00000004	6e-45
185	0x00000004	6e-45
186	0x00000004	6e-45
187	0x00000004	6e-45
188	0x00000004	6e-45
189	0x00000004	6e-45
190	0x00000004	6e-45
191	0x80000004	-6e-45
192	0x80000004	-6e-45
193	0x80000004	-6e-45
194	0x00000004	6e-45
195	0x80000004	-6e-45
196	0x80000004	-6e-45
197	0x00000004	6e-45
198	0x00000004	6e-45
199	0x80000004	-6e-45
200	0x80000004	-6e-45
201	0x00000004	6e-45
202	0x80000004	-6e-45
203	0x00000004	6e-45
204	0x00000000	0.0
205	0x00000004	6e-45
206	0x00000004	6e-45
207	0x00000004	6e-45
208	0x80000004	-6e-45
209	0x80000004	-6e-45
210	0x80000004	-6e-45
211	0x80000004	-6e-45
212	0x00000004	6e-45
213	0x00000004	6e-45
214	0x00000004	6e-45
215	0x00000004	6e-45
216	0x00000004	6e-45
217	0x00000004	6e-45
218	0x00000004	6e-45
219	0x00000004	6e-45
220	0x00000004	6e-45
221	0x00000004	6e-45
222	0x00000004	6e-45
223	0x00000004	6e-45
224	0x00000004	6e-45
225	0x00000004	6e-45
226	0x00000004	6e-45
227	0x00000004	6e-45
228	0x00000004	6e-45
229	0x00000004	6e-45
230	0x00000004	6e-45
231	0x80000004	-6e-45
232	0x00000004	6e-45
233	0x00000004	6e-45
234	0x00000004	6e-45
235	0x00000004	6e-45
236	0x00000004	6e-45
237	0x80000004	-6e-45
238	0x80000004	-6e-45
239	0x00000004	6e-45
240	0x00000004	6e-45
241	0x00000000	0.0
242	0x00000004	6e-45
243	0x80000004	-6e-45
244	0x80000004	-6e-45
245	0x00000004	6e-45
246	0x00000004	6e-45
247	0x80000004	-6e-45
248	0x80000004	-6e-45
249	0x80000004	-6e-45
250	0x00000004	6e-45
251	0x00000004	6e-45
252	0x80000004	-6e-45
253	0x00000004	6e-45
254	0x00000004	6e-45
255	0x80000004	-6e-45

exp_avg_sq f4 [10, 94]
0	0x3ab86490	0.0014068056
1	0x3ab86490	0.0014068056
2	0x3ab86490	0.0014068056
3	0x3ae41652	0.0017401672
4	0x3e9a2ea7	0.30113718
5	0x3a48b45c	0.000765627
6	0x3a70709f	0.0009172055
7	0x3a598e68	0.0008299113
8	0x3a4828e3	0.0007635487
9	0x39697352	0.00022263572
10	0x343cea67	1.759414e-07
11	0x3959a02b	0.000207544
12	0x36297749	2.5252396e-06
13	0x341e7a36	1.4759357e-07
14	0x38bb426e	8.929228e-05
15	0x378c0e21	1.669588e-05
16	0x00000000	0.0
17	0x3a405fe3	0.0007338507
18	0x35b1717b	1.3220555e-06
19	0x35ce7500	1.5382248e-06
20	0x35c5eb24	1.4746079e-06
21	0x3602f4f3	1.9514089e-06
22	0x361375ec	2.1973347e-06
23	0x364cb2cf	3.050245e-06
24	0x362d439f	2.581837e-06
25	0x362ef52e	2.6070734e-06
26	0x3682df6a	3.9003107e-06
27	0x36a25376	4.8376924e-06
28	0x36a5fbb4	4.9466853e-06
29	0x36ea9f3d	6.992281e-06
30	0x371f3af2	9.490863e-06
31	0x371f3307	9.489019e-06
32	0x3759ce43	1.2982232e-05
33	0x37896246	1.6377435e-05
34	0x3765f1d3	1.3705768e-05
35	0x37700a2d	1.4307484e-05
36	0x376070de	1.3377719e-05
37	0x37294e65	1.0091438e-05
38	0x36ccad17	6.099824e-06
39	0x36b28796	5.3205977e-06
40	0x36b0e06a	5.271334e-06
41	0x362648de	2.4778342e-06
42	0x38b916f9	8.8257664e-05
43	0x3a6b588e	0.0008977734
44	0x3a00d6c3	0.00049148145
45	0x36643275	3.4004017e-06
46	0x37122dcd	8.712942e-06
47	0x3854b40a	5.0712413e-05
48	0x36d6aa87	6.397549e-06
49	0x37240923	9.777289e-06
50	0x3808ac10	3.2585172e-05
51	0x385bf29e	5.2439624e-05
52	0x38a7e849	8.006447e-05
53	0x00000000	0.0
54	0x36e1119f	6.707574e-06
55	0x3776ca38	1.4709825e-05
56	0x371915ea	9.124613e-06
57	0x37962b13	1.7901451e-05
58	0x38764c62	5.8722107e-05
59	0x370c69dd	8.3692985e-06
60	0x371a87d3	9.210739e-06
61	0x36894a20	4.0915475e-06
62	0x3a4645fb	0.00075635285
63	0x38e363c7	0.000108427885
64	0x3707083b	8.048543e-06
65	0x36939583	4.398347e-06
66	0x376c0960	1.4068879e-05
67	0x369ede27	4.734629e-06
68	0x37049462	7.902361e-06
69	0x3770d891	1.4355538e-05
70	0x381852ed	3.6316855e-05
71	0x38828c33	6.224997e-05
72	0x38c69658	9.4693794e-05
73	0x387ca24c	6.0232633e-05
74	0x379bc595	1.8569446e-05
75	0x36e6cb57	6.878206e-06
76	0x37c3816c	2.3306078e-05
77	0x37ccdb7b	2.4420899e-05
78	0x37d63cfb	2.5539184e-05
79	0x36e64083	6.8620443e-06
80	0x376f666e	1.4269359e-05
81	0x370f7288	8.550131e-06
82	0x36e74a6f	6.8930017e-06
83	0x371165b9	8.666358e-06
84	0x36c8ae0b	5.9807257e-06
85	0x3a53c014	0.0008077633
86	0x3a5ddf3b	0.0008463745
87	0x3922e9fb	0.00015536688
88	0x392918da	0.00016126354
89	0x38933354	7.019067e-05
90	0x39007d49	0.00012253704
91	0x38df8736	0.000106586536
92	0x38541421	5.0563485e-05
93	0x3a4d88b8	0.0007840502
94	0x3805cd72	3.1901007e-05
95	0x3805cd72	3.1901007e-05
96	0x3805cd72	3.1901007e-05
97	0x3542b6e5	7.253678e-07
98	0x38176cb6	3.610245e-05
99	0x37ada4ea	2.0700001e-05
100	0x38245f51	3.9189417e-05
101	0x37a62924	1.98079e-05
102	0x37e42c82	2.7200444e-05
103	0x36d4d2c2	6.342628e-06
104	0x00000000	0.0
105	0x379c977d	1.8667191e-05
106	0x34b79812	3.4197052e-07
107	0x00000000	0.0
108	0x35909d0f	1.0774546e-06
109	0x31417148	2.814959e-09
110	0x00000000	0.0
111	0x33c02445	8.947294e-08
112	0x34a13c1e	3.0032328e-07
113	0x34c0de64	3.5924597e-07
114	0x34331c25	1.6680913e-07
115	0x34860094	2.4959866e-07
116	0x344d41e8	1.911609e-07
117	0x3427b9e6	1.5620716e-07
118	0x3403fa52	1.2291392e-07
119	0x33fb1df5	1.16935475e-07
120	0x33893a55	6.39017e-08
121	0x34033e22	1.222293e-07
122	0x33c71bf2	9.271743e-08
123	0x33c57314	9.19446e-08
124	0x340dba7d	1.3199492e-07
125	0x34199163	1.4302127e-07
126	0x33fd98a1	1.18089936e-07
127	0x34019b8b	1.2070647e-07
128	0x33b819d6	8.572867e-08
129	0x33ccf973	9.544865e-08
130	0x33bb8bb2	8.7332765e-08
131	0x33cfcef0	9.6768304e-08
132	0x33ce0c8a	9.5949034e-08
133	0x33e9d056	1.0887804e-07
134	0x33d021b7	9.6918875e-08
135	0x33c2565e	9.049539e-08
136	0x37b9b454	2.213769e-05
137	0x33d739fa	1.00222636e-07
138	0x26ecac69	1.6422521e-15
139	0x37e879da	2.7713297e-05
140	0x304c4616	7.4314366e-10
141	0x327765c4	1.4400431e-08
142	0x32f14e34	2.8091655e-08
143	0x326d4859	1.3811666e-08
144	0x31177839	2.204173e-09
145	0x31f43956	7.107853e-09
146	0x31b1b831	5.172318e-09
147	0x00000000	0.0
148	0x379195cb	1.73551e-05
149	0x32b0a4dc	2.0564066e-08
150	0x35b7da5c	1.3698113e-06
151	0x36110777	2.1611029e-06
152	0x3250f907	1.2163816e-08
153	0x2fb50133	3.292456e-10
154	0x3665c9c4	3.4241102e-06
155	0x37a76570	1.9955187e-05
156	0x33cbba18	9.4867744e-08
157	0x3243baa1	1.1392928e-08
158	0x31c11d2e	5.6203566e-09
159	0x324dd97a	1.1982019e-08
160	0x2f6c549d	2.1494136e-10
161	0x33b0bfeb	8.230548e-08
162	0x3377c046	5.768404e-08
163	0x33846cc0	6.1665105e-08
164	0x339a0357	7.171791e-08
165	0x33a07e76	7.473584e-08
166	0x3324d723	3.837989e-08
167	0x333abdb2	4.3479027e-08
168	0x34261fe2	1.5471554e-07
169	0x34c0c127	3.5903324e-07
170	0x3487c40a	2.5288347e-07
171	0x32d19676	2.4399224e-08
172	0x34c6402f	3.6927074e-07
173	0x31bf901a	5.575214e-09
174	0x30955631	1.0865674e-09
175	0x32767f8f	1.4348088e-08
176	0x3283a33d	1.532464e-08
177	0x300abeb1	5.0475096e-10
178	0x00000000	0.0
179	0x38444440	4.6793604e-05
180	0x36428257	2.898412e-06
181	0x3399bb3e	7.158677e-08
182	0x3676cccb	3.6776062e-06
183	0x381e37d8	3.7722144e-05
184	0x34b7bb96	3.4222893e-07
185	0x35c36ffb	1.4561223e-06
186	0x362f4eb7	2.612285e-06
187	0x3433ea16	1.6755834e-07
188	0x3890ce1b	6.904845e-05
189	0x3890ce1b	6.904845e-05
190	0x3890ce1b	6.904845e-05
191	0x37889fb6	1.6286835e-05
192	0x3a77e076	0.00094557495
193	0x377c60ed	1.5042938e-05
194	0x37e92229	2.7791672e-05
195	0x37beb280	2.2732886e-05
196	0x38445710	4.6811125e-05
197	0x378bbcfc	1.6658094e-05
198	0x3342312d	4.521387e-08
199	0x377511d6	1.4607291e-05
200	0x340d7d73	1.3177286e-07
201	0x2ccb22b5	5.7734603e-12
202	0x35979b03	1.1295491e-06
203	0x33d23e29	9.790194e-08
204	0x00000000	0.0
205	0x36372448	2.7290243e-06
206	0x34e44b37	4.2523035e-07
207	0x35121b68	5.442912e-07
208	0x34da06a0	4.0610485e-07
209	0x34df2bcf	4.1568862e-07
210	0x34d27d8f	3.9206904e-07
211	0x34ae23af	3.243599e-07
212	0x347098fe	2.24074e-07
213	0x342c8fdf	1.6071088e-07
214	0x34778a4c	2.305398e-07
215	0x342fdc35	1.6378256e-07
216	0x3389e758	6.421641e-08
217	0x33a44bb5	7.650616e-08
218	0x33a5fa18	7.728903e-08
219	0x33ceac33	9.6239454e-08
220	0x34099be1	1.2815828e-07
221	0x341255e1	1.3628552e-07
222	0x342eb673	1.6271387e-07
223	0x34b0bdc2	3.2920622e-07
224	0x3531c91d	6.6230297e-07
225	0x3514773d	5.530781e-07
226	0x35085b5e	5.0796905e-07
227	0x3538502d	6.866201e-07
228	0x35265d7b	6.197585e-07
229	0x34d3c22d	3.9443094e-07
230	0x380a94cb	3.3040338e-05
231	0x376d0efd	1.41297905e-05
232	0x37065ed4	8.009101e-06
233	0x3571acdc	9.003104e-07
234	0x3440f5b9	1.7970787e-07
235	0x3493e111	2.754464e-07
236	0x333120fe	4.124103e-08
237	0x33114e05	3.38314e-08
238	0x31be0429	5.5302007e-09
239	0x3344d262	4.5826148e-08
240	0x35c766e1	1.4856597e-06
241	0x00000000	0.0
242	0x351ab4f3	5.7632786e-07
243	0x354379bb	7.28203e-07
244	0x35caf93f	1.5122713e-06
245	0x362859ce	2.5086224e-06
246	0x354ac422	7.5536275e-07
247	0x350dce8f	5.2827176e-07
248	0x3516bda0	5.6155295e-07
249	0x349b3cc1	2.8915204e-07
250	0x36351078	2.6980688e-06
251	0x358cab3c	1.0480649e-06
252	0x358ab26a	1.0333727e-06
253	0x360aeec3	2.070258e-06
254	0x365d5cba	3.298554e-06
255	0x3620cf2b	2.3962446e-06

exp_avg f4 [10]
0	0x3be8f406	0.007109168
1	0x00000004	6e-45
2	0x00000004	6e-45
3	0x3d69aed1	0.057051484
4	0x00000004	6e-45
5	0x3594189b	1.103402e-06
6	0x2cd289e2	5.983867e-12
7	0x1386c315	3.401872e-27
8	0x00000004	6e-45
9	0x38d3b92c	0.00010095755

exp_avg_sq f4 [10]
0	0x3ae1e6e6	0.0017234951
1	0x3851cf78	5.0022703e-05
2	0x387782e1	5.901128e-05
3	0x3d2b954a	0.04189042
4	0x36ab5050	5.1055467e-06
5	0x399c4c6f	0.00029811586
6	0x3a89e670	0.0010520946
7	0x38776cdb	5.899077e-05
8	0x3a085842	0.000520114
9	0x3aed2427	0.0018092439

exp_avg f4 [1, 10]
0	0x3db0b96d	0.08629117
1	0x00000004	6e-45
2	0x00000004	6e-45
3	0x3d7c0b8d	0.061534453
4	0x80000004	-6e-45
5	0x37c6d571	2.370283e-05
6	0xae902008	-6.554052e-11
7	0x148524a8	1.3444026e-26
8	0x80000004	-6e-45
9	0x39161e66	0.00014316439

exp_avg_sq f4 [1, 10]
0	0x3f534b0b	0.8253638
1	0x3a2ca8d6	0.0006586438
2	0x3abdaf29	0.0014471757
3	0x403ed7ff	2.9819334
4	0x3ba4ab80	0.005025327
5	0x3c3dc324	0.01158217
6	0x3db2a51a	0.08722897
7	0x3b6ecbd6	0.0036437414
8	0x3c633e00	0.013869762
9	0x3cccc84e	0.024997856
