notebooks/lightning_logs/version_167/checkpoints/epoch=0-step=253.ckpt (torch, 9999 bytes, 3 tensors)

fc1.weight f4 [20, 94]
0	0x3c6bed10	0.014399782
1	0xbda74b9a	-0.08168717
2	0x3d010dc6	0.031507276
3	0x3dad4e40	0.08462191
4	0xbd14f0df	-0.036362525
5	0xbcec48c5	-0.028843293
6	0xbd4e33e2	-0.050342448
7	0x3dcd32cc	0.10019454
8	0xbdb5dff6	-0.08880608
9	0xbdb38ff4	-0.08767691
10	0x3dacc9d8	0.08436936
11	0xbca599b7	-0.020214899
12	0x3dad667d	0.08466814
13	0x3dcacd02	0.099023834
14	0x3d0bf1fa	0.034166314
15	0x3cef320a	0.029198665
16	0xbdccb2b0	-0.099950194
17	0xbd803864	-0.06260756
18	0xbdba1c54	-0.090874344
19	0xbb17c736	-0.002315951
20	0x3d0a45cf	0.03375798
21	0xbd23b7c8	-0.03997019
22	0xbd005950	-0.031335175
23	0xbbf6ad2e	-0.007527969
24	0x3d50dcba	0.05099175
25	0x3c80692a	0.015675146
26	0x3c41da82	0.0118318815
27	0xbd57f1f2	-0.05272097
28	0xbc2f81c4	-0.010712091
29	0xbc48e8bf	-0.012262522
30	0xbd7aea3f	-0.06125855
31	0x3d8804a3	0.066415094
32	0x3d3c4dd8	0.045972675
33	0xbdcb39f1	-0.09923161
34	0x3dab776c	0.08372387
35	0xbd218437	-0.03943273
36	0xbc8fdce6	-0.017561387
37	0x3b98582c	0.004649183
38	0xbd60c9b1	-0.054879848
39	0x3afefc6c	0.001945389
40	0xbba0dafd	-0.004908918
41	0x3ca91205	0.020638475
42	0x3b292322	0.0025808294
43	0x3dc13d46	0.09435515
44	0x3d486a29	0.048929367
45	0x3d973830	0.07383764
46	0xbd8ecab7	-0.069722585
47	0x3d09af3c	0.033614382
48	0x3d1ce5ce	0.038305096
49	0x3d15341e	0.036426656
50	0xbd648167	-0.05578747
51	0x3d476e48	0.048689157
52	0x3d66f5c9	0.056386743
53	0xbd0e4ab5	-0.034739215
54	0x3dbc910e	0.092073545
55	0xbd284963	-0.041085612
56	0xbc45ec78	-0.012080304
57	0x3d459ab3	0.048243236
58	0x3cee44e5	0.029085586
59	0xbda3b716	-0.07993905
60	0x3d6b9eb2	0.05752439
61	0x3d8382ff	0.0642147
62	0x3d75e772	0.060035177
63	0xbda916b0	-0.082562804
64	0xbd97afd8	-0.074065864
65	0x3ce66aaa	0.028127033
66	0x3db3a3fa	0.087715104
67	0xbd83522a	-0.06412156
68	0x3d526488	0.051365405
69	0xbd85543f	-0.06510209
70	0xbce89b2e	-0.028394308
71	0x3d4f64c0	0.050633192
72	0x3cecf31b	0.028924515
73	0xbd98fd1c	-0.07470152
74	0xbd20486c	-0.039131567
75	0x3d944d09	0.07241256
76	0x3d872977	0.06599706
77	0xbdb7111d	-0.08938811
78	0xbd26e746	-0.040747903
79	0xbdc59997	-0.096484356
80	0xbcdbe60e	-0.026843097
81	0x3d95f190	0.07321465
82	0xbdc27b75	-0.09496204
83	0x3d8d5525	0.06901006
84	0x3c4232f7	0.011852971
85	0xbaf3d987	-0.0018604257
86	0xbd982aea	-0.0743006
87	0xbd9797ca	-0.07401998
88	0x3d938f5f	0.0720508
89	0xbc86fa5e	-0.016476806
90	0xbc922534	-0.017840005
91	0xbd8c3519	-0.06846065
92	0x3d8ab738	0.067732275
93	0xbc0f06a0	-0.008729607
94	0x3a60fc9f	0.00085825654
95	0xbc51c38b	-0.012802969
96	0xbd507c78	-0.050899953
97	0x3db13704	0.086530715
98	0xbd656ce7	-0.05601206
99	0x3d822294	0.063542515
100	0x3bee102f	0.007265113
101	0x3db02c54	0.08602205
102	0x3c86df49	0.016463893
103	0xbd49e6b1	-0.04929227
104	0x3dc130f6	0.09433167
105	0xbb8702d5	-0.0041202107
106	0x3dc30eef	0.09524333
107	0x3db8f390	0.09030831
108	0x3d473d02	0.048642166
109	0xbdab1940	-0.083544254
110	0xbda2967a	-0.079388574
111	0xbd906574	-0.07050601
112	0x3b6a30c0	0.0035734624
113	0xbdcc8b3a	-0.09987493
114	0x3cbf48f2	0.023350213
115	0xbd904daa	-0.07046063
116	0x3d661218	0.0561696
117	0x3cd06d9f	0.025442896
118	0xbdd02b09	-0.10164458
119	0xbd98f4ed	-0.07468591
120	0xbdd18f9d	-0.1023247
121	0x3cd34b1f	0.025792656
122	0x3d8154b4	0.06314984
123	0x3d97e4ac	0.074166626
124	0x3d90f987	0.070788436
125	0xbd9149e3	-0.07094171
126	0xbd9668a8	-0.0734418
127	0x3dbc6e03	0.092006706
128	0xbd6878c7	-0.056755807
129	0xbc1703ad	-0.009217185
130	0x3dd2aa86	0.10286431
131	0x3d443dad	0.04791038
132	0x3d8bfded	0.06835542
133	0xbc2b4d09	-0.010455378
134	0xbd12001e	-0.035644643
135	0x3d8bced5	0.068265595
136	0x3d8710c9	0.065949984
137	0x3d9388e3	0.072038434
138	0x3da6587f	0.08122348
139	0xbd89ed0f	-0.067346685
140	0x3c9593ec	0.018259011
141	0xbdd2f0b2	-0.10299815
142	0x3d983cd6	0.074334785
143	0x3d1f06c0	0.038824797
144	0xbdadf17e	-0.084933266
145	0xbd64f129	-0.05589405
146	0xbccce7ba	-0.02501284
147	0x3d4221d2	0.047395535
148	0xbcfda834	-0.030963995
149	0x3a20ff6c	0.00061415765
150	0x3c95cdff	0.018286703
151	0xbd69c1c0	-0.05706954
152	0x3bec56df	0.0072125043
153	0xbd5fe850	-0.05466491
154	0xbd9616e5	-0.073285855
155	0xbdd017bf	-0.10160779
156	0x3da1af39	0.07894749
157	0x3cf39628	0.029734686
158	0x3d459e45	0.04824664
159	0xbdb19f8d	-0.0867301
160	0xbd915012	-0.0709535
161	0xbdc12a05	-0.09431843
162	0x3d4b1fdc	0.04959093
163	0x3ca5e896	0.020252507
164	0x3d7c323c	0.061571345
165	0x3cc3f4f4	0.023920514
166	0x3d815972	0.063158885
167	0xbd095cb2	-0.033535667
168	0x3dcf05d4	0.101085335
169	0x3d4a1f1b	0.04934607
170	0x3d8f1990	0.069872975
171	0x3d578be6	0.052623652
172	0x3db4a741	0.08820964
173	0x3d8eddf3	0.06975927
174	0xbd11eb0a	-0.03562454
175	0xbd9ce1e2	-0.07660271
176	0x3d18b258	0.037279457
177	0xbc32470c	-0.010881197
178	0x3d0cb811	0.034355227
179	0xbd56fc74	-0.05248685
180	0xbd4951d6	-0.04915031
181	0x3d2f2073	0.042755555
182	0xbbcc92e9	-0.006243099
183	0xbd09e181	-0.033662323
184	0xbd3f6c94	-0.046734408
185	0x3d94a6df	0.07258391
186	0xbd4e1b14	-0.050318792
187	0xbd0470a2	-0.032333978
188	0xbc9e0874	-0.01929114
189	0xbd5f146b	-0.05446283
190	0x3d8891ad	0.066684105
191	0x3daa64a4	0.08319977
192	0xbd28f9cd	-0.041253854
193	0x3d3077fd	0.04308318
194	0x3d5cf8b5	0.053948123
195	0xbc0ad828	-0.008474387
196	0x3dda007e	0.10644625
197	0x3cc1a4dc	0.023638181
198	0xbd9b3960	-0.07579303
199	0xbd133c19	-0.035945985
200	0x3db64e49	0.089016505
201	0xbdc34547	-0.09534698
202	0x3ca2d88b	0.019878646
203	0x3b84f4d8	0.004057508
204	0x3ce7de68	0.028304294
205	0xbdbeb4f3	-0.09311857
206	0xbcdcb4b6	-0.026941638
207	0xbd70686d	-0.05869334
208	0x3d28b955	0.04119237
209	0xbca1fc58	-0.019773647
210	0xbd10c097	-0.035339918
211	0x3d351e12	0.04421813
212	0xbbb89df6	-0.005634065
213	0x3dc8a5da	0.09797259
214	0x3d1fd0f7	0.039017644
215	0xbd6b6746	-0.057471536
216	0xbdb2a616	-0.08723085
217	0x3ce1511e	0.0275045
218	0xbd7d17f3	-0.061790418
219	0xbba491c6	-0.0050222604
220	0xbdc6fb45	-0.097158946
221	0xbcb9cb74	-0.022680022
222	0xbc349b40	-0.011023343
223	0x3dcec278	0.10095686
224	0xbd44a5c5	-0.048009653
225	0x3b22293b	0.0024743814
226	0x3dc7a68c	0.09748563
227	0xbd526c44	-0.05137278
228	0x3cc3813d	0.023865337
229	0x3dc69d4e	0.09697972
230	0xbc70abf1	-0.0146894315
231	0xbc968566	-0.018374156
232	0xbda4709d	-0.08029292
233	0xbb442fa1	-0.0029935616
234	0x3db13b37	0.086538725
235	0xbdae0076	-0.08496182
236	0x3d973707	0.073835425
237	0x3d6c4ef4	0.057692483
238	0xbdc0e6aa	-0.09418996
239	0x3cb8b753	0.022548353
240	0xbd7ebe45	-0.062193174
241	0x3c421436	0.011845639
242	0x3d182163	0.037141215
243	0xbdba194a	-0.09086855
244	0xbdb2565a	-0.087078765
245	0x3ce87a10	0.028378516
246	0xbd1b75dc	-0.037954196
247	0xbd867e38	-0.06567043
248	0xbd6ad90d	-0.057335902
249	0xbd1159ff	-0.035486218
250	0xbd5b5248	-0.053545266
251	0x3daf006f	0.085450046
252	0x3d5f864d	0.05457144
253	0xbdac353d	-0.08408592
254	0x3dac6669	0.08417971
255	0x3d1e3003	0.038620006

fc1.bias f4 [20]
0	0xba5688d8	-0.00081838435
1	0xbd9543f5	-0.072883524
2	0x3c908ab7	0.01764427
3	0xbdd1d283	-0.1024523
4	0xbd947858	-0.07249516
5	0x3b1ce2c2	0.002393887
6	0x3d99695b	0.07490798
7	0xbd2f2a2e	-0.042764835
8	0x3d2a3c23	0.041561257
9	0x3d2714c9	0.040791307
10	0x3d8d1f44	0.06890729
11	0x3d5d4584	0.054021373
12	0x399ef9ba	0.0003032217
13	0x3cdacbe6	0.026708554
14	0x3caeaff0	0.021324128
15	0xbd954f1e	-0.07290481
16	0x3c5f1d67	0.01361785
17	0xbdc8c860	-0.098038435
18	0xbd8d42c2	-0.06897499
19	0x3d1ae2bd	0.03781389

fc2.weight f4 [1, 20]
0	0xbc2593a4	-0.010106001
1	0xbd5a3818	-0.05327615
2	0xbdc3de32	-0.09563865
3	0xbe32164a	-0.17391315
4	0xbdbe756c	-0.0929974
5	0x3e6cc089	0.23120321
6	0x3e49b420	0.19697618
7	0x3c9a7320	0.018853724
8	0xbe14b467	-0.14521943
9	0x3c9024dc	0.0175957
10	0xbe46055d	-0.19337983
11	0x3d3e39a0	0.046441674
12	0xbe3be134	-0.18347627
13	0x3e38ade6	0.18035087
14	0x3e49dd10	0.19713235
15	0xbe057634	-0.13033372
16	0xbdb25553	-0.087076806
17	0x3e4964ae	0.19667313
18	0xbd909a8c	-0.070607275
19	0xbd9d29bf	-0.07673978
