notebooks/lightning_logs/version_155/checkpoints/epoch=0-step=230.ckpt (torch, 9999 bytes, 3 tensors)

fc1.weight f4 [20, 94]
0	0xbd5aaf5f	-0.053389903
1	0xbca5f3c3	-0.020257836
2	0x3d697947	0.057000425
3	0xbd7c91cf	-0.06166249
4	0x3dae1f3f	0.085020535
5	0xbdd5f6a6	-0.10447435
6	0xbd938a95	-0.07204167
7	0xbd90edcd	-0.07076607
8	0x3da03d6e	0.07824217
9	0x3cf87842	0.03033078
10	0x391ea22d	0.0001512847
11	0x3ce6ee47	0.028189791
12	0x3d274f67	0.04084721
13	0x3d98d806	0.07463078
14	0xbda1b37d	-0.07895563
15	0x3d98ccc3	0.0746093
16	0x3c8de150	0.017319351
17	0x3db99c96	0.090630695
18	0x3d57bf12	0.052672453
19	0xbd62fbe3	-0.055416
20	0xbcd32e83	-0.025779014
21	0x3d510490	0.05102974
22	0xbd5d7ca1	-0.054073934
23	0xbda72f03	-0.08163264
24	0x3da4890e	0.080339536
25	0xbc87b33f	-0.016564963
26	0xbd2fe547	-0.042943265
27	0x3cf8bcdf	0.030363498
28	0x3d897801	0.06712342
29	0xbdb0d513	-0.08634391
30	0x3d4b7df0	0.04968065
31	0x3d0a805c	0.03381382
32	0xbdc256f2	-0.0948924
33	0x3d669b6d	0.05630057
34	0x3cf992bb	0.030465474
35	0xbd45b81d	-0.048271287
36	0x3a1beaa1	0.0005947743
37	0x3d8fcdd6	0.07021682
38	0x3d633cb7	0.055477824
39	0x3d00f07f	0.031479355
40	0xbd3547bd	-0.044257868
41	0x3d883e53	0.066525124
42	0xbc416279	-0.011803263
43	0x3ccc4bf2	0.024938557
44	0xbd8c5e08	-0.068538725
45	0x3d87e46c	0.06635365
46	0xbb1593af	-0.0022823622
47	0xbdae278e	-0.08503638
48	0x3d5f27b3	0.05448122
49	0xbdccb934	-0.09996262
50	0xbd227b68	-0.03966847
51	0x3db74fa0	0.08950734
52	0x3d6e848f	0.058231886
53	0x3d6344c5	0.055485506
54	0x3cbc466f	0.022982804
55	0x3bb01a55	0.005374233
56	0x3b98c0c8	0.004661653
57	0x3da097f5	0.078414835
58	0xbc84d8f9	-0.016216742
59	0xbd81d7f7	-0.0634002
60	0x3d22edf1	0.0397777
61	0x3d1a36b9	0.037649844
62	0x3d775baf	0.06039017
63	0xbd77d05c	-0.06050144
64	0x3cfd5e74	0.030928828
65	0x3dcfa30a	0.10138519
66	0xbd3dac94	-0.04630716
67	0x3d546770	0.05185646
68	0x3dadf097	0.084931545
69	0xbcb81700	-0.022471905
70	0x3dbfca27	0.093647294
71	0x3d70b6fb	0.058768254
72	0xbd9a3341	-0.07529307
73	0xbb99ddcc	-0.0046956297
74	0x3cf7e03e	0.030258294
75	0xbd03115e	-0.031998985
76	0xbda2c46a	-0.07947619
77	0xbc4ccaed	-0.012499553
78	0xbda14306	-0.07874112
79	0x3d58fd29	0.052975807
80	0x3dbefb2b	0.0932525
81	0x3db2aa52	0.08723892
82	0x3db6caf6	0.089254305
83	0xbdb2a338	-0.08722538
84	0xbdc8b588	-0.09800249
85	0x3da82147	0.08209472
86	0xbbfdbba7	-0.007743317
87	0xbd815222	-0.06314494
88	0x3dcd0d60	0.10012317
89	0xbc8fcfb0	-0.017555088
90	0xbcdd3306	-0.027001869
91	0x3abc0411	0.0014344474
92	0xbdb4b72a	-0.08823998
93	0x3cefa1e4	0.029252
94	0x3d160ca0	0.036633134
95	0x3d210d2a	0.039319195
96	0xbc1aba62	-0.009443851
97	0xbc225d8f	-0.009910001
98	0xbd783c3e	-0.060604326
99	0x3d96ba9a	0.0735981
100	0x3d73d31c	0.0595275
101	0x3d6554c7	0.055989053
102	0xbddfb5ab	-0.10923322
103	0xbc704079	-0.014663809
104	0x3d4f8783	0.050666343
105	0xbda85ad0	-0.08220446
106	0x3d3e3e5d	0.046446193
107	0xbd2e7816	-0.04259499
108	0xbcb74c81	-0.022375347
109	0xbd7f1e92	-0.062285013
110	0xbb1e1dc0	-0.002412662
111	0x3bd70b3b	0.006562618
112	0x3ce1e39f	0.027574359
113	0xbd906fcf	-0.07052576
114	0x3c302371	0.010750637
115	0x3dbc1f2d	0.09185634
116	0x3cadb9b0	0.021206707
117	0xbce2b8cd	-0.02767601
118	0x3d17c36d	0.037051607
119	0x3d2eb2da	0.042651035
120	0xbc1dc89b	-0.009630348
121	0xbdbe59ec	-0.09294495
122	0x3d4f585c	0.050621375
123	0x3d70dd33	0.058804702
124	0x3c4339a8	0.011915602
125	0x3d026f32	0.031844325
126	0x3d3fb81e	0.046806447
127	0xbd7c6781	-0.061622147
128	0xbc53b719	-0.012922072
129	0xbd4fa40f	-0.050693568
130	0xbd6b8172	-0.057496496
131	0x3d15803d	0.03649925
132	0xbcf5298c	-0.029927038
133	0x3d014355	0.031558353
134	0x3d1f96f3	0.038962316
135	0xbda1ccd0	-0.07900393
136	0xbda058f6	-0.07829468
137	0xbd93a530	-0.072092414
138	0xbda77cc1	-0.08178092
139	0x3dc8cfad	0.09805236
140	0x3d88fb72	0.066885844
141	0x3d631af0	0.05544561
142	0xbd9a8556	-0.07544963
143	0x3ccd18e8	0.02503629
144	0xbd06d69f	-0.032919522
145	0x3daf92a4	0.08572891
146	0xbc5098ba	-0.012731725
147	0xbd668737	-0.056281295
148	0xbd0fafd8	-0.035079807
149	0xbd5bef25	-0.053694863
150	0x3cde093e	0.027104016
151	0xbda3a49e	-0.079903826
152	0xbd63dfb0	-0.055633247
153	0x3d9356f7	0.071943216
154	0x3d113cd2	0.035458393
155	0x3dbc8c53	0.09206452
156	0xbdc4067a	-0.09571548
157	0xbdcf7667	-0.10130005
158	0xbc27d778	-0.010244243
159	0x3da1908e	0.078889
160	0x3db57542	0.08860256
161	0xbc068e45	-0.008212631
162	0xbb3f0bda	-0.0029151351
163	0xbd13a6a6	-0.0360476
164	0xbd4fead1	-0.050761048
165	0x3da16147	0.07879882
166	0xbd97fcc0	-0.07421255
167	0x3b51f6ad	0.00320379
168	0xbcef907a	-0.029243696
169	0x3d926021	0.071472414
170	0xbd9ae8db	-0.07563945
171	0x3ad53b25	0.0016268237
172	0xbd8df39d	-0.06931231
173	0xbd640189	-0.055665527
174	0x3dbdfbd5	0.09276549
175	0xbd209067	-0.039200213
176	0xbd336d70	-0.04380554
177	0xbc9e366a	-0.019313056
178	0xbdaae472	-0.08344354
179	0x3d992f63	0.074797414
180	0xbd13ae6e	-0.03605502
181	0xbdaadd42	-0.08342983
182	0xbc1e4798	-0.009660624
183	0xbd355e1f	-0.044279214
184	0x3dd6d00b	0.104889
185	0x3dc771a1	0.0973847
186	0xbbb38977	-0.0054790336
187	0x3bfd172a	0.0077237086
188	0x3c0774d9	0.008267605
189	0x3c9e3f4e	0.019317295
190	0xbd948de2	-0.072536245
191	0x3dc83df4	0.097774416
192	0xbd98b176	-0.07455723
193	0x3de02d5c	0.109461516
194	0x3db7d145	0.08975462
195	0x3d828a53	0.063740395
196	0xbcc1eb6b	-0.023671826
197	0xbcf21a12	-0.029553447
198	0xbc8e0ff6	-0.017341595
199	0x3b89d8fa	0.004206774
200	0x3cf67922	0.030087058
201	0x3d18af1f	0.037276383
202	0xbd3360b3	-0.04379339
203	0x3cd689b6	0.026188713
204	0xbd56762e	-0.0523588
205	0xbd0355f2	-0.032064386
206	0xbdc49909	-0.09599502
207	0xbd5f729c	-0.05455266
208	0x3d91e656	0.07124011
209	0xbdaded72	-0.08492555
210	0xbcc36d37	-0.023855789
211	0xbd9b8779	-0.07594199
212	0x3da4afdb	0.08041354
213	0xbd9bbc4f	-0.076042764
214	0xbd4b5c7a	-0.04964874
215	0xbc6d549b	-0.014485504
216	0x3d96aad3	0.07356801
217	0xbd926ce0	-0.071496725
218	0x3dc9c5fb	0.09852215
219	0x3b754505	0.0037425172
220	0xbc9a9bf4	-0.018873192
221	0xbdc1be8a	-0.094601706
222	0x3dd40406	0.1035233
223	0x3dbb1443	0.09134724
224	0x3dacbbf3	0.08434286
225	0xbb235d39	-0.0024927391
226	0x3d9b67e4	0.07588175
227	0x3d4e2b4b	0.050334256
228	0x3d2741c9	0.040834222
229	0x3d90b5f4	0.07065955
230	0xbd06cb77	-0.032908883
231	0x3cecd074	0.028907992
232	0xbda79234	-0.08182183
233	0x3ceae8d0	0.028675467
234	0xbd91ade1	-0.07113243
235	0x3d3b61a8	0.04574743
236	0x3ccdde93	0.025130546
237	0x3d9f69df	0.07783865
238	0x3ba0d2be	0.004907935
239	0xbd507f76	-0.050902806
240	0x3d2aecfb	0.04172991
241	0x3c593c09	0.013258942
242	0x3dc03b5a	0.093863204
243	0xbc746806	-0.014917379
244	0x3d8393eb	0.064246975
245	0xbd2df744	-0.04247214
246	0x3c5e78dd	0.013578621
247	0x3d171122	0.036881573
248	0xbc8278b7	-0.015926702
249	0x3d0c0a61	0.034189586
250	0xbdbf5ca3	-0.09343841
251	0xbccd7e73	-0.02508471
252	0x3d851a24	0.064991266
253	0x3d21ac71	0.039471094
254	0xbc7eada3	-0.015544328
255	0xbd93c8b3	-0.07216015

fc1.bias f4 [20]
0	0xbd330da0	-0.043714166
1	0xbdc69e1d	-0.096981265
2	0x3b51788a	0.0031962716
3	0xbcf11513	-0.029428994
4	0xbda4f666	-0.08054809
5	0xbd7ff9ea	-0.062494196
6	0x3af4e143	0.0018682856
7	0x3bce52d8	0.006296497
8	0xbd8cad12	-0.06868948
9	0x3d2d0090	0.042236865
10	0x3d9600ae	0.073243484
11	0xbca86b25	-0.020558903
12	0xbd8b6455	-0.06806246
13	0xbdbe8d34	-0.09304276
14	0xbc2db651	-0.01060255
15	0x3dc2debe	0.09515141
16	0xbc8c0eac	-0.01709684
17	0xbb9cd7c4	-0.0047864635
18	0x3db05ca5	0.086114205
19	0xbd5eeaaa	-0.05442301

fc2.weight f4 [1, 20]
0	0xbe2dc20a	-0.16968551
1	0x3c7e9981	0.015539528
2	0x3e213baa	0.15745416
3	0xbe7a3cba	-0.24437228
4	0x3e57876f	0.21047758
5	0x3d9ad980	0.07561016
6	0xbd2d4a69	-0.04230729
7	0x3d0c159a	0.03420029
8	0xbda955a4	-0.08268288
9	0x3e663600	0.22481537
10	0x3d8963ea	0.0670851
11	0xbdca8e12	-0.09890379
12	0xbe45026c	-0.19239205
13	0xbe227304	-0.15864187
14	0xbe33c3b0	-0.17555118
15	0x3dd37416	0.10324876
16	0xbca19f3d	-0.019729251
17	0x3e2cf351	0.16889693
18	0x3c01691c	0.007898595
19	0x3e190a2e	0.1494529
