notebooks/lightning_logs/version_159/checkpoints/epoch=0-step=253.ckpt (torch, 9999 bytes, 3 tensors)

fc1.weight f4 [20, 94]
-0.05526788 -0.03730571 -0.029837426 -0.024568213 0.044352926 -0.11293959 -0.055868365 0.049451973
-0.019702468 0.040187415 -0.0012120097 -0.099156804 0.056188177 0.09796856 -0.052800246 0.069081776
-0.011071175 -0.07378312 0.023742346 -0.068872795 -0.07459133 0.09851134 0.035134073 0.036793567
0.019303681 -0.080283426 0.036621638 0.030653449 0.06253406 -0.10377838 0.044723675 -0.049981892
-0.090010546 -0.0424901 0.018478354 0.034365088 -0.023475586 -0.06678381 -0.055230115 0.052319393
-0.03218574 0.054525126 -0.02003165 -0.059067924 0.02796252 0.07839207 -0.047709204 -0.059547614
0.028768321 0.05647191 -0.0093723815 0.009956724 0.01722592 0.04189262 0.07179317 0.098807596
-0.06610601 0.04307359 -0.054566294 0.060460012 0.016831461 -0.027169341 -0.08918741 0.034647822
0.07982949 -0.039775494 0.100753695 0.04713127 0.06750715 -0.03633725 -0.023365764 -0.10090649
-0.057697166 -0.038840532 0.06215645 0.07083079 0.08999586 0.034930855 0.092567556 -0.022903334
-0.026744165 -0.043282963 -0.07302585 0.062684156 -0.04852881 0.05634963 -0.0110170245 0.0020609482
0.008097943 -0.08586016 -0.08742544 0.021963064 -0.051093973 -0.024278564 -0.021312261 0.12555143
0.05456698 0.056565635 -0.100263305 0.0103671355 -0.0023697407 0.032200437 -0.14083812 0.0052365875
-0.09779237 -0.049366973 0.008161478 0.045953196 -0.021617781 0.016949268 -0.028023385 0.014151841
0.0031662176 -0.007261083 -0.024641609 -0.10622009 0.074861564 0.058456004 -0.05947655 -0.042752683
-0.069827415 0.022147695 -0.009574222 0.008593894 0.04916708 0.09854653 0.054107394 0.001554415
-0.065077275 0.105148636 -0.007392592 0.034797464 0.10014135 0.0509049 0.079093695 0.011847426
-0.09025153 0.08232306 -0.10519811 -0.011103806 0.05089486 -0.071341656 -0.03318584 -0.03965258
-0.051432077 0.0831297 -0.03567927 0.009357258 0.03438993 0.006690663 -0.090124674 0.066082865
-0.046689257 -0.09970298 0.01732253 0.0692225 0.10040002 0.06488222 -0.06490008 0.0017122643
-0.04142255 0.024427446 0.054388545 -0.072280236 0.08579349 6.0122107e-05 0.053767942 -0.019315824
0.09968046 0.09602472 0.02864834 -0.020820037 0.09829496 -0.10001728 -0.100432396 -0.07597949
-0.072849534 -0.067808606 -0.1003057 0.05427599 0.04179018 0.0068816184 -0.046639394 -0.07755681
-0.081842385 0.06110967 0.03884382 -0.036452346 0.052289028 0.05009375 0.09428291 0.086659506
-0.10950076 -0.0033264535 0.0064882287 0.018957736 -0.04825551 0.03762749 -0.025501126 -0.066535085
-0.07829623 -0.04153429 0.058970306 0.10214172 -0.012190394 0.0345943 -0.045853987 -0.055661775
0.00043951024 0.017205806 0.075645454 -0.08807243 0.079684235 0.039427336 0.002642277 -0.014854967
-0.029563734 0.08251931 -0.0226325 0.0034490153 -0.047233358 -0.062016 -0.035190083 0.10684542
0.060775563 -0.0049190638 0.039482526 0.004690198 0.10561072 -0.07425683 0.098718494 0.00059689896
-0.09833166 -0.064436324 -0.10179445 -0.06920085 0.06865011 -0.022243202 0.0012018367 0.0008533495
0.056666866 -0.093641266 0.007555363 0.022687433 0.098574504 0.058878426 -0.056649372 -0.02943239
0.09732685 0.0039653033 0.007697148 0.017861092 -0.06776986 0.017518967 -0.087613806 -0.103329316
00000000: 9360 62bd dfcd 18bd 9e6d f4bc 4743 c9bc
00000010: 6aab 353d df4c e7bd 3ad6 64bd 278e 4a3d
00000020: 1267 a1bc 8f9b 243d 4cdc 9eba b912 cbbd
00000030: 9325 663d bea3 c83d 1245 58bd bf7a 8d3d
00000040: e063 35bc 9b1b 97bd 4f7f c23c 2e0d 8dbd
00000050: 57c3 98bd 50c0 c93d bfe8 0f3d dab4 163d
00000060: c122 9e3c a36b a4bd 9200 163d f11c fb3c
00000070: db11 803d c289 d4bd 2c30 373d d0b9 4cbd
00000080: 7357 b8bd 190a 2ebd eb5f 973c 68c2 0c3d
00000090: df4f c0bc f3c5 88bd f938 62bd dc4c 563d
000000a0: 32d5 03bd bd55 5f3d 6a19 a4bc 35f1 71bd
000000b0: a811 e53c 068c a03d ba6a 43bd 33e8 73bd
000000c0: 8bab eb3c 174f 673d 9e8e 19bc 8721 233c
000000d0: 5f1d 8d3c 9997 2b3d 4c08 933d a35b ca3d
000000e0: 9662 87bd ef6d 303d e880 5fbd eba4 773d
000000f0: 22e2 893c 3d92 debc e4a7 b6bd e0ea 0d3d
00000100: a57d a33d a1eb 22bd f457 ce3d b80c 413d
00000110: 3041 8a3d 5ed6 14bd 8f69 bfbc 10a8 cebd
00000120: dd53 6cbd 4017 1fbd c397 7e3d bc0f 913d
00000130: c04f b83d a813 0f3d 0f94 bd3d c69f bbbc
00000140: 9416 dbbc 7a49 31bd 948e 95bd 8d60 803d
00000150: 25c6 46bd dfce 663d c080 34bc f910 073b
00000160: 3cad 043c 74d7 afbd 1c0c b3bd e2eb b33c
00000170: ea47 51bd d7e3 c6bc 0d97 aebc 8e90 003e
00000180: a081 5f3d 5eb1 673d d956 cdbd ebda 293c
00000190: a74d 1bbb 9be4 033d de37 10be ae97 ab3b
000001a0: 5e47 c8bd 0635 4abd b8b7 053c 6b39 3c3d
000001b0: c617 b1bc 31d9 8a3c 4c91 e5bc 20dd 673c
000001c0: 5180 4f3b 61ee edbb 33dd c9bc eb89 d9bd
000001d0: 0551 993d 906f 6f3d af9d 73bd 701d 2fbd
000001e0: ad01 8fbd 156f b53c 33dd 1cbc 67cd 0c3c
000001f0: 6c63 493d c3d2 c93d b79f 5d3d 83bd cb3a
00000200: 3c47 85bd 2b58 d73d 8e3d f2bb c987 0e3d
00000210: e816 cd3d a881 503d e0fb a13d b51b 423c
00000220: cbd5 b8bd fe98 a83d 1b72 d7bd bdec 35bc
00000230: 2177 503d 931b 92bd e0ed 07bd be6a 22bd
00000240: 71aa 52bd e73f aa3d 6d24 12bd 2f4f 193c
00000250: 75dc 0c3d 593d db3b 4993 b8bd 7456 873d
00000260: 3c3d 3fbd 1331 ccbd fae7 8d3c 87c4 8d3d
00000270: 879e cd3d f8e0 843d 55ea 84bd 0e6e e03a
00000280: b1aa 29bd 111c c83c 86c6 5e3d a907 94bd
00000290: 7fb4 af3d 9f2b 7c38 c63b 5c3d 383c 9ebc
000002a0: 4525 cc3d 9ca8 c43d ecaf ea3c c88e aabc
000002b0: de4e c93d dcd5 ccbd 80af cdbd 239b 9bbd
000002c0: 2332 95bd 3ddf 8abd 136d cdbd 8050 5e3d
000002d0: 2e2c 2b3d 337f e13b f308 3fbd 1bd6 9ebd
000002e0: fb9c a7bd 224e 7a3d b31a 1f3d 0e4f 15bd
000002f0: 052d 563d 1b2f 4d3d 6617 c13d 8a7a b13d
00000300: ef41 e0bd a100 5abb 359b d43b 414d 9b3c
00000310: 92a7 45bd 481f 1a3d bde7 d0bc 8c43 88bd
00000320: c659 a0bd dc1f 2abd d98a 713d ae2f d13d
00000330: 38ba 47bc c1b2 0d3d 64d1 3bbd 9afd 63bd
00000340: 116e e639 31f3 8c3c 01ec 9a3d 515f b4bd
00000350: 7d31 a33d 8f7e 213d 0d2a 2d3b 3f62 73bc
00000360: a52f f2bc e2ff a83d cb67 b9bc e008 623b
00000370: c477 41bd 7d04 7ebd 7a23 10bd c6d1 da3d
00000380: ccef 783d 1930 a1bb 6eb8 213d 3cb0 993b
00000390: 6f4a d83d f713 98bd ec2c ca3d 3679 1c3a
000003a0: 1c62 c9bd 31f7 83bd 9c79 d0bd 2db9 8dbd
000003b0: 6e98 8c3d 6037 b6bc f386 9d3a 51b3 5f3a
000003c0: 841b 683d fec6 bfbd fa92 f73b ffda b93c
000003d0: 6ee1 c93d 812a 713d 2c09 68bd 321c f1bc
000003e0: 4d53 c73d 60ef 813b 5b38 fc3b 6d51 923c
000003f0: edca 8abd f083 8f3c de6e b3bd 529e d3bd

fc1.bias f4 [20]
-0.048322372 -0.08164238 -0.015456752 0.062528335 -0.028542466 -0.054613892 0.08861057 -0.015384604
-0.015734298 -0.06207846 -0.039188873 -0.10896377 -0.024350084 0.031550232 0.09019542 -0.039802965
0.09172557 -0.06272948 0.048039492 -0.0035610616
00000000: aeed 45bd 1f34 a7bd 513e 7dbc db0e 803d
00000010: e4d1 e9bc d1b2 5fbd 7579 b53d b50f 7cbc
00000020: 37e5 80bc fc45 7ebd 8384 20bd 6628 dfbd
00000030: d479 c7bc d13a 013d 60b8 b83d 6f08 23bd
00000040: 9eda bb3d 5078 80bd 0fc5 443d b360 69bb

fc2.weight f4 [1, 20]
-0.23101704 0.17095473 0.19873989 -0.09899914 -0.18958847 -0.21139576 0.15576515 -0.25162938
0.15005754 0.12389649 -0.2006799 0.15384749 -0.0014243238 -0.195499 0.041862264 -0.022927739
0.14493053 0.14596565 0.04077592 0.044449773
00000000: bb8f 6cbe c20e 2f3e 7882 4b3e 10c0 cabd
00000010: 7b23 42be 2178 58be e680 1f3e 91d5 80be
00000020: afa8 193e 71bd fd3d 087f 4dbe 328a 1d3e
00000030: 60b0 baba e430 48be c477 2b3d f4d2 bbbc
00000040: ab68 143e 0578 153e a704 273d f710 363d
