notebooks/lightning_logs/version_172/checkpoints/epoch=0-step=253.ckpt (torch, 9999 bytes, 3 tensors)

fc1.weight f4 [20, 94]
-0.063627854 -0.010125838 0.10420156 -0.0030605171 -0.07436054 0.06311663 -0.024757484 0.073802866
-0.14013742 0.0008023315 0.0821316 -0.018955393 0.09314985 -0.073671736 -0.08091489 0.093523644
0.06284574 0.06459286 0.095343836 0.0117818685 0.028238535 -0.032340556 -0.07599981 -0.12666366
0.0027416549 -0.10116171 0.084218755 -0.07010674 0.040866528 -0.096433096 0.019597273 0.09778517
-0.04484359 -0.012317362 0.056456234 -0.087331 0.02214295 0.029249387 0.0225286 0.018682592
0.072636016 0.09400357 -0.0015400656 -0.08684281 0.033041473 -0.102615714 -0.03533492 0.017489819
0.09335284 -0.087478004 0.015511277 0.035841618 0.08991406 -0.047830846 0.10402569 -0.0012982915
-0.040596027 -0.053120293 0.06630539 0.06839609 -0.028239798 -0.028513767 -0.08041285 -0.04475943
-0.028617645 -0.08751631 0.0038909353 0.05860244 0.006446941 -0.09816963 -0.0029728315 0.086160846
-0.008721901 -0.046866596 -0.04352956 0.04772023 0.0055604274 0.07718591 -0.05272023 0.07925154
0.03347459 0.08179162 -0.09556393 -0.045909613 -0.084690794 -0.011030114 -0.03145171 -0.112429515
-0.106263764 0.009809109 0.0009384282 -0.068354584 -0.07256585 -0.11154588 -0.091184944 -0.0039810603
0.04658855 -0.083839126 -0.08041285 0.06842652 0.083819956 -0.046271767 -0.026544888 0.055771507
0.062275365 -0.023310509 0.06551962 -0.0941124 0.08147037 -0.007636456 0.06456371 0.033094402
0.031052304 0.074889086 -0.1019717 0.029500382 -0.07023291 0.020082949 0.028834615 0.022662662
0.046088394 -0.03884734 0.061885875 0.0065191844 0.09479704 -0.09839972 0.059221346 -0.015504575
0.06568664 -0.080412686 0.045173097 0.066675775 -0.060030006 0.0049533267 -0.05277814 0.07411458
-0.008234946 -0.042424764 0.07470261 0.029999636 0.07869441 0.0076878946 0.090790056 0.098878935
0.032130912 0.08502692 -0.096145175 -0.069938846 -0.0068159904 -0.07932644 0.07080127 0.0963833
-0.029470837 0.083446756 -0.09995659 0.09595406 0.02892688 0.00857195 0.06800297 -0.098082885
0.037914794 0.09039587 -0.023582283 0.022749972 -0.056045715 0.041119125 -0.051645562 0.00052889885
-0.0028933827 -0.0721253 -0.008243938 0.06601634 -0.09797807 0.073467396 0.06803189 0.049787868
-0.08184512 0.09335261 0.10021873 0.018686185 -0.0061526867 -0.01367792 0.08795471 0.085880846
-0.016585665 0.040710177 -0.066567846 0.02903649 0.034066807 -0.024053896 0.06772947 0.036955614
-0.051066477 0.055717044 0.019602202 -0.027779423 -0.104939625 0.037036758 -0.029571619 -0.0023487753
-0.091120936 0.0078121857 0.08953874 0.00981305 -0.003501147 -0.05813972 0.011184637 0.0041699694
0.0840782 -0.055963606 0.07794948 -0.09253158 -0.04964779 0.05988017 0.050202776 0.036740746
0.095886365 0.07084774 -0.069131196 0.07516308 0.054468893 -0.03713926 0.087893605 -0.0838282
0.03842015 -0.07643653 -0.07494487 0.015110482 0.0062961034 -0.050226297 -0.005545642 -0.06123416
-0.025878137 -0.04825326 0.045748487 -0.073219895 -0.04741782 0.093139514 -0.0042297137 -0.07650284
-0.030931886 -0.03165353 0.028135907 -0.037411336 0.046748586 -0.022862816 -0.05427184 -0.034395136
0.08681054 -0.0034979626 -0.08021231 0.023076337 0.05310582 -0.053469233 -0.08971154 -0.10041902
00000000: 524f 82bd d8e6 25bc a167 d53d f592 48bb
00000010: 574a 98bd 4b43 813d 35d0 cabc f525 973d
00000020: 2f80 0fbe 8e53 523a 9d34 a83d 5748 9bbc
00000030: 59c5 be3d 35e1 96bd b5b6 a5bd 5389 bf3d
00000040: 44b5 803d 4349 843d a143 c33d bd08 413c
00000050: 8054 e73c 8877 04bd caa5 9bbd 1eb4 01be
00000060: 56ad 333b df2d cfbd e27a ac3d 1f94 8fbd
00000070: a963 273d b77e c5bd 768a a03c 9743 c83d
00000080: eaad 37bd c3ce 49bc a73e 673d 98da b2bd
00000090: 2265 b53c 699c ef3c e68d b83c 3c0c 993c
000000a0: 31c2 943d f284 c03d 07dc c9ba a5da b1bd
000000b0: 7f56 073d 3028 d2bd 59bb 10bd cf46 8f3c
000000c0: c62f bf3d ab27 b3bd 0323 7e3c a9ce 123d
000000d0: dd24 b83d 47ea 43bd 6c0b d53d 6f2b aaba
000000e0: 0548 26bd aa94 59bd 1fcb 873d 4013 8c3d
000000f0: 2657 e7bc b495 e9bc 7eaf a4bd aa55 37bd
00000100: 8d6f eabc c03b b3bd 10ff 7e3b 1d09 703d
00000110: dc40 d33b 290d c9bd d6d3 42bb 1975 b03d
00000120: 4ee6 0ebc 30f7 3fbd 0d4c 32bd 4a76 433d
00000130: 3f34 b63b a513 9e3d 2bf1 57bd a24e a23d
00000140: a71c 093d 5d82 a73d 06b7 c3bd b80b 3cbd
00000150: 5e72 adbd a7b7 34bc 82d3 00bd 7241 e6bd
00000160: d1a0 d9bd 63b6 203c da00 763a 7dfd 8bbd
00000170: 689d 94bd 2b72 e4bd 2cbf babd 8e73 82bb
00000180: a3d3 3e3d d9b3 abbd 7eaf a4bd 3423 8c3d
00000190: cca9 ab3d 7787 3dbd aa74 d9bc aa70 643d
000001a0: 7414 7f3d aef5 bebc 272f 863d 01be c0bd
000001b0: f0d9 a63d 3c3b fabb fa39 843d ff8d 073d
000001c0: 6761 fe3c 735f 993d 8ad6 d0bd c9aa f13c
000001d0: 46d6 8fbd ff84 a43c 9236 ec3c 0ca7 b93c
000001e0: 2fc7 3c3d 631e 1fbd 0b7c 7d3d e29e d53b
000001f0: f324 c23d cb85 c9bd 1592 723d e706 7ebc
00000200: b886 863d 68af a4bd 6d07 393d 4f8d 883d
00000210: 06e2 75bd 844f a23b e42d 58bd 63c9 973d
00000220: deeb 06bc 97c5 2dbd affd 983d ccc1 f53c
00000230: 892a a13d bcea fb3b 23f0 b93d 0a81 ca3d
00000240: b49b 033d 9822 ae3d c3e7 c4bd 193c 8fbd
00000250: ac58 dfbb e775 a2bd 4200 913d 9c64 c53d
00000260: d36c f1bc 22e6 aa3d 0ab6 ccbd 9083 c43d
00000270: 10f8 ec3c 5d71 0c3c 2445 8b3d aedf c8bd
00000280: 8b4c 1b3d 7821 b93d a22f c1bc 265e ba3c
00000290: 3190 65bd 876c 283d 4c8a 53bd cda5 0a3a
000002a0: e89e 3dbb 6eb6 93bd 9511 07bc 9333 873d
000002b0: baa8 c8bd 1376 963d 4e54 8b3d 5dee 4b3d
000002c0: 6a9e a7bd a72f bf3d 7a3f cd3d c513 993c
000002d0: 7a9c c9bb 5b19 60bc 9921 b43d 4ce2 af3d
000002e0: a9de 87bc b7bf 263d b954 88bd efdd ed3c
000002f0: a389 0b3d ad0c c5bc c0b5 8a3d c55e 173d
00000300: 152b 51bd 8e37 643d cc94 a03c ac91 e3bc
00000310: 96ea d6bd dbb3 173d 2e40 f2bc e9ed 19bb
00000320: 9d9d babd 5dfd ff3b 1660 b73d eac6 203c
00000330: 8073 65bb ea23 6ebd c53f 373c 3da4 883b
00000340: 3131 ac3d 183a 65bd faa3 9f3d 3281 bdbd
00000350: 7b5b 4bbd e944 753d 6da1 4d3d 777d 163d
00000360: 1260 c43d 9f18 913d a894 8dbd 1aef 993d
00000370: c61a 5f3d 561f 18bd 9001 b43d 1fae abbd
00000380: 725e 1d3d c18a 9cbd b27c 99bd f591 773c
00000390: 8b4f ce3b 17ba 4dbd 38b8 b5bb acd0 7abd
000003a0: 63fe d3bc 36a5 45bd c462 3b3d 50f4 95bd
000003b0: 3039 42bd eebf be3d 6999 8abb 85ad 9cbd
000003c0: de64 fdbc 22a7 01bd 467d e63c a13c 19bd
000003d0: 727b 3f3d cd4a bbbc 264c 5ebd eae1 0cbd
000003e0: b9c9 b13d 133e 65bb 5a46 a4bd 960a bd3c
000003f0: 7d85 593d 8e02 5bbd afba b7bd 7da8 cdbd

fc1.bias f4 [20]
-0.07619357 -0.06473167 0.023239672 0.09288892 0.032626197 0.061168514 0.05599673 -0.014513568
0.036217924 0.0919419 0.07303474 -0.026710479 0.014612567 -0.04533468 0.033357278 0.0010934139
-0.087228306 0.01365426 0.03536565 -0.047790386
00000000: 600b 9cbd 0a92 84bd 2061 be3c 8c3c be3d
00000010: 0ca3 053d d68b 7a3d d45c 653d 51ca 6dbc
00000020: 3f59 143d 094c bc3d 3d93 953d efcf dabc
00000030: 8c69 6f3c dbb0 39bd a4a1 083d e250 8f3a
00000040: c1a4 b2bd 1eb6 5f3c 92db 103d dabf 43bd

fc2.weight f4 [1, 20]
0.20526603 -0.052891374 0.012490245 0.000100876205 0.06524322 0.045337565 0.15842067 -0.08175537
-0.2799842 -0.1665438 -0.028675862 -0.029781736 0.092152305 -0.24933903 -0.04431977 -0.1501314
0.17025141 -0.005994062 0.09270998 -0.12412094
00000000: 4231 523e a0a4 58bd e2a3 4c3c 808d d338
00000010: 3d9e 853d e2b3 393d 0739 223e 5c6f a7bd
00000020: 175a 8fbe 758a 2abe a4e9 eabc d4f8 f3bc
00000030: 59ba bc3d bb52 7fbe a688 35bd 0cbc 19be
00000040: 6356 2e3e d669 c4bb bbde bd3d 1f33 febd
