notebooks/lightning_logs/version_139/checkpoints/epoch=14-step=3809.ckpt (torch, 10127 bytes, 3 tensors)

fc1.weight f4 [20, 94]
0.02544692 0.03275492 -0.018009316 0.07773907 -0.0933388 -0.011971729 0.021933028 0.07106585
-0.009850791 0.0013421531 0.0011640894 0.015230297 -0.0827019 -0.009255428 0.018910721 -0.05687398
-0.048481252 -0.051604614 -0.08852716 -0.14682892 -0.21398972 -0.32432315 -0.3451436 -0.34824908
-0.18025047 0.038582128 -0.020237526 -0.089412324 0.03302821 -0.036934733 0.11164803 0.083259515
0.027191062 0.13261837 0.06897485 0.10322733 0.19538143 0.1496224 0.14015706 0.07548167
0.031209253 0.06365408 0.45295507 0.09444966 -0.49892288 -0.20730545 -0.027440587 -0.016172387
-0.0057472712 0.030461382 0.076130055 0.022986697 0.049880307 0.036384385 0.10885464 -0.011095683
0.103806995 -0.02781421 0.09418741 0.128046 0.015925016 0.010725999 0.047357038 -0.006226401
-0.06311048 -0.025676414 -0.053233195 -0.046167683 -0.08810025 -0.06596646 -0.13867389 -0.061083026
0.00092028425 -0.033221833 -0.051632173 0.084284075 0.022304941 -0.032886624 -0.0730181 0.017515186
-0.08809741 -0.04257969 -0.01226173 0.024810525 -0.040706996 -0.10968092 0.051166195 -0.05959167
-0.04622812 -0.08742615 0.04305334 0.08233089 -0.07693239 -0.040477537 -0.05109891 0.069631234
-0.06784126 -0.01850516 -0.07975238 0.080928504 -0.07276382 -0.030714432 0.03073821 -0.13091488
-0.018495146 -0.0015057778 -0.014318846 0.03333664 0.052074596 0.008033975 -0.08274462 0.024878418
-0.019326568 -0.057523508 -0.102246396 -0.19736001 -0.15021215 -0.17559782 -0.21021548 -0.024641847
-0.06734346 -0.09198559 -0.0705566 -0.045350164 0.109537296 0.09309876 -0.0056099566 -0.020547468
0.013771675 0.12853418 0.1656703 0.043547276 -0.020563534 0.083965585 0.1295885 -0.029619548
0.20865206 0.15098463 -0.35613024 -0.14494658 0.06618447 0.083230935 -0.08652265 -0.010558623
-0.059822295 0.042142037 0.08703758 0.021384252 0.02310117 0.103034176 0.12131582 0.061585005
-0.0055584074 -0.04058666 0.04359887 -0.04832097 0.014887104 -0.050757714 -0.042247247 -0.03855528
-0.06553364 -0.060557682 -0.040958434 -0.084364794 -0.06860148 -0.07367696 0.047124334 -0.048555963
0.05268304 -0.014425467 -0.11679413 -0.011731875 0.06739555 0.06808601 0.04985993 0.09221946
0.024324665 0.09275504 0.08004329 -0.18234344 -0.07172186 -0.1079464 0.080089234 0.03790557
0.059557226 -0.011829256 0.07131656 -0.031500824 -0.0015678675 0.04234629 0.0260088 -0.03015845
-0.07871119 -0.0074715726 -0.05931575 0.061688192 -0.11337564 0.011923707 0.021416087 0.04380709
-0.08760776 0.09173429 0.072068684 0.08779282 0.06368719 -0.020402057 0.034860596 0.043966256
0.025685044 0.079267055 0.06367872 0.06869785 -0.043558475 -0.09149389 0.083723694 -0.025968423
0.027794702 0.0012748545 0.046108436 -0.054388337 0.010654329 -0.07011456 0.010355297 0.021806099
-0.041894533 0.027016748 0.062260035 0.086460434 0.07890279 0.076086044 -0.2431349 -0.09236497
0.07615828 0.12066111 0.073031515 0.013486717 0.08018023 0.047809772 -0.07250207 -0.11669199
0.0917504 -0.029129673 0.0060215453 -0.049840305 -0.0680125 -0.01994718 -0.024030112 0.08061176
-0.027784515 -0.008920867 -0.030987209 -0.017630583 -0.0891533 -0.003928676 -0.009768343 0.08481224
00000000: 0f76 d03c 062a 063d 4688 93bc a935 9f3d
00000010: 6a28 bfbd 1225 44bc e5ac b33c f98a 913d
00000020: 3665 21bc 2feb af3a 5c94 983a 7f88 793c
00000030: 9d5f a9bd 14a4 17bc a8ea 9a3c b1f4 68bd
00000040: 4794 46bd 5c5f 53bd ba4d b5bd 525a 16be
00000050: 1f20 5bbe af0d a6be a9b6 b0be b44d b2be
00000060: 9493 38be 4b08 1e3d 2bc9 a5bc cf1d b7bd
00000070: 9748 073d e048 17bd b9a7 e43d f783 aa3d
00000080: cabf de3c 1ccd 073e b042 8d3d da68 d33d
00000090: 1212 483e 9d36 193e 5585 0f3e 2296 9a3d
000000a0: 8caa ff3c 125d 823d bae9 e73e d36e c13d
000000b0: d272 ffbe e147 54be 15cb e0bc f47b 84bc
000000c0: 9b53 bcbb 268a f93c 13ea 9b3d 994e bc3c
000000d0: 4b4f 4c3d cb07 153d 2eef de3d abca 35bc
000000e0: c398 d43d a0da e3bc 54e5 c03d 7e1e 033e
000000f0: 2e75 823c 1abc 2f3c 74f9 413d d606 ccbb
00000100: 1140 81bd 5857 d2bc 0d0b 5abd 531a 3dbd
00000110: e76d b4bd 6c19 87bd 8700 0ebe 3232 7abd
00000120: 3b3f 713a 9e13 08bd 427c 53bd 219d ac3d
00000130: dab8 b63c 20b4 06bd 838a 95bd 027c 8f3c
00000140: 6a6c b4bd 0b68 2ebd 6ce5 48bc 713f cb3c
00000150: 61bc 26bd 64a0 e0bd a593 513d 6516 74bd
00000160: b259 3dbd 7b0c b3bd b358 303d 199d a83d
00000170: bb8e 9dbd c6cb 25bd 174d 51bd d29a 8e3d
00000180: 5cf0 8abd 2298 97bc 3755 a3bd d8bd a53d
00000190: 3305 95bd d59c fbbc b3ce fb3c 8d0e 06be
000001a0: 2283 97bc 855d c5ba 9899 6abc 008c 083d
000001b0: 2c4c 553d efa0 033c 0376 a9bd d3cd cb3c
000001c0: c052 9ebc c59d 6bbd 8f66 d1bd be18 4abe
000001d0: 37d1 19be eacf 33be ba42 57be b3dd c9bc
000001e0: 5eeb 89bd f162 bcbd fb7f 90bd 18c1 39bd
000001f0: 1755 e03d 90aa be3d bad3 b7bb 2a53 a8bc
00000200: 97a2 613c 779e 033e 7aa5 293e a15e 323d
00000210: db74 a8bc 26f6 ab3d d9b2 043e b2a4 f2bc
00000220: e3a8 553e b79b 1a3e b456 b6be e06c 14be
00000230: b98b 873d fb74 aa3d ca32 b1bd 13fe 2cbc
00000240: 3908 75bd 219d 2c3d c240 b23d 072e af3c
00000250: aa3e bd3c 9503 d33d 6e74 f83d 8f40 7c3d
00000260: 4d23 b6bb 333e 26bd bb94 323d 36ec 45bd
00000270: 0ae9 733c 52e7 4fbd 730b 2dbd 24ec 1dbd
00000280: 8036 86bd 550b 78bd 08c4 27bd 73c7 acbd
00000290: ef7e 8cbd f2e3 96bd 7205 413d 9ee2 46bd
000002a0: 2cca 573d cb58 6cbc c331 efbd 0d37 40bc
000002b0: ae06 8a3d ae70 8b3d ed39 4c3d 8edd bc3d
000002c0: 8544 c73c 5bf6 bd3d bded a33d 3db8 3abe
000002d0: e9e2 92bd 0113 ddbd d305 a43d df42 1b3d
000002e0: 47f2 733d 7fcf 41bc 6b0e 923d 0207 01bd
000002f0: e780 cdba 4e73 2d3d 6810 d53c db0e f7bc
00000300: 5533 a1bd 18d4 f4bb 12f5 72bd c2ac 7c3d
00000310: 7d31 e8bd a75b 433c ca70 af3c 106f 333d
00000320: b36b b3bd 30df bb3d bf98 933d b9cc b33d
00000330: 6e6e 823d 3722 a7bc fcc9 0e3d f615 343d
00000340: 7169 d23c c456 a23d fd69 823d 75b1 8c3d
00000350: 5f6a 32bd 2661 bbbd 5477 ab3d bbbb d4bc
00000360: b7b1 e33c 0519 a73a 33dc 3c3d 4ec6 5ebd
00000370: 7f8f 2e3c 3998 8fbd 43a9 293c b4a2 b23c
00000380: 9a99 2bbd 3a52 dd3c 6104 7f3d 2b12 b13d
00000390: c997 a13d 00d3 9b3d 5bf8 78be d829 bdbd
000003a0: dff8 9b3d 2c1d f73d 8c91 953d 64f7 5c3c
000003b0: 8835 a43d 2ed4 433d f77b 94bd 36fc eebd
000003c0: a2e7 bb3d 5aa1 eebc 6250 c53b 5925 4cbd
000003d0: 234a 8bbd 4568 a3bc ccda c4bc c717 a53d
000003e0: 5a9c e3bc d428 12bc e3d8 fdbc 036e 90bc
000003f0: 0196 b6bd 1fbc 80bb 660b 20bc 0ab2 ad3d

fc1.bias f4 [20]
-0.15236418 -0.18601044 -0.104249455 0.08425649 0.034136694 -0.09761591 0.12676147 -0.019086994
-0.009877523 -0.14801091 -0.10252643 -0.11418456 -0.04429473 -0.25541055 -0.13208304 -0.04745293
0.039984927 -0.09666393 -0.15511179 0.052693047
00000000: 5b05 1cbe 8579 3ebe bd80 d5bd ab8e ac3d
00000010: ebd2 0b3d daea c7bd c2cd 013e 545c 9cbc
00000020: 56d5 21bc 2c90 17be 60f9 d1bd 98d9 e9bd
00000030: 646e 35bd 2cc5 82be c740 07be 015e 42bd
00000040: 3cc7 233d bdf7 c5bd a0d5 1ebe aad4 573d

fc2.weight f4 [1, 20]
0.73605627 0.39315695 -0.40659425 -1.0319167 -0.7385915 0.31971034 -1.0125539 -0.4051518
0.22127788 0.30872548 -0.044943437 0.31481552 -0.10206292 1.1165614 1.2179265 0.7578042
-0.30529022 0.15797369 0.7288332 -1.0875835
00000000: 2f6e 3c3f de4b c93e 1f2d d0be d915 84bf
00000010: 5514 3dbf 13b1 a33e 5e9b 81bf 0f70 cfbe
00000020: ab96 623e 4411 9e3e 9c16 38bd 802f a13e
00000030: 5d06 d1bd 7ceb 8e3f 04e5 9b3f 75ff 413f
00000040: 004f 9cbe dbc3 213e d094 3a3f f035 8bbf
