notebooks/lightning_logs/version_166/checkpoints/epoch=0-step=253.ckpt (torch, 9999 bytes, 3 tensors)

fc1.weight f4 [20, 94]
000000 8a ee 3b bd 27 96 df bb 6e 98 43 bd b1 46 ba 3d
       -0.045881785 -0.0068233195 -0.04775279 0.090955146
000010 a4 28 aa 3c ad a9 af 3d 8e e8 d2 3d 30 74 5c 3d
       0.020771332 0.08577285 0.102982625 0.053821743
000020 74 51 6d bd ef 61 61 3d 19 7a af bd 6b 9a c6 3d
       -0.057939008 0.055025037 -0.0856821 0.09697422
000030 e5 ef 99 bd ce 25 1f 3c b4 36 b2 bd 72 c3 00 3d
       -0.075164594 0.009713603 -0.0870184 0.03143639
000040 c0 32 e4 bc e0 2d b4 bb 1b 38 c9 3d 7c 68 a3 bd
       -0.02785623 -0.005498633 0.098251544 -0.07978913
000050 a0 94 c8 bc 7f c9 26 bd 33 3c c7 bc 85 6b c2 bd
       -0.024484932 -0.040719505 -0.024320697 -0.09493164
000060 17 bf 07 3b 10 b0 80 3c ca d6 6e 3d b8 84 89 bb
       0.0020713264 0.015708953 0.058310308 -0.0041967295
000070 cc 6b bb 3b 07 72 be 3d d7 93 b1 3d 15 7b 30 bd
       0.0057196375 0.09299093 0.08670776 -0.04308613
000080 2d e6 de 3d bc 45 93 3d 46 13 6a 3a 4b 79 03 3d
       0.10883746 0.07191035 0.00089292636 0.032098096
000090 34 d7 ce 3d 0d 94 30 bc 60 17 a3 bc de b9 90 3d
       0.100996405 -0.010777486 -0.019908607 0.07066701
0000a0 be 2b 22 bd a9 69 6e 3d a9 5b 89 bd 81 0b 30 3d
       -0.039592497 0.058206234 -0.06706936 0.04297972
0000b0 48 6f 36 bd bc 5f aa bd 27 95 28 3d 79 79 5e 3d
       -0.04453972 -0.08319041 0.041157868 0.054315064
0000c0 26 4b a7 bd 20 5a 11 3c 1c ab 8a bb 0b 70 c8 3c
       -0.0816863 0.008871585 -0.0042318236 0.024467489
0000d0 37 c0 d0 3b 40 50 1a bd 4d 52 12 bd 11 03 4a bd
       0.00637057 -0.03767419 -0.03572302 -0.04931933
0000e0 00 9e 17 bd 11 3d ac bc e4 18 c5 bc dd b0 5b 3c
       -0.037015915 -0.021025212 -0.02405972 0.013408867
0000f0 2e 23 a2 3d 60 13 47 3b a7 3e 5d bd 19 d1 71 bd
       0.07916866 0.0030376539 -0.054014828 -0.0590373
000100 3d fe ad 3a e1 40 bf 3d 81 bc ca 3c d6 da e7 bb
       0.0013274621 0.093385465 0.024748089 -0.007075648
000110 b2 f5 4a 3d e2 38 4d 3d de e5 99 3d b4 93 12 bd
       0.04955072 0.050103076 0.07514547 -0.035785392
000120 82 b3 69 bd 27 00 34 3d d0 a2 d0 bd 5f e2 83 3d
       -0.057055958 0.043945458 -0.10187304 0.06439661
000130 0b b5 6d bd f0 5a 83 3d 79 ee a2 bd 86 ca 75 bd
       -0.058033984 0.06413829 -0.07955641 -0.060007595
000140 0a 7f c4 bc 14 2c 1d bd 8a f0 7a 3c 3a b3 37 3c
       -0.023986358 -0.038372114 0.015316138 0.011212165
000150 19 e6 be 3d 08 f4 cf bc bd c9 d4 bd a8 a2 c1 3c
       0.093212314 -0.025384918 -0.10390041 0.02363713
000160 64 d7 87 bb 77 c0 42 bd bd 59 aa 3c fe fa d9 3d
       -0.0041455496 -0.04754683 0.020794744 0.10643576
000170 dc c6 4e bb 4e ea 6e 3d e6 ba 7f bd 3e 48 09 bd
       -0.0031551635 0.05832892 -0.0624341 -0.03351616
000180 ae 9a 0a bc 7c e3 0c 3d 61 b2 50 3c 37 9d b1 bc
       -0.00845973 0.034396634 0.012737841 -0.021681411
000190 2a 2e c4 bd a7 f7 87 3d 1b 97 04 3e 2e 3c a2 3d
       -0.095791176 0.06639033 0.12948267 0.079216346
0001a0 ee 88 83 bb a4 74 8c bd b8 78 39 bd d1 a9 58 bd
       -0.004014126 -0.06858185 -0.045281142 -0.052896325
0001b0 16 c9 72 3d 89 71 8c b9 7c e2 ed bc 94 e2 81 bd
       0.0592738 -0.0002678747 -0.02903866 -0.063420445
0001c0 85 93 0e 3c 0f 9d 4f bd d7 be 25 bd c8 fd 31 3d
       0.008702164 -0.050686892 -0.040465202 0.043454915
0001d0 7e 02 7f bd 09 18 59 bd 24 ae fd 3c 28 4e e0 bc
       -0.062258236 -0.053001437 0.030966826 -0.027381018
0001e0 1d cb 65 3d 4a b4 1b bc b2 04 57 3c d0 e8 11 bd
       0.056101907 -0.0095034335 0.013123678 -0.035622418
0001f0 a0 de 48 3d 58 aa 3b bd f8 d5 ae bd 8b 1e 41 bd
       0.049040437 -0.04581675 -0.08536905 -0.04714827
000200 58 63 92 bd 68 5f 44 bc 73 32 1e 39 d4 c7 d5 bb
       -0.071478546 -0.011985637 0.00015086848 -0.0065240655
000210 fd 71 a0 3d a7 ad 1b bd a4 60 6e 3d 3e e4 4d 3d
       0.078342415 -0.038007405 0.058197632 0.050266497
000220 a8 03 10 3d f5 ff 58 bd e1 a8 af bd 5b 83 bf bd
       0.035159737 -0.052978475 -0.08577133 -0.09351226
000230 af 21 85 bd 9f 8b 4d 3d ca 7b fe bc d2 ac d6 bb
       -0.06500565 0.05018198 -0.031064887 -0.0065513635
000240 bf 03 86 3d 1f 62 8a 3d c0 b3 86 3c 87 25 87 3d
       0.06543683 0.06756996 0.016443133 0.06598955
000250 6c f7 13 3d cf 8b ca bd c8 d5 9a 3b 14 c8 ca 3d
       0.03612463 -0.098899476 0.0047251917 0.09901443
000260 2b 5a 5e 3d e8 4b 56 bd 70 0d c8 bc 2d 4f 20 bd
       0.05428521 -0.052318484 -0.02442047 -0.039138008
000270 8e 9b 82 bc 31 b2 b4 bd fd 0c c4 bd ec 98 00 bd
       -0.015943315 -0.0882305 -0.0957279 -0.031395838
000280 e2 ea c4 3c 19 2c c2 3d 0a ce bd bc b1 e2 d0 3d
       0.024037782 0.09481067 -0.023169536 0.10199488
000290 d8 4a 6b bd fe 2e 9f 3d 5b 7e 58 bd 9a 3b 88 3d
       -0.057444423 0.07772635 -0.052854877 0.06651993
0002a0 8e a7 fb 3c 16 cf 84 bd 8e 3a ae bd cd 30 46 3d
       0.030719545 -0.06484811 -0.08507262 0.048386384
0002b0 a8 66 d2 bc f3 63 34 3c f6 4a 80 bd 03 bb 96 3d
       -0.025683716 0.011010158 -0.06264298 0.073598884
0002c0 75 42 bf bd 07 b8 31 3c 1f 6d 65 3d 67 a7 d5 bd
       -0.093388475 0.010847098 0.05601227 -0.1043232
0002d0 93 2f f2 bc 9b 49 64 3d 07 65 35 bd 77 1d 02 3b
       -0.0295637 0.05573426 -0.0442858 0.0019853988
0002e0 8c 53 f9 bb 63 6b c2 bc 9c 57 5f 3d b5 6f b9 3d
       -0.0076088365 -0.023732847 0.05452691 0.090545096
0002f0 32 ea a4 3d 50 ff e9 3d a0 2d d2 3d 7f 8f 46 bd
       0.08052482 0.1142565 0.102626085 -0.048476692
000300 05 f7 f9 3c 2e 00 97 3d e9 0e 19 bd 7a 4b 82 bc
       0.030513296 0.07373081 -0.037367735 -0.01590513
000310 c2 a7 98 bd 10 1a 57 bd 5e 28 06 3d b2 2a e8 3c
       -0.07453872 -0.05251509 0.03275334 0.028340671
000320 9d 1a d5 3d 71 d3 5c bd c6 76 cc bb 55 3d 84 bd
       0.10405467 -0.053912584 -0.006239745 -0.06457011
000330 59 c2 c3 bd fe 4f 96 3d 57 ae a6 3d 7f 4e 2f bd
       -0.09558553 0.07339476 0.081387214 -0.04279947
000340 54 e7 aa bd b3 43 b3 bd 7c 46 47 3d 11 f4 ec bd
       -0.083449036 -0.08753147 0.048651204 -0.115699895
000350 44 f3 b7 bd 39 e9 82 3d 98 c0 ff 3b 61 d0 d6 3c
       -0.08981946 0.0639214 0.0078049414 0.02622241
000360 49 26 a1 3d 3d 4c 64 bd 55 48 ae bd 7e 97 53 3c
       0.078686304 -0.05573677 -0.0850989 0.0129145365
000370 2e 09 dd 3d 04 15 c7 3d cf cc 5e 3d 91 b8 90 3d
       0.107927665 0.09720805 0.05439454 0.07066453
000380 63 8d 8b 3d c9 fa 7a 3c 02 a4 a7 3d d0 cb a2 3c
       0.06814077 0.015318581 0.08185579 0.019872576
000390 f0 40 2c bd d4 5e 68 bd c6 cc 15 3d 6d 68 9a 3c
       -0.042054117 -0.05673106 0.03657224 0.018848622
0003a0 1a 73 da 3c e8 a9 66 bd 2e 83 b9 bd d1 a8 cc 3c
       0.026666213 -0.05631438 -0.09058224 0.024982842
0003b0 30 14 56 3d 2e 21 67 3d e4 fd 96 3d aa f9 06 3c
       0.052265346 0.056428127 0.073726445 0.0082382355
0003c0 b9 d3 5e bd 72 31 ea bc da 2c 94 bd 22 66 5a 3d
       -0.054401133 -0.02858803 -0.07235117 0.053320058
0003d0 1c 29 7c 3b 84 69 93 bc 08 98 df 3c 55 49 4d bd
       0.0038476652 -0.01799465 0.027294174 -0.050118763
0003e0 6c 63 23 bd 6d f2 a5 3c 18 98 93 bc 77 69 33 3c
       -0.039889738 0.0202572 -0.01801686 0.010950438
0003f0 10 ff b9 bd 1d 7a 3a 3d d6 e4 76 3d 39 b6 50 3c
       -0.090818524 0.045526613 0.06027683 0.012738758

fc1.bias f4 [20]
000000 39 3b 9a bd cf 04 d0 bd 76 a2 97 3d 70 77 34 3d
       -0.07530827 -0.10157167 0.07404034 0.044059217
000010 36 51 6a bd 13 5a 85 3d 7f 79 6b bd bb 34 d1 bc
       -0.057206355 0.06511321 -0.057488915 -0.02553784
000020 b0 72 ef bc 26 a2 ac 3d 2f 69 40 3c fc 4b 9d bd
       -0.029229492 0.08429365 0.011743828 -0.076805085
000030 3b 94 4d bb 29 94 a8 bd c4 98 32 3d f1 0c f0 bc
       -0.003136887 -0.08231384 0.04360272 -0.029303046
000040 f6 4e 2f 3d c2 3a c7 bd 1d 34 a5 3d 16 28 50 3d
       0.042799912 -0.09728004 0.080665804 0.05081948

fc2.weight f4 [1, 20]
000000 e0 05 23 3e fd fe 59 be 73 93 81 3e b3 4e 44 be
       0.1592021 -0.21288677 0.25307807 -0.19170646
000010 6b 12 89 3d 7f 21 41 3e b9 cf 4f bd 9d b3 b3 3d
       0.06692966 0.18860434 -0.05073521 0.08774493
000020 96 29 71 bd 1a bf 65 bd e0 3a 49 3e e2 4f 61 bd
       -0.05887755 -0.05609045 0.19651365 -0.055007823
000030 1a 8c 9f 3c 1a b7 51 be 47 d8 93 3d 53 3f 66 be
       0.019475985 -0.20480004 0.07218986 -0.22485094
000040 08 06 c8 bd 00 ca ca 3d f1 4c 81 bc 42 13 ba bd
       -0.09766775 0.0990181 -0.015783759 -0.090857044
