notebooks/lightning_logs/version_76/checkpoints/epoch=0-step=1009.ckpt (torch, 27863 bytes, 9 tensors)

fc1.weight f4 [20, 94]
00000000: b49c 993e 11e5 ae3e 89b1 733e 513b b23d
00000010: 3af6 d33e 9675 4a3e 571e c13d 5ad6 0f3e
00000020: 4f19 7d3e 9ca5 e8be 3c2c 413f 5c73 f4bd
00000030: cb1e 43be 4371 bf3e 08e5 eebd d5aa 063e
00000040: 709c fd3b f12e ff3d 6369 b1bb 29c4 d43e
00000050: 08e3 773f b261 963f 640b 0140 5d7b 2340
00000060: c73a fa3d acb8 66bf 5ae1 82bf 8759 82bf
00000070: 4eea bcbf 7461 cabf 61a2 c3bf f24e bfbf
00000080: a610 cdbf 75e7 07c0 e797 e3bf 8914 eebf
00000090: fc31 06c0 70e5 c3bf ec7c a6bf 4531 aebf
000000a0: ed95 90bf 007b cebd 294c a6be b2a6 a83e
000000b0: 3f3e acbe ac7e e13c 4208 1bbd 68a4 c1be
000000c0: a6e2 d3bf 6d51 aebf c1fb cdbe a49f 08c0
000000d0: 7e93 ffbf cd9d 863e f8d9 3abe ace2 a0bd
000000e0: a5bc 8ebe 095f f23e 66e8 093f 7182 5e3c
000000f0: 69f5 d8bd 13bb 6ebe 4fd2 adbe 1020 12be
00000100: da48 fc3c d4cc 303c 7731 d43c 8f96 edbe
00000110: b4fb 953c 2118 da3d ec2d 9b3e 88a9 db3d
00000120: 086a 59be 4fcb 29be e3d0 96be 6310 bbbe
00000130: 93e1 5ebe 241a d73e b89e 52be d3fa 013b
00000140: 139e c43e 8d07 e83e 52ac ae3d 9bb6 4cbe
00000150: e09f 0fbe c4a6 9cbe d71e 05bf 7cc0 213f
00000160: f1c7 173f e91b 10be 59f0 82be 4a33 dabe
00000170: 7c15 2ebf cc46 323e 0ccc 383e 7173 3e3e
00000180: b47b 403d bbc8 d73e d0df 44be 1d30 15be
00000190: f679 60be b606 3dbe 5343 123f 2e26 2ebf
000001a0: 4cca 65bf 84b3 fdbe 856a 06be fff0 05bf
000001b0: d0cc 6e3e 6fd2 4a3d ba48 1cbd cdbc 6ebe
000001c0: 47b8 07bf 7a06 9cbf 4e8e d6bf 151f 06c0
000001d0: da72 22c0 4919 21c0 3800 c8bf d066 03bf
000001e0: 97ec 673e 275b 75bd 4b40 07bf 59b7 40bf
000001f0: b0a8 09bf 01bc 99be 7388 9abe c92b a1be
00000200: c022 443e 851b 743f a46c dc3f f41d b23f
00000210: d395 753f 6e6b 963f 8259 953f 8206 453f
00000220: 9d08 4b3e 1478 ecbe 3323 96bf f2c7 59bf
00000230: 5b3d 9fbf e5b1 bfbf 86ef 29c0 1e95 81bf
00000240: 5709 f4bf 702a 12c0 1adb d5bf f05c 903b
00000250: 5027 2cbf 652a 213e 665e 713e efa4 19bf
00000260: c7df 1ebf c75d 9f3d d77e 353e 992b 3fbe
00000270: 3f4d cf3e 8123 fa3c ba69 b7be 9103 0dbf
00000280: 2d35 50bf bf6a a23d 71a5 83be 23ba b6be
00000290: 03d0 efbe aee0 823d 4465 d8bd 5201 a1bc
000002a0: 1d0d 003f bc85 a93e 70aa 73bd b676 0b3e
000002b0: 4158 0c3f 5924 44be f204 e3be 40a3 c0be
000002c0: fd37 b93e 72ba 2c3e fac2 083f cc51 20bf
000002d0: 3787 e5be c46e 91bf a295 58be b729 15bf
000002e0: badc 933e 6af7 263f 9714 f43e 9d59 8bbf
000002f0: 997e 313e 2fa2 833d e20c e63d 3a15 b03d
00000300: a10b b5be 6dc7 6bbe c77d c0bd 0c40 d83b
00000310: f60c fe3c 631a 01bf b952 f9be 6042 f0be
00000320: ee6a 3a3e e649 babe 8ac0 1439 545d 2fbe
00000330: efa9 a6bd 3cfb 0abe cb47 18bf 3881 8cbf
00000340: 96b9 dabf 8b35 fcbf 4972 09c0 5417 02c0
00000350: 9f1d ccbf 223e 4bbf 73b5 0abe c004 b6be
00000360: 723f 20bf e52e 1cbf 6d26 23bf b1e6 b7bd
00000370: 783d 8a3e 41e4 853e d91a 293d f7a9 973f
00000380: ea6a cf3f 2b51 b13f ea57 8e3f e80a af3f
00000390: 37c1 a23f 7d49 d83e 8513 7e3d 41ad 89be
000003a0: 8af2 84bf d2d5 8bbf 7f1d 74bf e084 08bf
000003b0: 1c4d f1bf c5b5 6abf 0e97 1dbf 4c42 92be
000003c0: 6432 bcbf e10b 72be 69d9 10be eafd 67bd
000003d0: b445 873e bc36 03bf 384f 00bf 5c38 923e
000003e0: a9a1 883e 7368 8bbd 3051 dc3e 1cfe 9f3d
000003f0: 197f 1fbf 6e62 19bf 6d75 0dbf 6852 73bd
0.30002367 0.3415914 0.23798193 0.0870272 0.41398793 0.19771418 0.09429615 0.14046612
0.24716686 -0.4543885 0.7545812 -0.119360656 -0.19054715 0.373911 -0.11664778 0.13151105
0.007739596 0.12460125 -0.0054141744 0.41555908 0.968308 1.1748564 2.0163202 2.5544045
0.12218242 -0.90125537 -1.0225022 -1.0183572 -1.4759004 -1.581099 -1.5283929 -1.4945967
-1.6020706 -2.123502 -1.7780732 -1.8600017 -2.0968008 -1.5304394 -1.3006873 -1.3608786
-1.1295754 -0.10082054 -0.3247998 0.32939678 -0.3364124 0.027526222 -0.037849672 -0.37820745
-1.6553543 -1.3618599 -0.40231135 -2.1347437 -1.9966886 0.26292267 -0.18247211 -0.07855734
-0.278783 0.4733813 0.53870237 0.013580904 -0.10593683 -0.2331355 -0.33949515 -0.14270043
0.030796457 0.010791022 0.025902493 -0.4640393 0.018308498 0.106491335 0.30308473 0.10725695
-0.21231854 -0.16581462 -0.29456243 -0.3653594 -0.21765737 0.4201213 -0.20568359 0.001983334
0.3840185 0.4531826 0.08528961 -0.19991533 -0.14025831 -0.30595982 -0.5200018 0.6318433
0.5928946 -0.14073147 -0.25573996 -0.42617255 -0.6800153 0.1740982 0.18046588 0.18598725
0.046992972 0.42145333 -0.19226003 -0.14569135 -0.21921524 -0.18459591 0.5713398 -0.6802701
-0.89761806 -0.49551022 -0.13126571 -0.52320856 0.23320317 0.04951709 -0.038155295 -0.2331421
-0.5301556 -1.2189476 -1.6762178 -2.095647 -2.53826 -2.5171683 -1.5625067 -0.51328754
0.22648846 -0.059901383 -0.5283248 -0.75279766 -0.5377302 -0.30026248 -0.30182227 -0.31478718
0.19153881 0.9535449 1.7220654 1.3915391 0.9593174 1.1751535 1.1667941 0.76963055
0.19827504 -0.46185362 -1.1729492 -0.8507072 -1.2440599 -1.4976164 -2.6552444 -1.0123632
-1.906535 -2.2838402 -1.670749 0.0044056103 -0.67247486 0.15738828 0.23571166 -0.60017294
-0.6206021 0.077815585 0.17724167 -0.18668975 0.40488622 0.030534508 -0.3582285 -0.55083567
-0.8133114 0.079305165 -0.2571216 -0.35688886 -0.46838388 0.063905105 -0.1056619 -0.01965395
0.5002001 0.33109844 -0.059488714 0.13619503 0.54822165 -0.1915449 -0.4433971 -0.3762455
0.36175528 0.16867998 0.5342251 -0.6262481 -0.44829723 -1.1361928 -0.2115083 -0.58266777
0.28879339 0.65221274 0.4767196 -1.0886723 0.1733345 0.064274184 0.11232926 0.08597799
-0.35360435 -0.23025294 -0.0939899 0.006599432 0.03101204 -0.5043089 -0.48695925 -0.4692564
0.18204853 -0.36384505 0.00014186106 -0.17125446 -0.08137881 -0.13572401 -0.5948455 -1.0976934
-1.7087886 -1.970384 -2.1476004 -2.0326738 -1.594654 -0.7939168 -0.1354578 -0.355505
-0.6259681 -0.61009055 -0.6373051 -0.08979548 0.27000022 0.26150706 0.04128537 1.1848744
1.6204503 1.3852895 1.1120579 1.3675203 1.2715214 0.42243567 0.062030334 -0.26889995
-1.0386517 -1.0924628 -0.9535751 -0.5332775 -1.8851657 -0.9168361 -0.61558616 -0.28566206
-1.4702878 -0.23637344 -0.14145435 -0.056638636 0.26420367 -0.51255393 -0.5012088 0.28558624
0.26685837 -0.068070315 0.4303069 0.078121394 -0.6230331 -0.59915817 -0.552573 -0.05940476

fc1.bias f4 [20]
00000000: a007 0abf 8b47 45bf e7a0 1ebf 1919 babe
00000010: d810 e1be 40fa 20bf 2ee4 d5be e3dc 21bf
00000020: 0c74 d4be f10a 27bf 140d 55bf 3c4c b7be
00000030: 5485 48bf b797 bd3d e36d 81bf 69f9 29bf
00000040: 8250 acbe 825f 47bf 5529 1fbf 27a0 0abf
-0.53917885 -0.7706229 -0.6196427 -0.36347273 -0.43958163 -0.6288185 -0.4177565 -0.6322767
-0.41494787 -0.6525107 -0.8322308 -0.3580035 -0.7832844 0.09257453 -1.011166 -0.66396195
-0.33655173 -0.7788011 -0.6217244 -0.54150623

fc2.weight f4 [1, 20]
00000000: 6cc8 163d e4a5 1fbc 42ed 1dbc e0d5 2539
00000010: 9827 313c 7f0f 1dba 28d5 923b 4826 24bb
00000020: 239b ebbd 144f c2bc 5feb 30bd a158 2d3d
00000030: f9ed 1ebc b387 dabe 4ba8 b1bd 4a7a 6b3d
00000040: d5e1 1a3d 3860 a9bd d826 a13b bf59 533c
0.03681223 -0.009744141 -0.009639086 0.00015815301 0.010812663 -0.0005991384 0.0044809766 -0.0025047231
-0.11504199 -0.023719348 -0.043193217 0.04232085 -0.009700292 -0.42681655 -0.086746775 0.05748967
0.037813026 -0.082703054 0.0049179606 0.012899815

exp_avg f4 [20, 94]
00000000: 3034 afb8 3034 afb8 3034 afb8 0a25 29b9
00000010: da52 2eb5 a633 0cb9 3776 0439 5c06 3eb9
00000020: 56c6 0937 c77e 8c38 947e 802d 86a4 4cb8
00000030: 9ae9 f033 9874 052e 51c8 f2b6 0400 0080
00000040: 0000 0000 4100 0080 3343 0838 6184 2938
00000050: 2914 1338 7762 3738 f6c7 1a38 90f7 1537
00000060: c304 a136 ae1e 82b7 580b fab7 a7a6 59b7
00000070: a095 53b7 1770 5cb8 83aa 46b7 bca1 80b7
00000080: 48c1 ceb7 c1c1 6eb7 022c 41b7 cdb6 77b7
00000090: 85fc 55b7 7033 48b6 2bd8 ce36 e00c be35
000000a0: 0183 7b36 10d8 f237 0400 0000 0363 0080
000000b0: f068 a902 b70f b608 7ff8 a30f 0fff 9c15
000000c0: 6172 219c 6df4 e1a2 744b 76ab 1e3a 1030
000000d0: 10f6 b235 f080 2337 0acc c2b8 e63d d738
000000e0: 40f2 e830 802f 7c2f a838 8f2f 1c9b 4baf
000000f0: b280 8030 8874 6f30 c023 9b2f 8ae2 2e31
00000100: de24 0b32 5fe9 1933 3c4f 0133 c47f bdb2
00000110: 847b 05b4 ed46 00b4 fb78 e6b4 4c14 88b4
00000120: f724 cfb4 4409 82b5 90b0 a1b5 16c2 4937
00000130: ac4c 4337 5487 7036 4550 d733 4d89 4938
00000140: 4e9a 3e37 cbe4 ef36 c3e9 97b7 46fd 94b8
00000150: fd67 28ae 1098 3e37 10c3 96b4 0aa6 79b8
00000160: 122d bcb8 0af0 d638 1911 4838 2bd4 2e37
00000170: 03c1 c636 372d d0b6 59df 24b8 59df 24b8
00000180: 59df 24b8 2f7d 233a a9c1 66b7 7f8a 8639
00000190: eda3 d1b9 b997 0e39 ec00 1939 2043 9938
000001a0: d369 c0ad 6b5b f237 1875 29b3 a79c 35af
000001b0: 692c 0b39 0a00 0080 0000 0000 4c00 0000
000001c0: 7608 2d35 d145 a5b3 aa30 d8b3 792b 90b4
000001d0: b3c3 0f31 72dc 2335 5fb3 0c36 3096 ea36
000001e0: f100 a337 9b5c 5237 95c0 ee37 fc98 2238
000001f0: e220 4537 6b31 8836 178b 9036 a2d2 8436
00000200: 301a 8336 5b26 8737 2a9b 0938 ffad 6b37
00000210: 566a 0537 4c5a 5837 a1a3 f436 a344 d936
00000220: 0f00 0080 c575 0080 b291 7701 5285 eb85
00000230: f5d7 d00d 9fea 4014 259a 0b9c ccd0 88a2
00000240: 8a1e e828 d3e3 e930 1d0f 5e39 88f9 bf37
00000250: 51df a637 cccb 4836 83a6 b6b1 7455 e630
00000260: 3e34 2033 9e50 1532 7f02 b1b1 fbf8 9932
00000270: fefb 7c33 63e0 fcb2 b43f 14b3 4766 66b4
00000280: d7f9 44b5 bc15 19b5 f204 5235 3f5b 5b34
00000290: 838b ca35 df05 f434 277a 1237 6126 6d37
000002a0: 6c26 6837 f588 63b6 dd60 5db6 26d3 80b6
000002b0: 85b8 9f33 165e 0338 4600 10b6 55ab 9a37
000002c0: 5518 c337 9157 ed38 90ea 862e fd25 3f39
000002d0: 26a3 5b38 63f9 e638 ea08 9337 5816 6a36
000002e0: 843f 2738 05ff 3c37 96f5 0438 215b ad37
000002f0: 3fc1 f3b7 3fc1 f3b7 3fc1 f3b7 aecd 7b38
00000300: 97f3 d5b6 6941 8f38 00bd e4b7 588d ab37
00000310: 122d beb6 efa3 5e38 e3ee 74b1 d4eb 0338
00000320: bc91 48b4 93ed a4b0 8409 cd37 0400 0080
00000330: 0000 0000 0a00 0000 1cd3 9835 81fd db34
00000340: 168e 2a34 73ce 21b4 332c 62b4 9e09 54b4
00000350: 64eb 7134 8bf7 3d36 85eb 0537 3373 a136
00000360: e0f4 8e36 d167 1037 062e 3c36 6927 2c36
00000370: c5cb 8c36 98eb 8436 3486 2136 50bb 2d37
00000380: 22dd 9937 ccdb 2537 f15d c936 018b 1337
00000390: f050 ad36 2b07 9536 0a00 0080 841d 0080
000003a0: b15a d801 92a5 2708 1b8c af0d 08f7 9593
000003b0: 84a9 7d9b 2c4c 2022 3e6e 172c 913c 2432
000003c0: 7219 b938 6813 ac37 17e4 8d37 e3d4 7136
000003d0: d31e b932 688b 80b1 4600 37b3 3e25 04b3
000003e0: a5f7 9030 4571 cb33 4a77 5834 8c88 87b3
000003f0: 72fd e0b3 d0b5 9eb4 a94d 4ab5 23ec 43b5
-8.354371e-05 -8.354371e-05 -8.354371e-05 -0.00016130894 -6.4940616e-07 -0.00013370681 0.0001263254 -0.00018122181
8.212015e-06 6.699334e-05 1.4608127e-11 -4.8790615e-05 1.1218363e-07 3.0344255e-11 -7.235482e-06 -6e-45
0.0 -9.1e-44 3.248751e-05 4.0416027e-05 3.5066307e-05 4.3722303e-05 3.690269e-05 8.938732e-06
4.7987282e-06 -1.5511494e-05 -2.9807605e-05 -1.297301e-05 -1.2611417e-05 -5.255648e-05 -1.184142e-05 -1.5334102e-05
-2.4647117e-05 -1.4231017e-05 -1.1513943e-05 -1.4764909e-05 -1.2754584e-05 -2.9832263e-06 6.1644437e-06 1.415985e-06
3.747817e-06 2.894926e-05 6e-45 -3.5519e-41 2.489255e-37 1.0957421e-33 1.6168758e-29 6.341031e-26
-5.3418263e-22 -6.124517e-18 -8.750147e-13 5.2469484e-10 1.3333647e-06 9.745578e-06 -9.288646e-05 0.000102635284
1.6949073e-09 2.2936142e-10 2.6051805e-10 -1.8517848e-10 9.349803e-10 8.7113294e-10 2.8219738e-10 2.5449105e-09
8.0992475e-09 3.583534e-08 3.0107216e-08 -2.2060597e-08 -1.2431525e-07 -1.1946732e-07 -4.2928863e-07 -2.5346742e-07
-3.858365e-07 -9.688451e-07 -1.2046821e-06 1.2025723e-05 1.1640757e-05 3.5841558e-06 1.00263186e-07 4.8050006e-05
1.1360809e-05 7.14939e-06 -1.8109457e-05 -7.104366e-05 -3.8291138e-11 1.1360287e-05 -2.8081604e-07 -5.9520862e-05
-8.9729336e-05 0.00010249026 4.769964e-05 1.0420607e-05 5.9233294e-06 -6.2041468e-06 -3.9308656e-05 -3.9308656e-05
-3.9308656e-05 0.00062366104 -1.3754158e-05 0.0002566166 -0.0003998572 0.00013598696 0.0001459156 7.3081115e-05
-2.1874868e-11 2.8891218e-05 -3.9454875e-08 -1.6517508e-10 0.00013272617 -1.4e-44 0.0 1.06e-43
6.4459834e-07 -7.696111e-08 -1.0067136e-07 -2.685372e-07 2.092048e-09 6.104302e-07 2.0966033e-06 6.9912276e-06
1.9431553e-05 1.2538537e-05 2.8461489e-05 3.8766288e-05 1.1749771e-05 4.058869e-06 4.3077266e-06 3.9584274e-06
3.907153e-06 1.6111115e-05 3.2807853e-05 1.4047603e-05 7.952176e-06 1.2895627e-05 7.2908156e-06 6.4750943e-06
-2.1e-44 -4.2248e-41 4.5471266e-38 -2.2148268e-35 1.28709795e-30 9.739794e-27 -4.619047e-22 -3.7083946e-18
2.5770418e-14 1.7017733e-09 0.000211772 2.2885171e-05 1.9892732e-05 2.9920948e-06 -5.3158273e-09 1.675899e-09
3.7300417e-08 8.691272e-09 -5.1516618e-09 1.7924767e-08 5.8902508e-08 -2.94387e-08 -3.4516873e-08 -2.1457627e-07
-7.3379255e-07 -5.702857e-07 7.823829e-07 2.042916e-07 1.5090776e-06 4.5452813e-07 8.730719e-06 1.4135237e-05
1.3837223e-05 -3.3905355e-06 -3.2987948e-06 -3.839278e-06 7.4375784e-08 3.132046e-05 -2.1457831e-06 1.8438013e-05
2.3257142e-05 0.00011317351 6.135281e-11 0.00018229331 5.2365613e-05 0.000110137065 1.7527916e-05 3.4881723e-06
3.9875056e-05 1.126505e-05 3.1699972e-05 2.0665642e-05 -2.9057845e-05 -2.9057845e-05 -2.9057845e-05 6.0034617e-05
-6.3762523e-06 6.830955e-05 -2.7267728e-05 2.0450607e-05 -5.667688e-06 5.30816e-05 -3.5642465e-09 3.1452466e-05
-1.867947e-07 -1.2000093e-09 2.4442335e-05 -6e-45 0.0 1.4e-44 1.1386323e-06 4.0976377e-07
1.5884174e-07 -1.5069399e-07 -2.106397e-07 -1.9747537e-07 2.2530509e-07 2.8307284e-06 7.982254e-06 4.811585e-06
4.260437e-06 8.6072405e-06 2.8040972e-06 2.5652937e-06 4.196047e-06 3.9613333e-06 2.4068986e-06 1.0355216e-05
1.8341994e-05 9.885942e-06 6.001203e-06 8.794247e-06 5.165224e-06 4.4413805e-06 -1.4e-44 -1.0588e-41
7.9476004e-38 5.044936e-34 1.0818937e-30 -3.785648e-27 -2.0982443e-22 2.1724369e-18 2.1519587e-12 9.559828e-09
8.826227e-05 2.0513035e-05 1.6914722e-05 3.6035715e-06 2.1550852e-08 -3.741139e-09 -4.2608256e-08 -3.0767517e-08
1.0547764e-09 9.473528e-08 2.0159965e-07 -6.311265e-08 -1.0476914e-07 -2.956208e-07 -7.5363874e-07 -7.2986785e-07

exp_avg_sq f4 [20, 94]
00000000: 1487 c938 1487 c938 1487 c938 5c89 8b37
00000010: e4a9 bd39 cd63 5138 4b96 ac38 a90f 4038
00000020: 39ae 9938 6cd2 dd37 113a ff32 6fa3 8837
00000030: 1bc1 7035 961b 9a33 d530 c136 db37 a332
00000040: 0000 0000 d2bf ae35 364e df35 0a1e 1036
00000050: cdb0 1636 bb2c d235 3b20 8635 cc3d e834
00000060: bf74 e934 8817 c534 bf09 3535 b97e d634
00000070: 00ba f733 5f39 d633 9e48 1134 d35c 5734
00000080: 7cec 8b34 738a 1534 174b 8334 6254 9634
00000090: da94 b034 a1bc f234 1761 c734 1ebd d734
000000a0: 97c6 0c35 6616 e334 1750 8637 754f 1838
000000b0: 4144 9f37 ac87 2a34 bae6 bc33 b114 8933
000000c0: b5a2 9533 e3c4 7933 8b87 5d33 3d74 4c33
000000d0: 1d63 7332 3d05 4c32 f504 4937 a6a9 0a36
000000e0: f4e9 b736 f702 ea35 db29 0636 de58 b035
000000f0: c4bd 8a36 13ed 1536 db9f ef35 46e5 2636
00000100: 6a7e a635 8714 9f35 87ba e335 1e20 2136
00000110: c6e3 6735 c41d c135 999f 5136 5104 f935
00000120: 210c 8436 e69d df36 a27d 7234 267a 8d34
00000130: 4315 d635 1d3e 4035 aed5 3236 c8f9 8f35
00000140: 9830 e435 20a7 3435 04b4 b233 66ae 3634
00000150: c989 0834 7c5e 7338 0c86 5037 5da8 d536
00000160: 96b7 4537 9116 a437 06cd 5737 219d d036
00000170: 152b c236 09d9 d436 5478 8039 5478 8039
00000180: 5478 8039 5bb5 f037 474c 2d3a 0efb 4539
00000190: d773 c439 6610 1239 c97f 5939 a697 a438
000001a0: 93fd ed32 2d32 6438 d204 8535 7781 8b34
000001b0: bcc1 4d37 03bb 4334 0000 0000 b506 8636
000001c0: a335 9a36 b9df 6336 2d2f 1436 e70f a635
000001d0: b2df 1635 603a e634 27b4 0835 0607 8f35
000001e0: 7dac 4436 e3f1 bd35 7fba 0a35 06e8 d234
000001f0: 2b9f 2935 5dcb 5c35 fcdb 3d35 a994 cf34
00000200: 05d1 6235 6abc b135 a33d fd35 6071 2136
00000210: 4c0c 0c36 c3e9 4436 6a6e 8636 028a 3c36
00000220: f3d3 4e38 45e1 ce38 137e 5638 5a44 4532
00000230: f288 0031 615a fb2e aa1b db30 7dbf b231
00000240: 5a5c 0932 b9a1 e731 00c4 8533 87a5 8330
00000250: e888 3437 4975 2336 8b84 de36 b4fe 0237
00000260: 3d5a 5237 8b69 2737 393b 1937 eeef fc36
00000270: 35d3 6736 37ab 1037 06b2 1b37 e652 8836
00000280: ba4e a036 d27c 4237 b998 e935 8bac a237
00000290: aef7 f136 7617 4236 d76c 6236 e70b 9936
000002a0: a736 cc35 e2ac b335 9a7e ac36 10c5 5436
000002b0: d32c 5636 2fed 4536 1f2c 7b36 5a75 9236
000002c0: b95a 0136 67e8 0137 5320 8936 70ef 0e39
000002d0: 25c5 7d38 c35a 7b37 0649 db37 5e16 ad37
000002e0: f116 2b38 9cc0 d737 05b1 da37 11d7 0838
000002f0: 104a c639 104a c639 104a c639 b923 9737
00000300: 9d3e 3837 5fe6 5d39 0f8f 6a39 22b0 2f39
00000310: 21db 8d39 ec65 fd38 1230 f032 ac96 8638
00000320: 45c9 bf35 cd10 2f34 d2de f736 d518 c033
00000330: 0000 0000 a2ab aa36 a137 b836 8d83 a936
00000340: 2bfb 4c36 8a6c 0336 5c47 bc35 466e 8c35
00000350: bdd0 1b35 0647 7535 46ef 5436 e8b8 ee35
00000360: 56ce 2835 b53c 1835 5cf4 5435 5bbe 8435
00000370: 493b 7835 72d1 0535 c172 6d35 0285 ad35
00000380: 5aae 0f36 82ac 3136 45bd 2036 67d1 4b36
00000390: b5d0 9136 100d 4f36 b366 ba38 e7b6 fa38
000003a0: d09d 5a38 b889 8833 d0b2 0032 e8da e730
000003b0: 3aae b931 9678 f831 829a 9333 ff87 0c34
000003c0: 3da1 8733 8085 672f dc44 1537 7f33 3d36
000003d0: 529c 1137 c769 0337 25b9 8c37 6f04 1b37
000003e0: 3295 3037 26f6 2037 0d51 a636 8585 0737
000003f0: 5e79 d736 a685 d236 3cd1 ff36 188c 8337
9.609587e-05 9.609587e-05 9.609587e-05 1.6634054e-05 0.00036175468 4.992243e-05 8.2295934e-05 4.5790952e-05
7.32806e-05 2.6443238e-05 2.9712313e-08 1.6288568e-05 8.968797e-07 7.176202e-08 5.757533e-06 1.9001098e-08
0.0 1.3019837e-06 1.6637557e-06 2.1475157e-06 2.2454653e-06 1.5659238e-06 9.993158e-07 4.325833e-07
4.3484576e-07 3.671123e-07 6.7441937e-07 3.995281e-07 1.1535667e-07 9.975587e-08 1.3530595e-07 2.0057205e-07
2.6062833e-07 1.3927074e-07 2.4455287e-07 2.8001074e-07 3.2890858e-07 4.5213258e-07 3.713728e-07 4.0184472e-07
5.244305e-07 4.2298342e-07 1.601134e-05 3.6313624e-05 1.898606e-05 1.5881841e-07 8.796401e-08 6.3833234e-08
6.9679494e-08 5.8153898e-08 5.1578848e-08 4.760317e-08 1.4166997e-08 1.1875554e-08 1.1981688e-05 2.066235e-06
5.4810607e-06 1.7435221e-06 1.999192e-06 1.3138886e-06 4.134812e-06 2.2340726e-06 1.7853412e-06 2.4869382e-06
1.2404755e-06 1.1852397e-06 1.6967105e-06 2.4009564e-06 8.638566e-07 1.4388283e-06 3.1236325e-06 1.8553202e-06
3.9353185e-06 6.6642997e-06 2.2583711e-07 2.635217e-07 1.595043e-06 7.161596e-07 2.6648445e-06 1.0727026e-06
1.7001466e-06 6.7298424e-07 8.3215156e-08 1.7013517e-07 1.2716113e-07 5.802371e-05 1.2428976e-05 6.3674947e-06
1.1784859e-05 1.9560832e-05 1.2862734e-05 6.2171753e-06 5.786666e-06 6.3433586e-06 0.00024503714 0.00024503714
0.00024503714 2.869468e-05 0.00066107925 0.00018880909 0.0003747034 0.00013929754 0.00020742336 7.848376e-05
2.7705743e-08 5.4406166e-05 9.910675e-07 2.5984966e-07 1.22640595e-05 1.8228825e-07 0.0 3.994292e-06
4.595802e-06 3.395586e-06 2.2081178e-06 1.2372592e-06 5.6204874e-07 4.2883312e-07 5.0926104e-07 1.0656374e-06
2.9306677e-06 1.4151996e-06 5.1680394e-07 3.9284367e-07 6.3189026e-07 8.225232e-07 7.0728106e-07 3.866492e-07
8.4495724e-07 1.3242363e-06 1.8867908e-06 2.4056862e-06 2.0868783e-06 2.9342343e-06 4.006365e-06 2.8094514e-06
4.931162e-05 9.864805e-05 5.113899e-05 1.14824505e-08 1.8704296e-09 1.1430213e-10 1.594221e-09 5.2022515e-09
7.995448e-09 6.7413706e-09 6.228947e-08 9.57855e-10 1.0760712e-05 2.4357162e-06 6.6315456e-06 7.8079065e-06
1.2537986e-05 9.978549e-06 9.1332995e-06 7.5381167e-06 3.454462e-06 8.622933e-06 9.280169e-06 4.0627665e-06
4.7775366e-06 1.1592363e-05 1.7404301e-06 1.9392251e-05 7.2111934e-06 2.8921909e-06 3.3739977e-06 4.561141e-06
1.521509e-06 1.3386855e-06 5.140738e-06 3.1705167e-06 3.1914576e-06 2.9493347e-06 3.7427596e-06 4.3648006e-06
1.9275305e-06 7.74311e-06 4.086681e-06 0.00013631373 6.0503506e-05 1.4981898e-05 2.6140839e-05 2.0633623e-05
4.0790943e-05 2.5719688e-05 2.6070056e-05 3.2625223e-05 0.00037820684 0.00037820684 0.00037820684 1.8017237e-05
1.0981833e-05 0.00021162022 0.00022369272 0.00016754915 0.0002705688 0.000120829645 2.7961537e-08 6.417683e-05
1.4289186e-06 1.6304257e-07 7.3871133e-06 8.9452136e-08 0.0 5.0863755e-06 5.4901034e-06 5.051907e-06
3.0544568e-06 1.95837e-06 1.402786e-06 1.0462907e-06 5.8045754e-07 9.1372965e-07 3.1729737e-06 1.7786197e-06
6.2885135e-07 5.6712753e-07 7.9331744e-07 9.890167e-07 9.247347e-07 4.9851144e-07 8.845637e-07 1.2928215e-06
2.1410146e-06 2.6475468e-06 2.3952027e-06 3.0371245e-06 4.3456334e-06 3.0853007e-06 8.8883e-05 0.00011954997
5.2122225e-05 6.3580444e-08 7.491238e-09 1.6869679e-09 5.404016e-09 7.231459e-09 6.873326e-08 1.3087991e-07
6.3157565e-08 2.1056756e-10 8.897125e-06 2.819317e-06 8.67907e-06 7.832837e-06 1.6775515e-05 9.239752e-06
1.0525155e-05 9.594054e-06 4.956621e-06 8.0777145e-06 6.4216283e-06 6.2740464e-06 7.6239503e-06 1.5681653e-05

exp_avg f4 [20]
00000000: e8e1 3937 c40e 7639 6e23 e438 ff3c 263a
00000010: 61e9 d039 2058 cd37 143d e739 2a70 3338
00000020: 9aa1 7a3a 8565 3c39 a8a0 043a 9eae 89b9
00000030: 12c0 6539 3621 c03b 5ab5 993a 2541 a539
00000040: 8d75 4fb9 320a 033b 7857 3838 ee0c c737
1.1079457e-05 0.00023465889 0.000108784865 0.00063414866 0.00039846732 2.447894e-05 0.0004410526 4.2781387e-05
0.00095608237 0.00017966896 0.000505934 -0.00026260776 0.00021910694 0.005863334 0.0011727021 0.0003151979
-0.0001978485 0.001999509 4.395048e-05 2.372867e-05

exp_avg_sq f4 [20]
00000000: 31b4 9538 90e7 5039 7a2d 8939 3ca9 2b3a
00000010: c79b 1f3a 3ac2 4039 bc2b 163a b562 5639
00000020: a936 8238 887f 4939 e415 a939 74a5 533a
00000030: 8d7d 2d39 762a b639 6fd7 9337 6645 aa39
00000040: b131 303a a592 a037 77a1 1339 421a f939
7.138437e-05 0.0001992269 0.0002616456 0.000654835 0.0006088581 0.00018382902 0.0005728563 0.00020445402
6.209064e-05 0.00019216363 0.00032250502 0.00080736657 0.00016545337 0.0003474538 1.7624085e-05 0.00032476633
0.0006721272 1.9141773e-05 0.00014079163 0.00047512545

exp_avg f4 [1, 20]
00000000: 5748 d03a d3ed 3abc 5a49 2dbb f3fc 0dbd
00000010: d1c0 10bd 79d3 81bb ef63 0bbd 90f7 a8bb
00000020: 1da1 5abc 7f42 22bb 378a e7bb 02d3 18bd
00000030: e656 1ebc f47f dbbc 9004 123c e66b 8abb
00000040: b864 71bc 9c19 0cbd f9c9 18bc 8ca4 0bbc
0.00158907 -0.011409241 -0.0026441426 -0.03466506 -0.035340134 -0.003961977 -0.03403085 -0.005156465
-0.013344076 -0.0024758873 -0.007066037 -0.037310608 -0.009664273 -0.026794411 0.008912221 -0.0042242883
-0.014733486 -0.03420411 -0.009325498 -0.008523118

exp_avg_sq f4 [1, 20]
00000000: 6734 3a3c 5610 9b3c 8737 133d e1f5 773d
00000010: 6ff5 6d3d 25a0 e73c 634f 7a3d 5918 ff3c
00000020: 86ac 773c 40df e23c 931f 903c 8909 813d
00000030: fb3c 983c 3590 e23c 2d3f f73b 903f d23c
00000040: ce0f 623d 9d3d 413c 2b4b c63c e16a 393d
0.011365033 0.018928688 0.035941627 0.060537223 0.05809539 0.028274605 0.061110865 0.03113954
0.015116816 0.027694345 0.01759318 0.06300647 0.018583765 0.027656654 0.007545373 0.025665075
0.055190854 0.011794475 0.024205765 0.045267943
