notebooks/lightning_logs/version_141/checkpoints/epoch=3-step=1015.ckpt (torch, 10127 bytes, 3 tensors)

fc1.weight f4 [20, 94]
000000 07 03 db bd 32 4f cc bc e9 b4 79 bd 8f e2 18 bd
       -0.10693937 -0.024940107 -0.060963545 -0.037325438
000010 35 b7 a4 3d 10 e5 b4 bd fb 1c c7 bd 5e 20 43 3b
       0.080427565 -0.08832753 -0.097223245 0.002977393
000020 11 f2 ab 3c 6d 6a 08 3d 0a 30 cb bd 10 85 98 3c
       0.02098945 0.03330462 -0.09921272 0.018618137
000030 62 13 ac bc d8 50 cf bd eb 1d be 3d 91 fb 45 bd
       -0.021005336 -0.101228416 0.0928305 -0.048335616
000040 cd 33 b7 bd f6 ed 5c 3a a8 05 65 bb a1 09 50 bd
       -0.08945427 0.0008427793 -0.0034945998 -0.050790433
000050 71 40 20 3d d3 96 ae 3d f6 aa 11 bc 94 95 ae 3d
       0.039123956 0.08524861 -0.008890858 0.085246235
000060 49 47 1c 3d 1d 57 bb 3d 81 81 2c 3d a6 ee c9 3c
       0.03815392 0.09147475 0.042115692 0.02464993
000070 e4 dd e9 bc d0 5c 8a bc 87 98 a4 3c cd c2 d6 3b
       -0.028548189 -0.01688996 0.020092262 0.006553984
000080 1f f7 9d 3d 39 5c cb bd 24 d5 05 bd 0d 8c d2 bd
       0.0771315 -0.099296995 -0.03267397 -0.10280619
000090 bd aa 2c 3d ad 8f b6 bd f6 dc 4b 3d 63 69 cf 3d
       0.042155016 -0.08914123 0.04977127 0.10127523
0000a0 62 2b 89 bd d1 74 d3 3c 07 0c 8e 3d 32 6e 0d bb
       -0.06697728 0.025812538 0.06935888 -0.0021580574
0000b0 7f de d9 3d 44 30 21 3d 0e ee 8d bd 7f 77 76 bd
       0.10638141 0.03935267 -0.06930171 -0.060172554
0000c0 d5 9f ca bd 04 ee f6 bc 2b 84 91 bd 8e 65 32 3d
       -0.09893767 -0.030142792 -0.07105287 0.04355388
0000d0 a3 30 7b 3c 8b 9d 0a 3d f6 34 3f bd b1 eb 4b 3d
       0.01533142 0.03384165 -0.046681367 0.04978532
0000e0 3f 16 41 bd 6e 50 16 3a ce 1d 92 3d ff 73 9c 3c
       -0.047140356 0.0005734031 0.07134591 0.01909828
0000f0 99 e4 af bd 4f 3b 97 3d b1 fc 4a bd 68 af 43 3d
       -0.085885234 0.07384359 -0.04955739 0.047774702
000100 89 b7 13 3d 1c f5 d6 bc bc 68 3c 3c 82 c3 8a bb
       0.036063705 -0.026239924 0.01149958 -0.004234732
000110 15 ea a0 3d e3 b6 bd 3d 8a e4 ac bc ae 7b ad 3b
       0.078571476 0.092633985 -0.02110507 0.005294285
000120 9b 49 24 3d a8 9d 06 bd f0 82 6d bd c0 f3 81 bd
       0.04010926 -0.032865196 -0.0579862 -0.0634532
000130 f0 2e fd 3c fc b3 84 bd 58 1b 59 bd ce 4f 53 3d
       0.03090617 -0.06479642 -0.053004593 0.05158978
000140 64 49 0e 3b d3 39 c1 bd 2c d3 99 bd f9 4b af 3d
       0.0021711225 -0.09434857 -0.07510981 0.085594125
000150 90 0f 38 bd 8b 77 05 3d e8 a2 60 3d a0 8a 80 3d
       -0.044936717 0.03258471 0.05484286 0.062764406
000160 09 d8 bd 3c 79 05 9c bd cc c2 f8 bc 2c 0b 83 bc
       0.023174303 -0.07618231 -0.030366324 -0.015996538
000170 a6 d9 12 bd 70 2f 56 bd fd 18 21 3e 32 ab 01 3e
       -0.035852097 -0.052291334 0.15732189 0.12662962
000180 4b 92 96 3b 3a 61 5b 3d 32 78 d5 bd 8a df 6a bc
       0.004595076 0.05355952 -0.10423316 -0.014335522
000190 18 3c ac bd 00 c5 c0 3d 72 dd aa bd 16 c8 f1 bd
       -0.084098995 0.09412575 -0.083430186 -0.118057415
0001a0 3c 78 8a bd 69 a6 44 bd 02 9b 7d bc 1e 95 b8 3d
       -0.06761214 -0.048010264 -0.015478851 0.09012817
0001b0 00 53 1b 3d c2 97 05 3d a2 02 22 bd 04 fd 46 bd
       0.03792095 0.03261543 -0.039553292 -0.04858114
0001c0 76 1a be bd 86 51 56 bd 3f 56 04 bd 87 79 f2 bd
       -0.09282391 -0.05232384 -0.032308813 -0.11839586
0001d0 06 6b 38 be c1 31 b2 3c 06 f8 8a bc 7a ba a2 bb
       -0.18009576 0.02175224 -0.01696397 -0.0049660774
0001e0 e4 e4 36 bd cc c6 d4 3c 3d 37 c6 3d 6e ad f3 39
       -0.04465188 0.0259737 0.096785046 0.00046477787
0001f0 98 fe b8 bd ec 98 9b bd 28 27 be bc b3 eb 58 bd
       -0.09032935 -0.07597527 -0.02321203 -0.052959155
000200 0b fe fe 3d 1e f6 a2 3d 28 06 d9 3d d1 a6 81 3d
       0.124507986 0.079570994 0.10596877 0.06330646
000210 a0 0f 0a bd ec 60 70 3d 92 fe b0 3d d4 85 bb 3d
       -0.033706307 0.058686182 0.086423054 0.09156385
000220 58 ce d5 3d b3 04 63 3d 80 5d 28 bd 62 b1 b0 bd
       0.104397476 0.055424403 -0.041104794 -0.08627583
000230 96 ce ce bd 8e c0 87 bc 2b b6 93 3d 21 da bb bd
       -0.10097997 -0.01657131 0.0721248 -0.09172464
000240 70 bb 99 3b d1 d7 43 3d 36 c1 a2 3d 95 fc cc 3c
       0.0046915337 0.04781324 0.07947008 0.025022784
000250 f1 fb 90 bd 19 d5 f1 bc a7 1d 36 bd 63 34 12 3c
       -0.07079304 -0.029520558 -0.044461872 0.008923623
000260 4e 51 c8 3d 0a d5 7d bd 05 af b8 bd f9 57 02 bb
       0.09781133 -0.061970748 -0.09017757 -0.0019888862
000270 c2 ef ab bd c3 c5 91 bc 91 cf 7a bd 0d 05 52 bd
       -0.083953395 -0.017794495 -0.061233107 -0.051274348
000280 31 a4 9f bd d1 31 83 3d 8a fa 1c 3b 6b 9f 93 bd
       -0.07794989 0.06405986 0.0023953044 -0.07208141
000290 41 08 c8 bd 7f 03 94 3d 37 b5 4c bd dc b4 93 bd
       -0.09767199 0.07227229 -0.049977507 -0.072122306
0002a0 63 c7 84 bd c3 a6 6a bc bc 5c cf 3d 78 50 b1 3d
       -0.064833425 -0.014321986 0.101251096 0.08657926
0002b0 5b 1b 25 3c f5 5f 52 3b 8a fd 61 3d 0c 1b 2b 3c
       0.010077323 0.0032100652 0.055173434 0.01044346
0002c0 1e d0 a5 bd 14 84 ac bc f0 be df 3d cf a8 85 3c
       -0.08096336 -0.021059074 0.1092509 0.016315846
0002d0 ce f1 69 3d ee 60 08 3c bb c5 86 bd 97 ce 90 3d
       0.05711537 0.008323891 -0.06580683 0.07070654
0002e0 20 1b b0 ba 06 2b 0c 3e 80 47 b5 3d c0 5e 08 be
       -0.0013435818 0.13688287 0.08851528 -0.13317394
0002f0 9f ac 2f 3d 2b 82 01 bc 61 45 02 3d b7 89 66 bc
       0.042889234 -0.00790457 0.031804446 -0.01407092
000300 1b a2 58 bd a7 d3 7a bd 89 93 11 bd 8f 4e b9 3d
       -0.05288897 -0.061237004 -0.03554109 0.09048187
000310 f6 a9 b3 bd f0 74 65 3d 02 dc 30 3d 03 87 14 3d
       -0.08772652 0.056019723 0.043178566 0.03626157
000320 af d7 a0 bd 5e 30 aa 3d 6c d1 25 3d a0 ce 1f 3d
       -0.078536384 0.083100066 0.040482923 0.039015412
000330 a0 67 6a 3c f5 8d 44 bc bd 6e 60 3d 42 b7 05 3d
       0.014306933 -0.011996736 0.05479311 0.03264547
000340 53 57 83 bd 6c 0f cc bd 42 ea d3 bc 00 e0 dd bb
       -0.0641314 -0.09963879 -0.025868539 -0.0067710876
000350 61 d7 e7 bd 84 60 a6 3d 4f 31 a6 bd 04 7e 98 3d
       -0.11320377 0.08123878 -0.081148736 0.074459106
000360 c5 74 2c 3d 6c 3b c5 3c c4 92 99 bd e3 04 11 3c
       0.042103548 0.024076186 -0.074986964 0.008851263
000370 10 74 37 3d 4f 16 9a 3d 58 f1 bc bd 39 66 ec bc
       0.04478842 0.07523786 -0.0922572 -0.028857337
000380 b1 64 84 3d ae 47 9e 3d de 8d 8f 3d a8 ca a9 bd
       0.06464518 0.077285156 0.07009481 -0.08290607
000390 9b a7 c3 3d e4 64 9c 3d 04 a2 7e 3d a4 8e ef b9
       0.095534526 0.07636431 0.06216623 -0.00045691908
0003a0 2b aa 91 bd 6a 76 1e 3d b0 7b 99 3d 90 f1 81 3d
       -0.07112535 0.038687147 0.07494295 0.063449025
0003b0 60 95 af 3d fc 34 16 bd 91 54 61 bd b8 bc b6 3d
       0.08573413 -0.036671624 -0.05501229 0.08922714
0003c0 ee d3 1d 3d 95 d2 96 bd 9e af 8e 3d 3b 3e bf 3c
       0.03853219 -0.07364384 0.0696709 0.023345103
0003d0 e2 bd 70 bc 3c 1d 0d bd c5 93 6e bd 35 8a c0 bd
       -0.014693709 -0.03445171 -0.058246393 -0.09401361
0003e0 5d 76 d1 3d 61 b6 2c 3d 12 46 c8 3d ba 22 ab 3c
       0.10227654 0.042166118 0.0977899 0.020890582
0003f0 a7 63 4e bd f6 71 17 bd 13 90 c7 bb ac 12 a4 bd
       -0.050388005 -0.036973916 -0.006090173 -0.08011374

fc1.bias f4 [20]
000000 74 e7 ad 3d dd d1 3d 3d e4 3a cf bd af b0 68 bb
       0.08491412 0.04634272 -0.10118654 -0.0035505702
000010 c4 3d d7 bb f5 fd ed 3c f3 cc 68 3d 47 0b 82 3d
       -0.0065686423 0.02905176 0.05683608 0.06349807
000020 d9 36 a8 bd 31 42 9e bd f7 f6 18 3d 03 7f 13 bd
       -0.08213586 -0.07727469 0.0373449 -0.0360098
000030 07 8d 42 bd 18 cb f0 bd 6a 7e 34 3c 7e 9c 51 bd
       -0.047497775 -0.11757487 0.011016468 -0.051174633
000040 90 86 90 bd 9d 2b ae bc f4 e7 11 3c c2 16 9a bd
       -0.07056916 -0.02126103 0.0089054 -0.07523872

fc2.weight f4 [1, 20]
000000 4f 35 8c be 3f ba 67 3e 66 18 00 3c 5d 76 21 3e
       -0.2738442 0.22629641 0.007818317 0.15767808
000010 04 b9 8d 3d 43 e6 3a 3e f8 cd 8a be 6e 00 7c 3d
       0.069200546 0.182519 -0.27110267 0.061523847
000020 8a d4 84 be 1b 8b e1 3d e2 a8 41 bd 56 fc 3b bd
       -0.25943404 0.110128604 -0.0472802 -0.045894943
000030 39 d1 2f be 96 66 cb 3e c5 0f ae be 6a d9 66 be
       -0.17169656 0.39726704 -0.33996406 -0.22543874
000040 6d 88 a0 bd 49 01 d6 be 63 a7 01 3f b8 75 1d 3c
       -0.07838521 -0.41797855 0.50646037 0.009610586
