notebooks/lightning_logs/version_133/checkpoints/epoch=4-step=1269.ckpt (torch, 10127 bytes, 3 tensors)

fc1.weight f4 [20, 94]
0	0x3de36918	0.111040294
1	0xbc8e2e0b	-0.01735594
2	0xbcb77889	-0.022396343
3	0x3d2b1d0c	0.041775748
4	0xbd8c740b	-0.06858071
5	0xbd54ff93	-0.052001547
6	0xbd57d388	-0.052691966
7	0xbd3fdb14	-0.04683979
8	0xbd47ba44	-0.04876162
9	0x3cda882a	0.026676256
10	0x3d98ce57	0.07461231
11	0xbdba406f	-0.09094321
12	0x3d09f37e	0.033679478
13	0x3dafb65f	0.085797064
14	0xbd2f8a21	-0.04285634
15	0xbcafa41c	-0.021440558
16	0x3dc1e404	0.09467319
17	0x3d80141e	0.06253837
18	0xbc859c4b	-0.016309878
19	0xbdebd9f1	-0.115161784
20	0xbb6d9d76	-0.0036257184
21	0xbe02e656	-0.12783179
22	0xbe2bcfb0	-0.16778445
23	0xbdeb5309	-0.11490447
24	0xbcebe31b	-0.028794816
25	0x3ce6527a	0.0281155
26	0xbd4dee3f	-0.050276037
27	0xbd7f412e	-0.06231802
28	0x3cbee636	0.023303133
29	0x3c8bca63	0.017064279
30	0xbd4e916e	-0.05043166
31	0xbd7f9373	-0.062396478
32	0xbd6ceada	-0.05784116
33	0xbd3962af	-0.045260128
34	0x3de17e7d	0.11010454
35	0x3ddd6fad	0.10812316
36	0x3d3adc42	0.04562021
37	0x3ca79de1	0.020461025
38	0xbc3527bc	-0.011056837
39	0x3d75cd9c	0.060010538
40	0x3db5a45b	0.08869239
41	0xbc6f37c5	-0.014600699
42	0x3e3566a9	0.17714943
43	0x3cb93f79	0.022613274
44	0xbe7e31d3	-0.24823694
45	0xbd66f426	-0.05638518
46	0x3db2523d	0.08707092
47	0x3cf6fb1e	0.030149039
48	0xbcdad725	-0.026713917
49	0xbcaae583	-0.020861393
50	0x3bbfc1dd	0.0058519677
51	0xbd8fe981	-0.07026959
52	0xbc8f9451	-0.017526777
53	0x3d8776c5	0.0661445
54	0xbcb52738	-0.022113428
55	0x3dc5d069	0.09658892
56	0x3cbdf270	0.023186892
57	0x3d5f4d97	0.054517355
58	0x3d1fee0b	0.039045375
59	0xbd833b34	-0.064077765
60	0x3d3304c7	0.043705728
61	0x3d040fe5	0.03224172
62	0xbd45f765	-0.048331637
63	0xbcd121ef	-0.025528876
64	0x3d40de9c	0.047087297
65	0x3d81c8df	0.06337141
66	0xbd505df8	-0.050870866
67	0xbd0fb79c	-0.035087213
68	0x3c42a5e8	0.011880375
69	0xbda53250	-0.08066237
70	0xbc463034	-0.012096453
71	0x3d044b8a	0.032298602
72	0xbdb90342	-0.090338245
73	0x3d10c103	0.03534032
74	0xbdb824cc	-0.089913934
75	0x3b996c86	0.0046821265
76	0xbd61f866	-0.05516853
77	0xbd89da25	-0.06731061
78	0xbd0a1d74	-0.033719495
79	0xbb370a8c	-0.002792987
80	0x3da18267	0.078862004
81	0xbd11a7bc	-0.035560355
82	0x3d748acc	0.05970268
83	0xbbb86416	-0.0056271655
84	0x3d91c20f	0.07117092
85	0xbb76fad9	-0.0037686138
86	0xbdc33b4c	-0.09532794
87	0xbe0b6f1b	-0.13616602
88	0x3c3c95d0	0.011510327
89	0xbce28fab	-0.027656397
90	0xbd09e90d	-0.03366952
91	0x3df03cf6	0.117303774
92	0x3dd7878e	0.10523902
93	0x3d40ccb3	0.047070216
94	0x3d61c9e1	0.055124167
95	0x3e10c309	0.141369
96	0x3cfae0ba	0.030624736
97	0xbca9b921	-0.02071816
98	0xbdcd100c	-0.10012826
99	0xbce8b55a	-0.028406788
100	0xbd6c243b	-0.05765174
101	0xbc9b005b	-0.018921068
102	0xbe3e927a	-0.18610564
103	0xbdcced84	-0.1000624
104	0x3ca1c657	0.019747896
105	0xbdc7a5cb	-0.097484194
106	0x3c18cf88	0.009326823
107	0x3c59f763	0.0133036105
108	0xbd31e5bf	-0.043431994
109	0x3cc19213	0.023629224
110	0x3d069980	0.032861233
111	0xbdae3713	-0.08506598
112	0xbdd80df4	-0.10549536
113	0xbb922e9d	-0.004461123
114	0xbe09800e	-0.13427755
115	0xbdb9f15d	-0.090792395
116	0xbe3326b2	-0.1749523
117	0xbe5a7b2d	-0.2133605
118	0xbce31eb6	-0.027724605
119	0xbd5a8178	-0.053346127
120	0x3d91f4cd	0.0712677
121	0xbba0ac69	-0.0049033654
122	0xbd246b3a	-0.04014132
123	0xbd4c5f2b	-0.049895447
124	0x3cb33272	0.02187464
125	0x3de38d57	0.11110943
126	0x3dfbb985	0.122912444
127	0x3e08538f	0.13313125
128	0x3c408884	0.011751298
129	0x3c69847f	0.014252781
130	0x3dead980	0.11467266
131	0x3b039269	0.002007628
132	0x3df40af6	0.11916153
133	0x3dd53496	0.104104206
134	0x3dbe4fc2	0.09292556
135	0x3da6db1f	0.08147263
136	0x3dcfb198	0.10141295
137	0xbd41d025	-0.047317643
138	0xbe441504	-0.19148642
139	0x3c1365d6	0.008996448
140	0x3ce2220d	0.027604127
141	0x3cc80e0a	0.024420757
142	0x3dadb0e1	0.084810026
143	0x3dbd99f2	0.09257878
144	0xbd8ec8ab	-0.06971868
145	0xbd2cd4bc	-0.042195067
146	0x3d85681b	0.06513997
147	0xbcf0e043	-0.029403811
148	0x3bf9ca95	0.0076230266
149	0xbdce6428	-0.10077697
150	0x3c7722c8	0.015083976
151	0xbda5b036	-0.0809025
152	0x3c7c723a	0.015408093
153	0x3d4d005e	0.05004918
154	0x3c4b50b4	0.012409378
155	0x3d28ffb5	0.041259486
156	0xbd9435fa	-0.07236858
157	0xbc270b30	-0.010195538
158	0xbd81c8f1	-0.06337155
159	0x3bacf8ff	0.005278706
160	0xba9d085b	-0.001198064
161	0x3b23600f	0.0024929082
162	0xbbbcfaf6	-0.0057672216
163	0xbd8c2cca	-0.0684448
164	0xbd2b4006	-0.041809104
165	0xbcfd3e30	-0.030913442
166	0xbd8eed40	-0.069788456
167	0x3d876e21	0.06612802
168	0xbd539860	-0.051658988
169	0xbc0fcf62	-0.008777471
170	0xbba33121	-0.004980222
171	0x3d420fe2	0.04737843
172	0xbdc1be57	-0.094601326
173	0x3d10b49c	0.035328493
174	0x3d940ed1	0.072293885
175	0x3d6ee15f	0.0583204
176	0xbd4538f2	-0.04815001
177	0xbc5b2b75	-0.01337706
178	0x3dde2c3b	0.1084828
179	0xbd9f62da	-0.07782526
180	0x3c8fe24a	0.017563958
181	0xbbe9bf8b	-0.0071334294
182	0xbd94a627	-0.072582535
183	0xbd22e0f1	-0.039765302
184	0xbc867106	-0.016411316
185	0x3d9771fd	0.073947884
186	0x3dd0b71e	0.10191177
187	0xbda92abf	-0.08260106
188	0x3d6cf7b4	0.057853416
189	0xbd31b94c	-0.043389603
190	0x3df69a39	0.120411344
191	0xbcfeab10	-0.031087428
192	0x3da64dfc	0.08120343
193	0x3d51afb0	0.05119294
194	0xbc54515d	-0.012958852
195	0x3debf1e8	0.11520749
196	0xbe16f8ff	-0.14743422
197	0xbc8c038e	-0.017091539
198	0xbdcff4bd	-0.10154102
199	0x3c90f123	0.017693108
200	0xbd4a063e	-0.04932236
201	0x3d9b63bc	0.07587382
202	0x3cabdeaf	0.020980207
203	0xbdaa382d	-0.08311496
204	0xbce2bddc	-0.027678423
205	0x3cd36b68	0.025808051
206	0x3d01dff1	0.031707708
207	0xbdbdac42	-0.09261371
208	0xbdbe281c	-0.09284994
209	0xbe06e120	-0.13171816
210	0xbcd89a26	-0.026440691
211	0x3b0cc283	0.0021478243
212	0x3a64a2c8	0.0008721766
213	0xba344990	-0.0006877417
214	0x3da733b4	0.081641585
215	0x3d905711	0.070478566
216	0x3d8cd753	0.06877007
217	0x3d4ad2ba	0.04951737
218	0xbba34f81	-0.004983843
219	0xbacec29f	-0.0015774554
220	0xbd6f5276	-0.05842825
221	0x3ce42b4f	0.027852682
222	0xbc98a308	-0.018632427
223	0x3df187e3	0.117934965
224	0x3d4885cf	0.048955735
225	0x3dfd2800	0.12361145
226	0x3d376a93	0.04477937
227	0x3df8c6ee	0.12147318
228	0x3cc60bc7	0.024175538
229	0xbda2174d	-0.079146005
230	0x3e02b1e9	0.1276318
231	0x3d827286	0.063695
232	0xbdefe368	-0.11713296
233	0x3d50465b	0.050848346
234	0x3d50c7fd	0.050971974
235	0x3cc720ce	0.024307635
236	0xbd222f5e	-0.039595954
237	0xbcdf0261	-0.027222814
238	0xbcd73c48	-0.026273862
239	0x3ac4f6da	0.0015027181
240	0x3c67a00c	0.014137279
241	0x3d74ac5e	0.059734695
242	0x3db9b225	0.090671815
243	0x3d74402e	0.05963152
244	0xbd20cbfe	-0.039257042
245	0x3d9fd387	0.078040175
246	0x3d13da71	0.036096994
247	0xbdb85b58	-0.090017974
248	0x3db6cd3b	0.08925863
249	0x3d6857c4	0.056724325
250	0x3d9e7d55	0.07738749
251	0xbd849ad5	-0.06474844
252	0x3dbb323e	0.09140442
253	0x3c89da48	0.016827717
254	0xbda6385e	-0.0811622
255	0xbd4190b7	-0.04725715

fc1.bias f4 [20]
0	0xbc2475dc	-0.0100378655
1	0xbd2c760f	-0.042104777
2	0xbd822f28	-0.063566506
3	0xbd918c60	-0.071068525
4	0xbc2bb307	-0.010479695
5	0xbd6fc3df	-0.058536407
6	0xbd449bc3	-0.04800011
7	0xbda2903c	-0.07937667
8	0xbdcf7d30	-0.101312995
9	0xbd69c37d	-0.057071198
10	0xbd67b540	-0.056569338
11	0xbdab30ab	-0.08358892
12	0xbdaa9b7b	-0.08330437
13	0xbbb7a071	-0.005603843
14	0xbd50ca33	-0.050974082
15	0xbde898a8	-0.11357242
16	0xbdcfb35d	-0.10141633
17	0xbce4ae4e	-0.027915146
18	0xbdb96b0b	-0.0905362
19	0x3d3eb343	0.046557676

fc2.weight f4 [1, 20]
0	0x3e93ebb5	0.28890768
1	0x3eb65600	0.35612488
2	0x3e2c2952	0.16812637
3	0xbe545532	-0.20735624
4	0xbe2e257d	-0.17006488
5	0xbddac519	-0.10682125
6	0xbeb34747	-0.35015318
7	0xbe6334bd	-0.22188087
8	0x3e41db33	0.18931274
9	0x3dd0ce54	0.10195604
10	0xbe5473fc	-0.2074737
11	0x3e629dbb	0.22130482
12	0xbca4483d	-0.020053977
13	0x3d3ee3f3	0.046604108
14	0x3edcb644	0.43107808
15	0xbdba3720	-0.090925455
16	0x3ebfa30f	0.3742909
17	0xbdaeaf52	-0.085295334
18	0x3eda9580	0.42692184
19	0xbf225793	-0.6341488
