notebooks/lightning_logs/version_99/checkpoints/epoch=14-step=3809.ckpt (torch, 10127 bytes, 3 tensors)

fc1.weight f4 [20, 94]
000000 e1 da bc 3d 0b 0a ca 3c c0 d6 6b 3d ce 51 9c 3d
       0.09221435 0.024662992 0.05757785 0.076327905
000010 64 57 a4 3d ae db 26 bd 60 ed ee bd de 0a 35 3d
       0.08024481 -0.040736847 -0.116663694 0.044199817
000020 2c c9 d8 3c 2a a6 f4 bd d1 c8 cf 3d 5e bd a6 bc
       0.026463114 -0.11945756 0.101457246 -0.02035397
000030 64 3a b5 bd 16 30 b5 3d 7d 4d a7 3d f3 41 ca bd
       -0.08849028 0.08847062 0.081690766 -0.0987586
000040 a8 fa 16 bc 97 dd ca bd e0 f6 75 3d 0a f1 a2 bd
       -0.009215035 -0.09905546 0.06004989 -0.07956131
000050 ba a7 60 bd 74 a1 fa bd e5 0d 83 bd 12 28 c9 bb
       -0.054847457 -0.12237826 -0.063991345 -0.00613881
000060 d4 c8 62 bd 4a 6c 8f bd c8 2e b2 3d 23 89 5b bd
       -0.055367306 -0.070030764 0.08700329 -0.05359758
000070 eb 15 77 3c 8f 4b d3 bd d6 8b 93 bd 99 af b2 bd
       0.015080909 -0.10317146 -0.07204406 -0.08724899
000080 1c da a3 bd b9 b8 82 3d bb 02 db bc 8a e6 5d bc
       -0.080005854 0.06382889 -0.0267347 -0.013543734
000090 e5 95 93 bb e2 b2 1c bd f1 01 00 3e ff a7 df 3d
       -0.004503953 -0.038256533 0.1250074 0.109207146
0000a0 7d 81 aa 3c cb fd 1a bd b7 e3 8c 3d 49 cc bd 3d
       0.020813698 -0.037839692 0.06879371 0.0926748
0000b0 ca 03 04 be 52 42 bb bd f7 9e 38 bd b1 8f b8 bd
       -0.1289207 -0.09143509 -0.045073476 -0.09011782
0000c0 35 18 04 3d ec 8a 95 39 64 e6 b8 bc 47 29 d7 3c
       0.032249648 0.00028523 -0.022570796 0.0262648
0000d0 29 d2 8a bd ab bb 67 bd e8 84 8d bd fc 74 81 3d
       -0.06778366 -0.05657546 -0.069101155 0.06321141
0000e0 7b d7 0b bd ef db ac bc 83 d2 7a 3d 04 95 07 bd
       -0.034141045 -0.021100966 0.061235916 -0.033101097
0000f0 89 24 8e 3d 64 dd cf bd 59 5c e5 b9 f9 ce ab 3d
       0.06940562 -0.10149649 -0.00043747088 0.08389086
000100 ec 0d 8c 3d 8a 23 8c 3c ce c5 6d 3c 86 b2 84 bd
       0.06838593 0.01710679 0.014512492 -0.06479363
000110 f6 ea c4 bd 78 0b 0a bd d9 9f 88 bd c0 86 88 bd
       -0.09615128 -0.033702344 -0.066711135 -0.066663265
000120 8a 55 a2 3d c5 53 96 bd 89 e9 a9 bc 22 73 ce bc
       0.079264715 -0.073401965 -0.020741241 -0.025201384
000130 6c 6b 3f bd a1 29 ba 3d d5 f4 b4 3d 21 a4 c4 3d
       -0.046733305 0.09089971 0.088357605 0.096016176
000140 d6 b9 b4 bd 9e 08 5e 3d 9b 17 3f 3c 32 45 5f bc
       -0.08824508 0.054207437 0.011663343 -0.013627337
000150 51 8e 3c 3d e4 b9 0b be 80 e4 dd 3c 8c 2e e5 3b
       0.04603416 -0.1364513 0.027086496 0.006994074
000160 05 38 57 3d 2d 54 17 3d 23 50 14 3d 2e cb a9 3c
       0.05254366 0.03694551 0.036209237 0.020726766
000170 41 35 4e bd fc 0d c0 bd 56 e4 78 bd 04 17 1b bd
       -0.050343756 -0.09377667 -0.060764633 -0.037863746
000180 b7 fe 95 3d 1a c7 b9 3b 18 75 f7 3d 38 98 3f bd
       0.073239736 0.0056694867 0.12082881 -0.046776026
000190 73 07 79 bd a5 99 01 3d 58 c1 7c bd 91 79 b3 3c
       -0.06079812 0.031640667 -0.061707824 0.021908553
0001a0 c9 7b ae 3c bf b0 87 bd 6f c4 0c bd b5 28 d1 bd
       0.02129926 -0.066255085 -0.03436702 -0.102128424
0001b0 9b 78 9e 3c 9d d1 3a 3d 30 3f a7 3d 4b 2d 29 bd
       0.019344619 0.04561006 0.08166349 -0.04130296
0001c0 cb 3e 22 bc 9e 4b 04 be 92 a5 5f be 60 b9 a2 be
       -0.009902666 -0.1291947 -0.21840504 -0.31782055
0001d0 fe b5 ba be 98 2f 4c be a0 4e 5b be 57 4f 1d bd
       -0.36466974 -0.1994003 -0.21416712 -0.038405742
0001e0 bc f2 53 3d 73 a5 99 3d 7c f0 98 3c a1 84 00 bd
       0.05174516 0.0750226 0.01866936 -0.031376485
0001f0 80 80 c3 3d f3 6b d1 bb ce ff aa 3d 0a d5 f9 3d
       0.09545994 -0.0063910424 0.08349572 0.12198837
000200 b8 2c d5 3d 48 26 4e 3e 2f ce 65 3e 26 3e 87 3e
       0.1040892 0.2013179 0.22441934 0.26414603
000210 fe bc 12 3e c8 66 0c 3e de c1 02 3e 42 39 f0 3d
       0.14329907 0.13711083 0.12769267 0.11729671
000220 94 ef cc 3e 3b 5c 59 3d 10 65 18 bf 62 c8 ff bd
       0.40026534 0.053066473 -0.5952921 -0.12489392
000230 fd aa 74 3d 73 58 f6 3d f2 e4 c3 3d 03 21 00 bd
       0.05973338 0.12028589 0.09565152 -0.031281482
000240 7d e6 44 3c e5 c5 18 3c 6d c3 64 3c f7 4e 12 3c
       0.012017843 0.0093245255 0.013962609 0.0089299595
000250 56 d8 b3 3d 8f b8 02 3d 9c 6b 27 bd 54 a9 ce bc
       0.08781497 0.03191429 -0.04087411 -0.025227226
000260 95 86 c6 3d 8d 97 b1 bc 9f de b6 bc 9a 8b 83 3d
       0.09693638 -0.02167871 -0.02232295 0.06423111
000270 ca f0 72 3d 0d cb ac bc 33 b0 98 bd 62 ec bc 3d
       0.059311666 -0.021092916 -0.07455482 0.09224774
000280 48 81 e2 bd d6 e1 90 bd e2 e6 86 bd 01 97 81 3c
       -0.11059815 -0.07074325 -0.06587006 0.015819075
000290 a5 d4 0b bd 57 f2 97 bc e0 fb f4 bd 2d 2e 29 3d
       -0.03413834 -0.018548174 -0.11962104 0.041303802
0002a0 08 23 8f 3d 7c 53 cb bd 9b f8 cb bd 06 f3 4b bd
       0.069891036 -0.09928033 -0.09959527 -0.049792312
0002b0 cc 99 c2 3d 3c 8e 86 bd 57 8b 76 3d d7 7e 31 3c
       0.09501991 -0.06570098 0.06019148 0.010833464
0002c0 8c a8 f3 bb 9d 76 d9 3d 7e af 7a bd 23 d7 c0 bd
       -0.007435864 0.10618327 -0.06120252 -0.09416034
0002d0 11 14 02 be d2 31 cc bd 40 06 3e bd a9 86 e0 bd
       -0.12702967 -0.0997044 -0.04639268 -0.109631844
0002e0 f9 07 41 3d 2e 6f 19 3d 12 fd 9c bd 44 fd 4c 3d
       0.047126744 0.037459545 -0.07665457 0.05004622
0002f0 cc 04 1b 3e 37 44 19 bc bd 44 10 bd f4 5d 17 3d
       0.15138549 -0.009354643 -0.035221804 0.036954835
000300 24 5b f3 bd 70 b9 fd 3c 3a 31 90 bb 42 4c 6f 3c
       -0.11882618 0.030972213 -0.0044003995 0.014605584
000310 45 f2 38 bd d0 7d fc bc cc cb c8 bd 07 7a 2e bd
       -0.04515292 -0.03082171 -0.09804496 -0.042596843
000320 d1 b0 9a 3d cd b8 0a 3c 9e 48 c6 3c 07 7d c3 bd
       0.07553256 0.0084669115 0.024204548 -0.095453314
000330 70 f2 c3 bb 10 3e ee bc 1b 2b be bd d0 1e 25 be
       -0.0059798285 -0.029082328 -0.092855655 -0.16125035
000340 d8 01 65 be cb 83 a3 be 5c 34 71 be 43 b2 c7 be
       -0.22363985 -0.31936488 -0.2355513 -0.3900319
000350 b7 e5 81 be 9b e0 db bd 52 fc 19 bc 30 b5 ce 3d
       -0.2537057 -0.107361995 -0.009398537 0.100931525
000360 55 c1 d8 bc cb 66 7e 3d 58 bc 0f 3d 75 f1 14 3d
       -0.026459375 0.06210975 0.035091728 0.036363084
000370 6b 81 df 3d 9e 48 34 3d 64 0d d7 3d 6a d9 6f 3e
       0.109133564 0.044014566 0.10500601 0.2342278
000380 ae 4c 7e 3e 31 53 95 3e 25 8e cb 3d 3f a7 04 3e
       0.24833938 0.29165033 0.09939221 0.12954424
000390 a6 a5 23 3d 34 c3 7c bb 3a 35 f0 3e b3 ef 5d 3e
       0.039952897 -0.0038568499 0.4691561 0.21673469
0003a0 04 9d 37 bf ef 8c 96 be 5a f5 eb bd 14 5b 5d bd
       -0.7172396 -0.294044 -0.115214065 -0.054041937
0003b0 05 5b 4e bd 93 28 3a bd 89 98 63 bd e9 0c a6 3c
       -0.05037977 -0.04544885 -0.05556539 0.020269828
0003c0 b0 37 85 bd 73 ae a6 3d 4a 51 46 3d ff e1 e4 bb
       -0.06504762 0.08138742 0.048417367 -0.0069849486
0003d0 32 92 f6 3d 8c 2a c8 bc 58 ba aa 3c e1 ec 15 3e
       0.12039603 -0.02443435 0.020840809 0.14641143
0003e0 85 59 a8 3d 51 fc 59 3d 34 f7 17 bd 60 90 88 bc
       0.082201995 0.053219143 -0.037100986 -0.016670406
0003f0 05 45 a1 3c 43 19 4c 3d 88 a2 47 3c 87 95 36 bc
       0.019686231 0.04982878 0.012184747 -0.0111440485

fc1.bias f4 [20]
000000 2d be a4 bd 3b 40 4c be 6c 3c 11 be 0b c0 ba 3d
       -0.08044086 -0.19946377 -0.14183205 0.091186605
000010 a7 70 50 bc d2 e3 85 3d db 91 83 be c3 c7 58 bd
       -0.012722171 0.06537594 -0.25697216 -0.052924883
000020 32 67 5c 3c 1b 56 18 be 78 93 e8 3c 16 02 05 3d
       0.013452338 -0.14876597 0.028390631 0.032472692
000030 08 a0 17 be f5 50 45 bd 8b 4d b7 bd 0e 07 97 bd
       -0.14807141 -0.04817291 -0.08950337 -0.073743924
000040 21 25 3c be d1 4e a0 3b 25 42 20 bd 36 35 d0 bd
       -0.18373539 0.004892208 -0.03912558 -0.10166399

fc2.weight f4 [1, 20]
000000 33 75 ee 3c 0c 43 45 3f 99 0f 74 3f 54 b0 94 bf
       0.02910862 0.7705543 0.953363 -1.1616311
000010 07 2f 10 3f e7 45 82 bf f7 27 83 3f 8a 3e fe 3b
       0.5632176 -1.0177583 1.0246571 0.00775892
000020 0f a5 ca be 5a a0 58 bd 62 d9 ab be a8 0d cd bd
       -0.39579055 -0.0528873 -0.33564287 -0.1001237
000030 e7 c7 75 3f 8a 75 55 3f 40 1b 2f be ec 16 75 be
       0.9600815 0.83382475 -0.17100239 -0.23934525
000040 ec 9b 49 3f 39 55 06 bd 95 27 5e bf d6 8b c8 be
       0.7875354 -0.03279612 -0.8677915 -0.39169186
