notebooks/lightning_logs/version_129/checkpoints/epoch=14-step=3809.ckpt (torch, 10127 bytes, 3 tensors)

fc1.weight f4 [20, 94]
000000 c3 8b 60 ba 51 db 5d 3d a4 67 7c bc fe 29 0b 3d
       -0.0008565748 0.054164235 -0.015405569 0.033975594
000010 1c d8 96 bc 8e 9b 55 3d 77 e4 9a bc 77 d5 11 3d
       -0.018413596 0.0521503 -0.018907769 0.035603967
000020 98 eb 78 bd 4c 5a cd 3c ec 7a d3 bd d5 62 84 bd
       -0.060771555 0.025067471 -0.1032618 -0.06464163
000030 7a e6 3b bb b3 7f 66 3d dc 1b df bc fb 17 20 bd
       -0.002867131 0.056274127 -0.027234964 -0.03908537
000040 50 d0 be bc fe 38 6d 3c cc 72 0e be fc 2c 58 be
       -0.02329269 0.01447892 -0.13910979 -0.2111091
000050 ef 23 32 be 14 a4 2a be 64 0a 22 be 99 33 7e be
       -0.1739652 -0.16664153 -0.15824276 -0.2482437
000060 2f fe c8 bd 2e 81 21 bc 09 45 ad 3d b5 e5 45 3d
       -0.09814107 -0.009857459 0.08460433 0.04831477
000070 14 a4 07 3d 73 b1 e6 3c a2 a1 07 bd c1 ca 9e bc
       0.03311546 0.028160786 -0.03311313 -0.01938379
000080 e1 6f f8 3d a3 d4 2b 3e 1b 0b 0f 3e 9e 0b 31 3e
       0.12130714 0.16780333 0.1396908 0.17289588
000090 41 ee 7f 3e d8 e3 68 3e 00 b4 42 3e 5a b9 98 3d
       0.2499323 0.22743165 0.19013977 0.07457228
0000a0 2e 3b 06 3e 5c 86 15 3d 86 c5 a6 3e 81 bd bd 3d
       0.13108513 0.03650509 0.32572573 0.092646606
0000b0 20 d1 f7 be 6d a8 42 be 32 5a 0a 3d 29 7f 9d bd
       -0.48401737 -0.19009562 0.033777423 -0.076902695
0000c0 da 80 4a bc b3 c3 8a 3b 00 9b de 3d ed ce 10 3d
       -0.012359822 0.004234755 0.10869408 0.03535359
0000d0 e5 5c 02 3d 22 6f 5b bd 6a 20 4b 3d 33 f3 85 bd
       0.031826872 -0.05357278 0.04959146 -0.06540527
0000e0 f1 ec f4 3d 6f 7c 68 bc dd 08 e9 bc 51 3b f7 3b
       0.119592555 -0.0141898235 -0.02844661 0.007544913
0000f0 60 9c 39 bc 7c 5c 9e 3b 28 2f 59 bd 5d 31 9b bd
       -0.011328787 0.0048328023 -0.053023487 -0.07577775
000100 d9 63 c8 bd f0 27 27 bd 34 1c 87 bd 8e 9a a2 ba
       -0.097846694 -0.04080957 -0.06597176 -0.001240568
000110 ff 94 a7 3b 4a 6f 7b bd 6d e7 ae bd 0a 65 dc 3c
       0.0051141973 -0.06138543 -0.08540235 0.026903648
000120 36 68 09 be aa 4d a1 bd e8 dd 73 bc 6b e8 00 be
       -0.1341866 -0.07876141 -0.01488445 -0.1258866
000130 30 f5 e5 bd e1 96 fb 3c 95 0d db 3c bc 35 9d bd
       -0.112284064 0.030711593 0.026739875 -0.07676265
000140 e5 35 84 3d 53 a4 59 bd 79 3b ac 3d a1 a2 5f 3c
       0.06455592 -0.053135227 0.08409781 0.013649614
000150 e5 c5 fb 3b d5 3f fb bd 09 78 40 3d 1b c8 24 be
       0.007683503 -0.12268034 0.046989474 -0.16091959
000160 41 a6 53 3c cd 21 c0 3b 3a cc 9c 3c f9 5d 9c 3c
       0.012918056 0.0058634044 0.019140352 0.019087778
000170 70 cd c2 3d f4 1a b4 bd 04 43 b3 3c e8 44 80 bc
       0.0951184 -0.087942034 0.021882541 -0.015657857
000180 89 47 ef bb da 94 44 bd f9 d9 28 bd 04 21 51 bd
       -0.007302229 -0.04799352 -0.0412235 -0.051056877
000190 73 fd c3 bd 5e fb df 3d 8f 18 c2 bd af 0d 70 bc
       -0.09569826 0.10936616 -0.094773404 -0.0146517
0001a0 1a 3a 82 bd 6e e7 7a 3d 93 63 bc bc be 69 b1 bc
       -0.06358738 0.061255865 -0.0229967 -0.021656867
0001b0 9f a5 e5 3c dc 41 cd 3d 60 3a b4 bb d7 4d 4e bd
       0.028033076 0.10022327 -0.005500123 -0.050367203
0001c0 a9 81 48 bd c7 7c 8d bd 1b a6 84 3c d5 f9 3d bd
       -0.04895178 -0.06908565 0.016192487 -0.046380837
0001d0 a9 d9 b8 bd 5f 7c a4 bd 2b ff eb 3c cd 92 1f bd
       -0.090258904 -0.080315344 0.028808197 -0.03895836
0001e0 37 74 4f bd 27 75 84 bd e7 12 67 bc 48 bd 99 bb
       -0.05064794 -0.064676575 -0.014103628 -0.0046917535
0001f0 fc 79 6b 3d 61 2f 90 3c 34 cb f7 3c b5 af 0b 3c
       0.05748938 0.017600717 0.030248262 0.008525779
000200 69 46 ff bc 64 51 88 3c 90 32 88 3a ab f7 57 bd
       -0.031161504 0.016640373 0.0010391045 -0.05272643
000210 79 69 a4 bd ef 72 fb 3d d9 30 2f bd 68 10 fc 3d
       -0.0802793 0.12277781 -0.042771194 0.12307817
000220 98 b2 28 be 26 b9 4e 3d ce e0 1a 3e 3b 7a 3f bc
       -0.16474378 0.05046954 0.15124819 -0.011686857
000230 66 bc 41 3d d9 1b d1 bd 43 99 9c bd 98 91 9f 3d
       0.04729881 -0.1021039 -0.0764642 0.07791442
000240 ad 03 8f 3d 7d 80 98 bc 1e 75 01 bd a4 02 79 bd
       0.06983123 -0.018615955 -0.031605832 -0.060793534
000250 9d dc a1 3d e9 fd 70 bd 93 c7 66 bd 9e 45 df bb
       0.07903407 -0.058835898 -0.056342673 -0.006813719
000260 f9 74 0b 3d 8e 81 48 3d 50 40 dc bd 02 76 8e bd
       0.0340471 0.048951678 -0.10754454 -0.06956102
000270 2b b6 ec bd bc 25 8c bc 46 64 60 bd f2 9e 94 bb
       -0.11558183 -0.017107837 -0.05478313 -0.0045355493
000280 b9 7c 0f bd 90 b2 91 3d 4e b3 8f bc 16 8f b2 bd
       -0.035031054 0.07114136 -0.017541554 -0.08718698
000290 d5 ab 4e bd eb 85 18 bd 72 3a 97 3c 01 76 a3 bd
       -0.05045684 -0.03723709 0.018460486 -0.07981492
0002a0 83 68 96 bd c2 cf 97 3c 0f e5 8f bd 62 6a f9 bc
       -0.07344153 0.018531684 -0.07026111 -0.030446235
0002b0 46 71 df 3d 8e 0d 71 bd 52 c4 84 bd d5 5d 71 bd
       0.10910277 -0.058850817 -0.06482758 -0.058927376
0002c0 26 43 a4 bb 17 ea b5 bc 3a 0f fa bc 22 03 fd bd
       -0.0050128875 -0.02220635 -0.030524839 -0.12354113
0002d0 f2 c1 30 bd 6a 1a b9 3c b9 6c e6 bc 79 db 65 3d
       -0.04315371 0.022595603 -0.028128015 0.05611751
0002e0 1b 88 f9 3d ea 2e 91 bd a8 82 a2 3d 78 6a 16 3d
       0.12184163 -0.07089026 0.07935077 0.03672263
0002f0 1b aa 10 3e bf 41 c7 3d 69 9c 98 3d cc f6 a0 3d
       0.1412739 0.09729337 0.07451708 0.07859573
000300 6e 58 b0 bd a3 5e c0 3d 1b ae 9e 3d 70 e2 37 3d
       -0.086106166 0.093930505 0.07748052 0.044893682
000310 45 9d c7 bd f9 d0 f9 3c d4 32 87 3d 32 82 8c bd
       -0.09746794 0.030495154 0.066014916 -0.0686077
000320 15 b1 26 bd b5 65 9a 3d 30 b0 53 3c 7f 0e 3b bd
       -0.040696222 0.0753893 0.012920424 -0.04566812
000330 c5 f1 9e bd fb dc c5 3b 87 a0 21 3d 52 2f cb bd
       -0.07760958 0.006038306 0.03945973 -0.09921135
000340 61 90 82 bc 7b 6a 14 be 20 ae a3 bd dd 78 80 bb
       -0.015937986 -0.14493744 -0.07992196 -0.003920658
000350 c6 c6 a6 bd ed c2 59 bc 57 e4 3f 3d af 11 9d 3d
       -0.08143382 -0.013291103 0.04684862 0.076693885
000360 9a b2 49 3d 92 c7 1c bd 77 90 c0 bd 8f 76 7c bd
       0.049242593 -0.038276263 -0.094025545 -0.061636504
000370 9f 0c b0 bd eb c1 48 bc 6a 68 e1 3d 1a a2 8f 3d
       -0.08596157 -0.012253265 0.110062435 0.0701334
000380 9f 8d 8f bc c3 aa e3 bb 21 cf 2e bd 90 81 e2 3d
       -0.017523585 -0.0069478466 -0.042678002 0.11059868
000390 aa 37 e4 3d 04 5c d6 3d c0 78 f0 bc da 27 96 3d
       0.111434296 0.10466769 -0.029354453 0.0733182
0003a0 15 0f 13 3d 65 47 03 bd 7d 32 8e 3d 89 46 cd bc
       0.035903055 -0.03205051 0.069432236 -0.025058048
0003b0 97 1b 6c bd eb fa 84 3d 9f bd 61 bd 11 b2 30 bc
       -0.0576435 0.06493171 -0.055112477 -0.010784642
0003c0 74 23 33 3d 6a ed 80 3d 3e e8 02 3d 3f 8e 59 3b
       0.043734983 0.06295283 0.031959765 0.0033196358
0003d0 ae a1 39 bd c3 ed 19 3b 2b be 87 bd ff 50 a1 3c
       -0.045320205 0.0023487664 -0.066280685 0.019691942
0003e0 6e 20 86 bd 35 86 77 3c 95 fb 8e bd 86 43 81 bd
       -0.06549154 0.015107681 -0.06981579 -0.06311707
0003f0 75 5b ba 3d e2 ec 2b bc 03 3a 4b 3d 74 fe a2 3d
       0.09099475 -0.010493489 0.04961587 0.07958689

fc1.bias f4 [20]
000000 9e ce 43 be 6e 85 07 be 75 33 c7 bd 4d 6c ef bd
       -0.19121787 -0.13234493 -0.097266115 -0.116905786
000010 78 84 e4 bc f7 03 da bc 43 97 dd bd d5 a8 e7 bd
       -0.027895197 -0.026613219 -0.108198665 -0.11311499
000020 41 77 56 bd 30 1f a7 bd 5b eb bd 3d dc 5a 8f be
       -0.052359823 -0.081602454 0.09273406 -0.27999008
000030 2b ad 3e 3d 00 c8 13 be 35 8a f8 ba c0 a8 d0 3d
       0.046551865 -0.14431763 -0.0018962087 0.101884365
000040 7e f2 ff 3c fc 8d 0e be 4e c0 8d 3c 26 38 94 be
       0.031243559 -0.1392135 0.017303612 -0.28949088

fc2.weight f4 [1, 20]
000000 c4 0c 1b 3f 43 18 91 be d9 76 18 be b6 8a 42 be
       0.60566354 -0.28338823 -0.14889087 -0.18998227
000010 6b 0a d5 3e f6 96 87 be ae 8d 6b 3f c5 3a 4a 3f
       0.4160951 -0.26482362 0.9201306 0.78995925
000020 92 eb a0 be 23 b8 80 3f bc b6 31 bf f7 ad 8e 3f
       -0.31429726 1.0056194 -0.69419456 1.114684
000030 fb a8 fb be ea 7e 83 be 9c cc 68 bf ca 0b 40 bf
       -0.4915236 -0.25682765 -0.9093721 -0.7501799
000040 43 0b 93 3e 2f bc 32 be 2f 5b 54 bf 5a f0 98 3f
       0.2871953 -0.17454599 -0.82951635 1.194835
