notebooks/lightning_logs/version_130/checkpoints/epoch=14-step=3809.ckpt (torch, 10127 bytes, 3 tensors)

fc1.weight f4 [20, 94]
0	0x3e02d853	0.12777834
1	0x3df9757d	0.12180612
2	0xbcdbd74b	-0.026836058
3	0x3c21d6da	0.009877885
4	0x3de3f84e	0.11131345
5	0xbd1b2281	-0.037874702
6	0x3d1b4b02	0.03791333
7	0xbc4a6592	-0.012353318
8	0x3d4120ac	0.0471503
9	0x39c8b26a	0.00038279901
10	0x3cf088d0	0.029362112
11	0x3ce150ac	0.027504288
12	0x3cbe29ea	0.023213346
13	0x3d5262ad	0.051363636
14	0xbd0892d6	-0.03334316
15	0xbcee4454	-0.029085316
16	0x3d5b71ec	0.05357544
17	0x3c9bd668	0.019023135
18	0xbd012744	-0.031531587
19	0xbdda9b40	-0.10674143
20	0xbe87b2aa	-0.26503497
21	0xbeaa7ecd	-0.33299866
22	0xbe6b2fb0	-0.2296741
23	0xbea7e83d	-0.3279437
24	0xbe8bbe8c	-0.27293813
25	0xbe096b3e	-0.13419816
26	0xbd1a72c8	-0.03770712
27	0xbd4d82b8	-0.05017349
28	0xbc5f6c01	-0.01363659
29	0x3d40e904	0.04709722
30	0x3ddc0a6a	0.10744174
31	0x3e265c5c	0.1624617
32	0x3e414073	0.18872242
33	0x3e24bd09	0.16087736
34	0x3da24158	0.079226196
35	0x3e0d943a	0.13826075
36	0x3e7fb9cd	0.24973221
37	0x3e09506c	0.13409585
38	0x3d5b1283	0.05348445
39	0x3e45ad06	0.19304284
40	0x3e22683f	0.15860079
41	0x3dcd2702	0.10017206
42	0x3ee769e0	0.45197964
43	0x3e0a58bc	0.13510412
44	0xbeef4920	-0.46735477
45	0xbe80f77d	-0.2518882
46	0xbd30db90	-0.04317814
47	0x3b93899a	0.0045024874
48	0x3db67867	0.08909684
49	0x3d971785	0.07377533
50	0xbd91bbd9	-0.07115907
51	0xbc37b3d6	-0.01121231
52	0xbd056179	-0.03256366
53	0xbc1e7fe7	-0.009674049
54	0x3e01c63a	0.12673274
55	0x3dc06f2b	0.093962036
56	0x3db249ad	0.08705459
57	0x3dbdb289	0.092625685
58	0x3bc96eb1	0.0061472286
59	0x3c31ca58	0.010851465
60	0x3dee6b04	0.11641505
61	0x3beca519	0.0072218296
62	0xbcd5da57	-0.02610509
63	0x3c356417	0.011071227
64	0x3d77be5d	0.06048428
65	0x3dbb5551	0.09147132
66	0xba802ed3	-0.000977958
67	0xbdbbca6b	-0.091694675
68	0xbbf3dcd2	-0.0074420953
69	0xbdf2167b	-0.11820694
70	0xbd9ddacf	-0.0770775
71	0xbcafeabc	-0.021474235
72	0xbdc76b31	-0.09737242
73	0xbd8afcf9	-0.06786532
74	0xbd836879	-0.06416411
75	0xbde5129f	-0.11185192
76	0xbd9257d3	-0.071456574
77	0x3d7eeff6	0.062240563
78	0xbd8688d4	-0.06569067
79	0x3c0c6225	0.008568321
80	0xbda596e8	-0.08085424
81	0x3c8421ba	0.016129363
82	0x3d252fdf	0.040328857
83	0x3d986ce1	0.07442642
84	0x3dc238ba	0.09483476
85	0xbd8dd981	-0.06926251
86	0x3b4efd0a	0.0031583929
87	0xbe4a1d62	-0.19737771
88	0xbe0afba1	-0.13572551
89	0xbdd225aa	-0.1026109
90	0x3d8fc3a8	0.0701974
91	0x3e0215ce	0.1270363
92	0x3d8b1eef	0.067930095
93	0x3d1b9f68	0.03799382
94	0x3e0e858a	0.13918129
95	0x3de8e1f6	0.11371224
96	0x3dba027d	0.09082506
97	0x3dad2101	0.084535606
98	0xbde76274	-0.11298075
99	0xbd783753	-0.060599636
100	0xbd8d40f1	-0.06897152
101	0x3de4ac82	0.11165716
102	0xbe12646f	-0.14296125
103	0x3c0e5383	0.008686903
104	0x3d7c029c	0.061525926
105	0x3dc3a5de	0.09553121
106	0xbd975b60	-0.07390475
107	0x3c06e870	0.008234128
108	0xbd4a15d2	-0.049337216
109	0x3dd42b88	0.103598654
110	0xbce75344	-0.028237946
111	0xbd83e27f	-0.06439685
112	0x3c65acc7	0.014018244
113	0x3db1f1fd	0.08688734
114	0x3db02c18	0.0860216
115	0xbdae8940	-0.08522272
116	0xbc914398	-0.017732427
117	0xbd284637	-0.041082587
118	0x3dab6207	0.083683066
119	0x3dcf3ef6	0.10119431
120	0xbdcb095f	-0.09913897
121	0x3b6e6099	0.0036373495
122	0xbd91b3a0	-0.07114339
123	0xbc88e0b3	-0.016708707
124	0xbd1c6621	-0.038183335
125	0xbddfc232	-0.10925712
126	0xbb08280a	-0.0020775818
127	0xbafc2db2	-0.0019239692
128	0x3b4a3359	0.003085336
129	0xbd91a23d	-0.071110226
130	0xbda5d6cf	-0.08097612
131	0xbce6e267	-0.028184129
132	0x3d3bcd04	0.045849815
133	0x3dc93f10	0.09826481
134	0x3cd84d74	0.02640412
135	0xbbbac5df	-0.0056998576
136	0xbe0383b4	-0.1284321
137	0xbb38befd	-0.002819001
138	0x3e8a134a	0.2696784
139	0x3dbac77f	0.09120082
140	0xbc8d70ca	-0.017265696
141	0xbd8f3abb	-0.06993624
142	0xbdb0b898	-0.086289585
143	0xbd22ebf4	-0.039775804
144	0xbd55e87e	-0.052223675
145	0xbc741e11	-0.0148997465
146	0xbd96a683	-0.07355978
147	0xbcd692cb	-0.026193043
148	0xbd991356	-0.07474391
149	0xbc5afb5a	-0.013365591
150	0xbdb70003	-0.08935549
151	0x3d1d293b	0.0383694
152	0xbd76f73a	-0.060294367
153	0x3ca767e3	0.02043528
154	0xbd9399c9	-0.072070666
155	0xbc72fd5f	-0.014830916
156	0x3d91ffaf	0.07128846
157	0x3aef998a	0.0018280011
158	0xbdb575a1	-0.088603266
159	0x3d7264d2	0.05917818
160	0xbda7d263	-0.08194425
161	0xbcaae3ef	-0.02086064
162	0xbd851890	-0.064988256
163	0x3d95f56a	0.073222
164	0x3c890f0e	0.016730811
165	0x3bb27f5c	0.0054473113
166	0xbc20a7aa	-0.009805599
167	0x3c6243a0	0.013810068
168	0x3c2c1cd3	0.010504919
169	0xbd5e02bb	-0.054201823
170	0x3d04976d	0.032370973
171	0xbd301bb4	-0.04299517
172	0x3cfbe3cd	0.030748272
173	0x3db3e5f1	0.08784092
174	0xbb447cb7	-0.0029981562
175	0x3d0530ee	0.032517366
176	0xbd2c885b	-0.042122226
177	0xbbf8261b	-0.007572902
178	0x3ca49f43	0.020095473
179	0xbde05113	-0.10952964
180	0x3d7c8074	0.06164594
181	0xbd93f795	-0.07224957
182	0x3cd603fd	0.026124949
183	0xbdb73d34	-0.089472204
184	0xbc166cb6	-0.009181192
185	0x3db65e57	0.08904713
186	0x3b850c1b	0.004060281
187	0x3c64e99a	0.013971711
188	0x3d023e17	0.031797495
189	0x3d251031	0.040298644
190	0xbdaf9656	-0.08573596
191	0x3d2b9757	0.041892376
192	0xbe0496b0	-0.12948108
193	0x3da4b584	0.08042434
194	0xbd48fe18	-0.049070448
195	0x3cd8f824	0.02648551
196	0xbd29f180	-0.041490078
197	0xbd9fc821	-0.078018434
198	0x3bb953e0	0.0056557506
199	0xbd4d6211	-0.05014235
200	0xbd1edfc3	-0.038787615
201	0x3c189f1a	0.0093152765
202	0xbd64db74	-0.05587335
203	0x3d2b0e95	0.041761953
204	0x3d8b6870	0.06807029
205	0xbd8cbdb0	-0.068721175
206	0xbd2b5ca6	-0.041836403
207	0xbd773c54	-0.060360268
208	0xbe501fff	-0.20324706
209	0xbe803269	-0.2503846
210	0xbec8e0cf	-0.39234015
211	0xbe8a3e9e	-0.27000898
212	0xbdc217c7	-0.094771914
213	0xbe1a8af8	-0.15092075
214	0x3bbe99aa	0.005816658
215	0x3d0bb47a	0.034107663
216	0xbd9203b8	-0.071296155
217	0x3bacaba8	0.0052694865
218	0x3df7bf24	0.12097004
219	0x3d352ca3	0.044232022
220	0x3e4a3c88	0.19749653
221	0x3e16e0bf	0.14734171
222	0x3d2dc6b0	0.04242581
223	0x3e895969	0.26826027
224	0x3e7f44f3	0.24928646
225	0x3e2f5f93	0.17126302
226	0x3e09f97f	0.13474081
227	0x3e5d6e82	0.21624187
228	0x3dee0993	0.1162292
229	0x3d0296ae	0.03188198
230	0x3ee71386	0.45132083
231	0x3df07043	0.11740162
232	0xbf189193	-0.5959713
233	0xbe9d31b7	-0.30701992
234	0x3c5b446f	0.013383015
235	0xbd95b482	-0.0730982
236	0x3d2d8810	0.042366087
237	0xbd0581c8	-0.032594472
238	0xbcb8ac34	-0.02254305
239	0x3dccc8b9	0.09999222
240	0xbd0343b1	-0.032046977
241	0x3d9f26ad	0.07771049
242	0x3d23888c	0.039925143
243	0x3d092e6c	0.033491537
244	0x3decf6da	0.11570521
245	0x3daeee11	0.08541501
246	0x3e11bf8d	0.14233227
247	0x3b66616d	0.0035153285
248	0xbd4f8552	-0.050664254
249	0x3af6261c	0.0018779668
250	0xbc8ca046	-0.017166268
251	0xbcccc15d	-0.024994547
252	0x3d90f5af	0.070781104
253	0xbccc39be	-0.024929877
254	0xbd522c57	-0.051311817
255	0xbda37b03	-0.07982447

fc1.bias f4 [20]
0	0xbd9f496e	-0.077776775
1	0xbdb64d67	-0.08901482
2	0xbdc50727	-0.09620505
3	0xbd91a23d	-0.071110226
4	0xbdc16213	-0.09442534
5	0xbb9bb6d2	-0.0047520185
6	0xbdcae51b	-0.0990698
7	0xbd44af74	-0.048018888
8	0xbe408fd3	-0.18804865
9	0xbe374e12	-0.17900875
10	0xbe6301fb	-0.22168724
11	0xbd0ce31a	-0.03439627
12	0x3db559b9	0.08855004
13	0xbe325f48	-0.1741916
14	0xbdc46bde	-0.095908865
15	0x3dc1cc3c	0.09462783
16	0xbdd73fcc	-0.10510215
17	0x3d61905f	0.055069324
18	0xbd8ffa32	-0.07030143
19	0xbe0348a8	-0.12820685

fc2.weight f4 [1, 20]
0	0x3f3d50a8	0.73951197
1	0xbef6e937	-0.48224804
2	0x3f570d7a	0.8400494
3	0x3e849237	0.25892803
4	0x3e0446fa	0.129177
5	0xbe52da2b	-0.20591037
6	0xbebc9c72	-0.36838108
7	0xbf52f604	-0.8240664
8	0x3f1d2048	0.6137738
9	0x3f04e1de	0.51907146
10	0x3f90cb87	1.1312112
11	0xbf2bab6b	-0.6705844
12	0xbf81d248	-1.0142298
13	0x3f1ab0bf	0.60425943
14	0x3f280f40	0.6564827
15	0xbf40b594	-0.75277066
16	0xbeaf76a8	-0.34270215
17	0xbe9bd357	-0.30434677
18	0xbea11b4e	-0.31466144
19	0x3f87ece2	1.0619166
