notebooks/lightning_logs/version_77/checkpoints/epoch=3-step=4039.ckpt (torch, 27863 bytes, 9 tensors)

fc1.weight f4 [20, 94]
0	0x3f59906d	0.84986
1	0x3f52e98e	0.82387626
2	0x3f4f40c5	0.80958205
3	0xbdde1a98	-0.10844916
4	0xbe9b6912	-0.303536
5	0x3f0ec47c	0.5576856
6	0x3e366c38	0.1781472
7	0xbf40aa45	-0.7525981
8	0x3a957909	0.0011403869
9	0xbf8dd048	-1.1079187
10	0x3e5f890b	0.21829621
11	0xbf9ccc67	-1.2249879
12	0x3d3fc0f4	0.046814874
13	0xbee6bdd2	-0.45066696
14	0xbe871209	-0.26380947
15	0xbf8e68e2	-1.1125758
16	0xbc4b76b8	-0.0124184415
17	0xbfad5fc6	-1.3544853
18	0x3d7faeaa	0.062422432
19	0xbfa1948f	-1.2623461
20	0xc00074f0	-2.0071373
21	0xc0257f66	-2.5859008
22	0xc032e982	-2.7955022
23	0xc0397523	-2.8977745
24	0xc02e860c	-2.7269316
25	0xbffb6f83	-1.9643406
26	0xbf9424e7	-1.1573762
27	0xbfab1c93	-1.3368095
28	0xbfbc6f80	-1.4721527
29	0xbf9f6052	-1.245127
30	0xbfa13afa	-1.2596123
31	0xbf9c6103	-1.2217106
32	0xbf8d28a9	-1.1028033
33	0xbfba9f29	-1.4579822
34	0xbf698bd5	-0.9122899
35	0xbeb29c75	-0.34884992
36	0x3f4432f6	0.7664026
37	0x3fa4346e	1.28285
38	0x3e95e638	0.29277205
39	0x3f0e509b	0.55591744
40	0x3fac1b6c	1.3445868
41	0x3f8ad9a0	1.0847664
42	0xbf8fed46	-1.1244285
43	0xbeb9fab9	-0.363241
44	0xbfe00a79	-1.7503196
45	0xbfd8fb39	-1.6951667
46	0xbe16b6dd	-0.14718194
47	0xc003feba	-2.0624223
48	0xc0289f4e	-2.6347232
49	0xbfda6c1e	-1.7064245
50	0xbf85eb2b	-1.0462393
51	0xbf26d2dc	-0.65165496
52	0xc02888e8	-2.633356
53	0xbf8add2b	-1.0848745
54	0x3e36106a	0.17779699
55	0x3ed121a0	0.40845966
56	0x3e3e3cb3	0.18577842
57	0xbf1ba2c6	-0.6079525
58	0xbf770e91	-0.965066
59	0xbebdca39	-0.37068346
60	0xbdf65bd0	-0.120292306
61	0xbe0b45bf	-0.13600825
62	0x3f10f916	0.56630075
63	0x3e1a34b5	0.15059169
64	0xbe7ed8f4	-0.24887449
65	0xbee95f0a	-0.45580322
66	0xbe98fc0f	-0.29879805
67	0x3eb54d56	0.35410565
68	0xbf41021c	-0.75393844
69	0xbefab112	-0.4896322
70	0x3d59c3a8	0.053165108
71	0xbf820d00	-1.0160217
72	0xbde90045	-0.113770045
73	0xbf82bcfd	-1.0213925
74	0xbf3406f2	-0.703231
75	0xbee1bd20	-0.44089603
76	0xbed18d3e	-0.40928072
77	0x3f142f32	0.57884514
78	0x3efb79d1	0.49116376
79	0x3f102f3e	0.56322086
80	0x3d55e7e4	0.0522231
81	0x3d91081a	0.070816234
82	0x3e837dfa	0.2568205
83	0xbfa88aad	-1.316732
84	0xbf6974c3	-0.9119379
85	0xbffbe5a9	-1.9679462
86	0xbf3cbfcb	-0.7373015
87	0xbfe38ad2	-1.777674
88	0xbf3fa088	-0.74854326
89	0xbf2dd843	-0.67908114
90	0xbefb9d3d	-0.491434
91	0xbd78efb0	-0.06077546
92	0xbe8be64d	-0.27324143
93	0xbf575861	-0.8411923
94	0xbd257ef3	-0.04040427
95	0xbd8daba1	-0.06917501
96	0x3da97c11	0.08275617
97	0x3dd9ff76	0.106444284
98	0xbf7d4c9b	-0.98945016
99	0xbebbed17	-0.36704323
100	0x3f024d16	0.50898874
101	0xbe678b51	-0.22611739
102	0x3ef8e605	0.4861299
103	0x3f0e334b	0.55547017
104	0x4022854a	2.5393853
105	0x3ec1061e	0.3769998
106	0xbf2a1cc3	-0.66450137
107	0x3fde00ee	1.7344034
108	0x3fa8e1e9	1.3193942
109	0xbfde8145	-1.73832
110	0xbc31f930	-0.010862634
111	0xc022fbf7	-2.5466287
112	0xbed1a78c	-0.4094814
113	0x3fc9142e	1.5709283
114	0x405c85c5	3.4456646
115	0x407efc28	3.9841404
116	0x40882fe3	4.2558455
117	0x40611570	3.5169334
118	0xbfea43cd	-1.8301941
119	0xc03465bc	-2.8187094
120	0xc06627b0	-3.5961723
121	0xc0a247c2	-5.0712595
122	0xc075a4e4	-3.8381891
123	0xc0846109	-4.136845
124	0xc091a945	-4.551913
125	0xc09acf63	-4.8378158
126	0xc0bdf9d6	-5.9367476
127	0xc0de206f	-6.941459
128	0xc0bf8c88	-5.9859047
129	0xc09df768	-4.936451
130	0xc05acda5	-3.4188015
131	0xbfc739ab	-1.5564474
132	0xbe47c038	-0.1950692
133	0x400d050f	2.2034338
134	0x40387f1a	2.8827577
135	0x40741b71	3.814175
136	0xc01216be	-2.282638
137	0xbf473f2f	-0.77830786
138	0x4077e1d6	3.873159
139	0x3f79a611	0.9751902
140	0x3e7d67fa	0.24746695
141	0xbfb9ec94	-1.4525323
142	0xbfa5ba8d	-1.2947556
143	0xbf66f34a	-0.9021498
144	0xbfb93ec5	-1.4472281
145	0x3c2af3c9	0.0104340995
146	0x3f22f34c	0.6365249
147	0xbe94a934	-0.29035342
148	0xbfb46eb5	-1.4096285
149	0x3feb7738	1.8395758
150	0x4000433e	2.0041041
151	0x4035f072	2.8428006
152	0xbe47e27b	-0.19519989
153	0xbffa14d6	-1.9537609
154	0xc01739a7	-2.3628938
155	0xbfb36251	-1.4014379
156	0xbf338d92	-0.70137894
157	0xbf86b459	-1.0523788
158	0xbe8b2901	-0.2717972
159	0x3fd9e10a	1.7021801
160	0x4017387f	2.3628232
161	0x3fa3a44a	1.2784512
162	0x3fcb1170	1.5864697
163	0x3f24dee2	0.6440259
164	0x40041a0f	2.0640905
165	0x3e78e2fd	0.24305339
166	0x3f18645b	0.5952813
167	0xbefb1266	-0.49037474
168	0x3e11c147	0.14233886
169	0xbfb19276	-1.3872821
170	0xbf89af11	-1.0756551
171	0xbdda4a32	-0.10658683
172	0x3fd20cdc	1.6410174
173	0x3fb4d0ac	1.4126182
174	0xbef8fd67	-0.4863083
175	0xbfc5e786	-1.546128
176	0xbf577f1d	-0.84178334
177	0xbffc023b	-1.9688181
178	0xc007c418	-2.1213436
179	0x3ef59034	0.4796158
180	0xbf480acc	-0.78141475
181	0xbe454c3a	-0.1926736
182	0x3f3828b7	0.71937126
183	0x3d9d54fd	0.07682226
184	0x400528c6	2.0806136
185	0x3f617680	0.8807144
186	0xbf969751	-1.1764928
187	0x3e02cd82	0.12773708
188	0x3ecbdbde	0.39816183
189	0x3ebc3951	0.3676248
190	0x3eafcf5a	0.34337884
191	0xbf414725	-0.7549918
192	0xbf642da1	-0.89132124
193	0xbe495b7c	-0.19663805
194	0x3e8030a5	0.25037113
195	0xbf09ab64	-0.53777146
196	0xbd224cfd	-0.039624203
197	0x3e0b1741	0.1358309
198	0xbe0c3f61	-0.13696052
199	0xbe5ce055	-0.21569951
200	0x3fe6c604	1.802918
201	0xbf9d3a3e	-1.2283399
202	0x3ddcf6f0	0.10789287
203	0xbfeb94a2	-1.8404734
204	0xbdc95159	-0.09829969
205	0xbfbaf3c6	-1.4605644
206	0xc0c91364	-6.283617
207	0xc0efa3dd	-7.488753
208	0xc0fe04cb	-7.938085
209	0xc102561f	-8.146026
210	0xc1062761	-8.384614
211	0xc0fd0e0c	-7.9079647
212	0xc05885d2	-3.3831677
213	0xbfc0080d	-1.5002457
214	0x3f768616	0.9629835
215	0x3e9ea2da	0.3098362
216	0x3fc8864d	1.5665985
217	0x3ff4507a	1.908706
218	0x401b4cf1	2.4265711
219	0x4057a74c	3.369586
220	0x40609007	3.5087907
221	0x406fa35e	3.7443461
222	0x40880fb6	4.251918
223	0x408f3ed2	4.4764185
224	0x409ede69	4.9646497
225	0x4097cc63	4.7436996
226	0x4038fe19	2.890509
227	0x405065ef	3.2562215
228	0x409416bf	4.6277766
229	0x40934f23	4.6034102
230	0x3fa55878	1.2917624
231	0x3ed4f5db	0.41593823
232	0xc076b7da	-3.8549714
233	0xc03d6285	-2.9591382
234	0xbf010465	-0.5039733
235	0xbfbb9066	-1.4653442
236	0xbf8fe274	-1.1240983
237	0x3f22e6be	0.63633335
238	0x3f84b339	1.0367194
239	0x402c41aa	2.6915078
240	0x400b35ec	2.1751661
241	0x3fd7f686	1.6872108
242	0x3d984e05	0.07436756
243	0x402e07bd	2.7192223
244	0x401a21d6	2.4083152
245	0x3ffcfa7e	1.9763944
246	0x3fb7dd80	1.4364471
247	0x3f8a1feb	1.079099
248	0xbed7f82d	-0.4218153
249	0xbfa5d099	-1.2954284
250	0x3f8908e8	1.0705843
251	0x3f0b7b88	0.5448537
252	0xbf959629	-1.168645
253	0xc0160662	-2.3441396
254	0xbf85ff24	-1.0468488
255	0xbf9d53dd	-1.2291218

fc1.bias f4 [20]
0	0xc00aa32b	-2.166209
1	0xbdabcdbd	-0.08388851
2	0xbf0599ef	-0.5218801
3	0xbfdd9d32	-1.7313597
4	0xc004d997	-2.0757806
5	0xbfee1e49	-1.8602992
6	0xbfb317bc	-1.3991618
7	0xbfd408db	-1.6565202
8	0xc0591ba9	-3.3923132
9	0xbff25b46	-1.8934104
10	0xc04e5395	-3.2238514
11	0xbfd5ade2	-1.669369
12	0xbfc5a989	-1.5442363
13	0xbf882fef	-1.0639628
14	0xc0358b91	-2.8366435
15	0xbfde8414	-1.7384057
16	0xbeaffd2e	-0.34372848
17	0xbfe9a8ab	-1.8254598
18	0xc031f2d4	-2.780446
19	0xbfd28ac3	-1.6448597

fc2.weight f4 [1, 20]
0	0xbb9a3cee	-0.0047069704
1	0xbe677ddb	-0.22606604
2	0x3e62506b	0.2210099
3	0x3e7ab71c	0.24483913
4	0x3e99ac2e	0.30014175
5	0x3dcd1274	0.10013285
6	0x3e5aa367	0.21351396
7	0x3cd2c660	0.025729358
8	0x3de5de57	0.112240486
9	0x3d9c8dff	0.07644271
10	0x3e39dba2	0.1815019
11	0xbcfa2221	-0.030533852
12	0x3d26fe3e	0.040769808
13	0x3e56fceb	0.20994918
14	0xbe95b768	-0.2924149
15	0x3e213df2	0.15746287
16	0x3d734052	0.059387513
17	0xbd3279a8	-0.04357305
18	0x3e1e1495	0.15437539
19	0xbcda80d6	-0.026672762

exp_avg f4 [20, 94]
0	0xb43b577c	-1.7447559e-07
1	0xb43b577c	-1.7447559e-07
2	0xb43b577c	-1.7447559e-07
3	0xb2aeef52	-2.0365096e-08
4	0xb24e5a3b	-1.2011294e-08
5	0x34c9ec99	3.7611315e-07
6	0x336b868e	5.4837578e-08
7	0xb32d7549	-4.038637e-08
8	0xb3ebcd2e	-1.0980362e-07
9	0x3404443b	1.231828e-07
10	0x2c273120	2.3759397e-12
11	0x339f6b74	7.42356e-08
12	0xae7c2f02	-5.7339918e-11
13	0xa94bd4b5	-4.525955e-14
14	0x3201e3df	7.5606e-09
15	0x80000004	-6e-45
16	0x00000000	0.0
17	0x80000004	-6e-45
18	0x32a02739	1.8644288e-08
19	0x31a85ce9	4.900006e-09
20	0x309d847a	1.1460906e-09
21	0x2fce00b9	3.7471695e-10
22	0x2f8d9ffe	2.5761432e-10
23	0x2f981eb1	2.7670446e-10
24	0xad88e36d	-1.5562407e-11
25	0xaf5491a3	-1.9333028e-10
26	0x3093d4b0	1.0756107e-09
27	0x30122695	5.316932e-10
28	0x307f1dd9	9.2810876e-10
29	0x32465f8e	1.15468435e-08
30	0x31c780af	5.806292e-09
31	0x32032d3e	7.6354905e-09
32	0x31de9fdb	6.479224e-09
33	0x311acd93	2.2526805e-09
34	0x31daa739	6.363646e-09
35	0x31be19de	5.5326685e-09
36	0x328e614f	1.6575227e-08
37	0x3219d214	8.953538e-09
38	0x322e625c	1.0150497e-08
39	0x3303c909	3.0683655e-08
40	0x33735544	5.6655395e-08
41	0x320fac55	8.362879e-09
42	0x80000004	-6e-45
43	0x80000043	-9.4e-44
44	0x00010871	9.4864e-41
45	0x8519229a	-7.200381e-36
46	0x0c745a5a	1.8824265e-31
47	0x148e5683	1.4372459e-26
48	0x1c8731d2	8.946429e-22
49	0x21f0a40e	1.6306458e-18
50	0x27e5b2f9	6.375431e-15
51	0x2d7e10e7	1.44419815e-11
52	0x334f48cb	4.8262148e-08
53	0x342832e9	1.566474e-07
54	0x341cd7ae	1.4607096e-07
55	0x32359db6	1.0571446e-08
56	0xad0e7919	-8.0986546e-12
57	0xad976229	-1.7210304e-11
58	0x2dc675d1	2.2562315e-11
59	0x2f1e2c29	1.4385705e-10
60	0x3070f146	8.765436e-10
61	0xae5f059c	-5.0709312e-11
62	0x2eb2d69e	8.1326265e-11
63	0x3086f043	9.81807e-10
64	0xacaf145c	-4.9760595e-12
65	0x2de06017	2.5508524e-11
66	0xac9b8244	-4.4198274e-12
67	0xb0460a29	-7.204642e-10
68	0xb099f192	-1.1200874e-09
69	0xaed42c58	-9.648521e-11
70	0x2ce86a89	6.6056644e-12
71	0x2aa51df4	2.9330672e-13
72	0x2f4fcb8a	1.8898852e-10
73	0x2fc15382	3.516583e-10
74	0x3001d927	4.723852e-10
75	0xb0ca0390	-1.4698447e-09
76	0xae1855b5	-3.4636922e-11
77	0xaff37e44	-4.429116e-10
78	0xb1b81ad5	-5.3581553e-09
79	0xb396c77f	-7.0212074e-08
80	0xb1871280	-3.9311203e-09
81	0x32a8eff2	1.9666889e-08
82	0x33df3004	1.0392981e-07
83	0x31ab63b8	4.9880917e-09
84	0x2d9095db	1.6437454e-11
85	0x33b2edad	8.332004e-08
86	0x3402923f	1.2160397e-07
87	0x31a9748e	4.931798e-09
88	0x341d6b6c	1.4660844e-07
89	0x31b27602	5.1938978e-09
90	0xb39645af	-6.997595e-08
91	0xb16c44dd	-3.4381664e-09
92	0x32ae8514	2.0316783e-08
93	0x33d98337	1.0128718e-07
94	0xbad01826	-0.0015876337
95	0xbad01826	-0.0015876337
96	0xbad01826	-0.0015876337
97	0xba26a7a9	-0.0006357381
98	0xb8ca4b76	-9.646166e-05
99	0x3b2f91e1	0.0026789831
100	0x39c4a6f0	0.0003750841
101	0x3a1e69d0	0.0006042989
102	0xb9b9cdc1	-0.00035439248
103	0x3a26da51	0.0006364929
104	0x326dc9aa	1.3841069e-08
105	0x3a8bc7d3	0.0010664411
106	0xb3c8d624	-9.352178e-08
107	0xaf9fc7bc	-2.906385e-10
108	0xb86f9ba7	-5.7127003e-05
109	0x80000004	-6e-45
110	0x00000000	0.0
111	0x00000004	6e-45
112	0x39726d04	0.0002311953
113	0x38dcaef8	0.00010523008
114	0x3814cf70	3.547914e-05
115	0x3820d669	3.8346658e-05
116	0x382fd0d4	4.1917738e-05
117	0x38b6ce24	8.716833e-05
118	0xb871a6ed	-5.761434e-05
119	0xb85f0172	-5.316869e-05
120	0x38f67df4	0.00011753655
121	0x36281bf9	2.5050233e-06
122	0x36e2602e	6.7465216e-06
123	0x39ac2c2d	0.0003283931
124	0xb7a08dd0	-1.9139523e-05
125	0x3500bfbb	4.796272e-07
126	0x34273afa	1.5574543e-07
127	0xb5bb572f	-1.395796e-06
128	0xb6b79b2d	-5.47189e-06
129	0xb87dbc48	-6.049525e-05
130	0xb906486d	-0.00012806217
131	0x384f91fc	4.9488604e-05
132	0x39c69edb	0.0003788386
133	0x39acd573	0.0003296543
134	0x3947e39a	0.00019062907
135	0x37e5184e	2.7310245e-05
136	0x00000004	6e-45
137	0x8000043c	-1.519e-42
138	0x040c50be	1.6493996e-36
139	0x88994a8e	-9.22588e-34
140	0x8f4faea5	-1.0239523e-29
141	0x9500956a	-2.596726e-26
142	0x1de12272	5.959262e-21
143	0x24af9b64	7.6157394e-17
144	0xabdcdfc5	-1.5694049e-12
145	0x33819914	6.034875e-08
146	0x39a734d5	0.00031892085
147	0x3aade632	0.0013267456
148	0x3a249bfa	0.0006279346
149	0x3a373260	0.00069884025
150	0xb47704b1	-2.3005374e-07
151	0xb4ade49b	-3.2390093e-07
152	0x348fe3a1	2.6801447e-07
153	0x33afe1f9	8.190177e-08
154	0x34de2411	4.1376964e-07
155	0x34520681	1.956014e-07
156	0x34ae47fc	3.24624e-07
157	0x35bff93c	1.4303146e-06
158	0x3311004c	3.3760713e-08
159	0x365c8a0b	3.2862906e-06
160	0x35b48441	1.3449536e-06
161	0xb63ed1e0	-2.843437e-06
162	0xb6bebee6	-5.6846648e-06
163	0xb6a6a86b	-4.966792e-06
164	0x36043ef0	1.9706167e-06
165	0x357ec736	9.4912264e-07
166	0x36c85a32	5.9709646e-06
167	0x3622ed9e	2.4278193e-06
168	0xb5854a35	-9.930869e-07
169	0xb847f4e2	-4.7673362e-05
170	0xb778c8ff	-1.482875e-05
171	0xb797468c	-1.8033454e-05
172	0xb93a4a3c	-0.00017765997
173	0xba3f5440	-0.0007298626
174	0xb9983309	-0.00029029723
175	0x39a1553c	0.00030771818
176	0x3a271869	0.0006374182
177	0x3a29fc8f	0.00064844725
178	0x3391baf1	6.786093e-08
179	0x3a466f2f	0.0007569668
180	0x3a68fbab	0.0008887599
181	0x3a24da8e	0.00062886707
182	0x3a20ae95	0.00061295304
183	0x3a08d196	0.0005219219
184	0xba3cd5f1	-0.00072035106
185	0xb9962b31	-0.0002864241
186	0x399f93d0	0.00030436972
187	0x3a1931c5	0.0005843903
188	0x3a328700	0.00068102777
189	0x3a328700	0.00068102777
190	0x3a328700	0.00068102777
191	0x3990a035	0.00027585184
192	0x39101951	0.00013742341
193	0xb9ed294a	-0.00045234925
194	0xb9167fbc	-0.000143527
195	0xb9a3beaf	-0.00031231853
196	0x3a7a1a0a	0.0009540623
197	0xba99ab1e	-0.001172397
198	0xb351e3fe	-4.8868962e-08
199	0xba5f3467	-0.00085145835
200	0x35c9dce0	1.503995e-06
201	0xb0930969	-1.0698332e-09
202	0xb9a8e917	-0.00032217122
203	0x00000004	6e-45
204	0x00000000	0.0
205	0x00000004	6e-45
206	0xb864fb2f	-5.459337e-05
207	0xb7e64867	-2.7451852e-05
208	0xb7a21505	-1.9321693e-05
209	0xb6e35230	-6.774695e-06
210	0xb704e204	-7.9204365e-06
211	0xb78a4469	-1.6482738e-05
212	0x385ff870	5.339872e-05
213	0xb8fe652c	-0.000121305085
214	0xb8e9c16f	-0.000111463356
215	0xb94a3377	-0.00019283393
216	0xb8ab09da	-8.1557504e-05
217	0xb8e98b8d	-0.00011136299
218	0xb8f62073	-0.00011736238
219	0xb93c9232	-0.00017983539
220	0xb96f066e	-0.00022795211
221	0xb925815f	-0.0001578382
222	0xb9235cee	-0.0001557951
223	0xb91354cb	-0.000140506
224	0xb8e12bae	-0.00010736972
225	0xb8ad94db	-8.277009e-05
226	0xb89097ca	-6.894728e-05
227	0xb9229828	-0.00015506207
228	0xb91de1db	-0.00015056824
229	0xb8d7ca7f	-0.00010289717
230	0x80000004	-6e-45
231	0x8000ef6a	-8.5886e-41
232	0x833c5e02	-5.535615e-37
233	0x08245262	4.9448795e-34
234	0x0e17be6f	1.8703877e-30
235	0x15f1250d	9.739758e-26
236	0x1cc9407a	1.3317731e-21
237	0xa50be6ba	-1.2134501e-16
238	0xab35929d	-6.4507584e-13
239	0xb45ec0f7	-2.0745561e-07
240	0xbaf7aa8f	-0.0018895435
241	0xb9ee7525	-0.00045482177
242	0xb9c9b3f4	-0.00038471783
243	0xb892cb12	-6.999647e-05
244	0x33cde52f	9.5877446e-08
245	0x33f0d469	1.1214508e-07
246	0x33a4a54c	7.6669124e-08
247	0xb30e2caf	-3.310259e-08
248	0xb4f31705	-4.5279026e-07
249	0x3405c673	1.2458786e-07
250	0x313178e6	2.5825613e-09
251	0xb324a52c	-3.833445e-08
252	0x34c224b5	3.6162024e-07
253	0xb5a135aa	-1.2011053e-06
254	0xb4e5546b	-4.2715996e-07
255	0x370999e8	8.20167e-06

exp_avg_sq f4 [20, 94]
0	0x38a7f734	8.009226e-05
1	0x38a7f734	8.009226e-05
2	0x38a7f734	8.009226e-05
3	0x368a561f	4.1227463e-06
4	0x383a4ecf	4.4419252e-05
5	0x37e10325	2.6823554e-05
6	0x384e4085	4.9174316e-05
7	0x383872e4	4.397602e-05
8	0x3826a0e6	3.9727332e-05
9	0x37905974	1.7207793e-05
10	0x322bd5d1	1.0002126e-08
11	0x37c1d856	2.3108132e-05
12	0x3428b106	1.571062e-07
13	0x32a2e1ba	1.896193e-08
14	0x357b9606	9.37231e-07
15	0x341ff164	1.4895846e-07
16	0x00000000	0.0
17	0x3660418f	3.3416761e-06
18	0x359c22bb	1.1633014e-06
19	0x358cb239	1.0482682e-06
20	0x353a2a0e	6.93516e-07
21	0x34ba5f66	3.471461e-07
22	0x34443c07	1.827576e-07
23	0x340c3107	1.3056352e-07
24	0x33c7a9e2	9.297561e-08
25	0x344d8dbd	1.9143677e-07
26	0x35051042	4.957002e-07
27	0x3490d735	2.6978674e-07
28	0x3452b687	1.9624177e-07
29	0x3453b930	1.9718277e-07
30	0x346695e6	2.1474952e-07
31	0x346905f1	2.1701977e-07
32	0x348f8861	2.6735054e-07
33	0x3408c68e	1.2738221e-07
34	0x34796e37	2.3230028e-07
35	0x34c50fcb	3.67056e-07
36	0x352e2bec	6.4883966e-07
37	0x3533a6da	6.69255e-07
38	0x3501ff07	4.842736e-07
39	0x352112b4	6.000439e-07
40	0x3541b978	7.2167995e-07
41	0x34faa1d7	4.6683883e-07
42	0x3818b22b	3.6405556e-05
43	0x371397e3	8.797247e-06
44	0x370f1af5	8.529741e-06
45	0x338060da	5.978082e-08
46	0x347e7e85	2.3701621e-07
47	0x3335398f	4.2194696e-08
48	0x33215f09	3.7572168e-08
49	0x34238ae4	1.5231086e-07
50	0x3394849a	6.915907e-08
51	0x32c656d2	2.3089715e-08
52	0x32b951b7	2.1573994e-08
53	0x2f968455	2.737887e-10
54	0x3588a309	1.0180239e-06
55	0x35872a3d	1.0070577e-06
56	0x35c6f316	1.4822897e-06
57	0x358cfe6b	1.0504858e-06
58	0x35bdbf65	1.41373e-06
59	0x35958570	1.11402e-06
60	0x3579179b	9.279408e-07
61	0x359b0fc0	1.1552984e-06
62	0x359c3d97	1.1640831e-06
63	0x3592eea9	1.0947307e-06
64	0x35f2c715	1.8088346e-06
65	0x3593f861	1.1024641e-06
66	0x358af6b6	1.0353604e-06
67	0x35b92600	1.3794634e-06
68	0x358f9c07	1.069974e-06
69	0x35ccdac1	1.526285e-06
70	0x35bc988f	1.4051492e-06
71	0x3672d7d5	3.618644e-06
72	0x3538adf0	6.8798454e-07
73	0x368391d1	3.9210795e-06
74	0x353f787b	7.1328367e-07
75	0x35303a28	6.564974e-07
76	0x357f381f	9.507657e-07
77	0x3585dc10	9.973319e-07
78	0x34ea8717	4.3684187e-07
79	0x34d76907	4.0123288e-07
80	0x34bb51d2	3.4890996e-07
81	0x357b9c5e	9.373233e-07
82	0x3566c50b	8.596841e-07
83	0x36b5dd94	5.4200154e-06
84	0x3732cfbb	1.0657993e-05
85	0x382c2ed6	4.1051615e-05
86	0x375028e7	1.2407289e-05
87	0x367534ad	3.6538506e-06
88	0x3663a213	3.3919976e-06
89	0x36a1b7d0	4.8195725e-06
90	0x3720eb74	9.591564e-06
91	0x37960178	1.7882077e-05
92	0x36fc0274	7.510471e-06
93	0x36977031	4.5132115e-06
94	0x38793cf1	5.9422982e-05
95	0x38793cf1	5.9422982e-05
96	0x38793cf1	5.9422982e-05
97	0x374ae65e	1.2093775e-05
98	0x3aa15125	0.0012307508
99	0x385a105c	5.1990486e-05
100	0x380c6763	3.3474887e-05
101	0x38975b62	7.2172625e-05
102	0x390f3e69	0.00013660792
103	0x38319f04	4.2348183e-05
104	0x33b28083	8.312147e-08
105	0x380a19be	3.292574e-05
106	0x354bee9d	7.597062e-07
107	0x32894e3a	1.5984472e-08
108	0x363bb09e	2.7967976e-06
109	0x344c380d	1.9019372e-07
110	0x00000000	0.0
111	0x3617ba54	2.260921e-06
112	0x35a40699	1.2220872e-06
113	0x3617c644	2.261616e-06
114	0x35c6c2e0	1.4808866e-06
115	0x359e194e	1.1779282e-06
116	0x3531ee2b	6.628422e-07
117	0x34d0ebea	3.891467e-07
118	0x35261eaf	6.188447e-07
119	0x3527180d	6.2247346e-07
120	0x353b89c6	6.9863415e-07
121	0x34c28920	3.6235087e-07
122	0x34de87e0	4.1449584e-07
123	0x34bc2be2	3.5049658e-07
124	0x3511594d	5.414666e-07
125	0x3561794f	8.399556e-07
126	0x353bb40e	6.992494e-07
127	0x3520e322	5.9935167e-07
128	0x350cd5ca	5.246517e-07
129	0x352fe009	6.5518594e-07
130	0x35a3da9f	1.2208073e-06
131	0x3602c7cf	1.9487813e-06
132	0x361f8171	2.376819e-06
133	0x360600d8	1.9968047e-06
134	0x361cb07c	2.334854e-06
135	0x35b65b69	1.358666e-06
136	0x372cda4f	1.0302828e-05
137	0x374219e1	1.15693265e-05
138	0x388ae058	6.62214e-05
139	0x359cb67f	1.1676019e-06
140	0x34bb8217	3.4926117e-07
141	0x345fa8c0	2.0829884e-07
142	0x34737df4	2.267696e-07
143	0x34bfddb3	3.573783e-07
144	0x357e9b07	9.484797e-07
145	0x35fb551a	1.8725725e-06
146	0x36b168fd	5.2872333e-06
147	0x33ae8e0c	8.1283446e-08
148	0x36e008b1	6.676732e-06
149	0x353ae830	6.9628277e-07
150	0x35992fb6	1.1413274e-06
151	0x35a8a24f	1.2564213e-06
152	0x356223e1	8.424377e-07
153	0x352ae773	6.366674e-07
154	0x35b43dd3	1.3429038e-06
155	0x35cccf41	1.5259503e-06
156	0x35bc87c8	1.4046609e-06
157	0x36cfef47	6.1969363e-06
158	0x3589334d	1.0222226e-06
159	0x367a928b	3.7338202e-06
160	0x37306e28	1.0516065e-05
161	0x36db7dde	6.5413615e-06
162	0x36ddcad5	6.609926e-06
163	0x373a94aa	1.11210775e-05
164	0x37229e13	9.692757e-06
165	0x364ce77c	3.053311e-06
166	0x361bb1c6	2.3200278e-06
167	0x36377e4b	2.7342637e-06
168	0x360b1f77	2.073093e-06
169	0x360446d8	1.971077e-06
170	0x36067428	2.0035168e-06
171	0x36005fc2	1.9129225e-06
172	0x35dd7159	1.6498772e-06
173	0x35b7746f	1.3668449e-06
174	0x34dcacc7	4.1103905e-07
175	0x363544dc	2.7011183e-06
176	0x34929ade	2.73073e-07
177	0x360daf85	2.1112803e-06
178	0x34938194	2.7475164e-07
179	0x38937774	7.031756e-05
180	0x37e8094d	2.7660886e-05
181	0x37a138a5	1.9219073e-05
182	0x378d49e9	1.6842927e-05
183	0x3757e1dc	1.2867586e-05
184	0x36d35d9c	6.2991876e-06
185	0x3775658e	1.4626783e-05
186	0x3737664f	1.0931471e-05
187	0x377c1aff	1.5026656e-05
188	0x3b106038	0.0022030007
189	0x3b106038	0.0022030007
190	0x3b106038	0.0022030007
191	0x39c721c2	0.0003798139
192	0x3848a649	4.783858e-05
193	0x3aa50857	0.0012590986
194	0x3c0ae860	0.008478254
195	0x3b00254b	0.0019553478
196	0x3b1e9ce2	0.0024202396
197	0x3a059853	0.00050962454
198	0x364d6d69	3.0611066e-06
199	0x3a485940	0.0007642694
200	0x36ea84fe	6.9892258e-06
201	0x35c239a2	1.44709e-06
202	0x39329b1a	0.00017033183
203	0x35a96b32	1.2622679e-06
204	0x00000000	0.0
205	0x37a6b907	1.9874902e-05
206	0x3751a979	1.2496829e-05
207	0x37344c26	1.0746566e-05
208	0x37373534	1.0920037e-05
209	0x371f157e	9.482143e-06
210	0x36a3e976	4.884957e-06
211	0x36773002	3.6833812e-06
212	0x3698e2b1	4.5563434e-06
213	0x378afa06	1.6567308e-05
214	0x382e9525	4.1623734e-05
215	0x37d64309	2.5542004e-05
216	0x37dcfd63	2.6344036e-05
217	0x37c4e706	2.34726e-05
218	0x37825424	1.5536389e-05
219	0x3770783e	1.4333111e-05
220	0x378857a6	1.6253278e-05
221	0x36fc2ecb	7.5156327e-06
222	0x373ae1ce	1.1139038e-05
223	0x373e1edb	1.1332067e-05
224	0x36f98826	7.436628e-06
225	0x37340da2	1.073201e-05
226	0x379d72c9	1.876931e-05
227	0x37cdd9e9	2.4539377e-05
228	0x37e45a3b	2.7221735e-05
229	0x379c665b	1.8644312e-05
230	0x39f641de	0.0004696985
231	0x3a7347be	0.0009280405
232	0x39cf7b3d	0.00039573936
233	0x3661644a	3.3585989e-06
234	0x353e513b	7.089872e-07
235	0x342b9bee	1.5982343e-07
236	0x3479bdc0	2.3258963e-07
237	0x354c77a9	7.617005e-07
238	0x35c1fb7c	1.4452812e-06
239	0x368a01bb	4.112922e-06
240	0x36e1229d	6.709552e-06
241	0x351bd71d	5.805503e-07
242	0x3974f79f	0.000233619
243	0x3813afb2	3.521116e-05
244	0x37f8c2ab	2.9654553e-05
245	0x382ef658	4.171426e-05
246	0x381d0150	3.743294e-05
247	0x39924767	0.0002790049
248	0x3805f3fa	3.1936892e-05
249	0x386713ff	5.5093315e-05
250	0x387c4730	6.014778e-05
251	0x3798f915	1.82358e-05
252	0x38ad91d3	8.276445e-05
253	0x379766ad	1.8048415e-05
254	0x38faaf6d	0.000119536046
255	0x38cd7e02	9.7986325e-05

exp_avg f4 [20]
0	0x345c0915	2.04924e-07
1	0x3ad7b56f	0.001645727
2	0xbb19a766	-0.0023445725
3	0xb8105011	-3.4406843e-05
4	0xb7a5c936	-1.9763229e-05
5	0xb90b923e	-0.00013310552
6	0xba11c946	-0.0005561303
7	0x36ec2101	7.0371902e-06
8	0x346b2289	2.1898644e-07
9	0xb90236aa	-0.0001241813
10	0xb5abf5bd	-1.2812012e-06
11	0x3420bf59	1.4970773e-07
12	0xb61554d7	-2.2252113e-06
13	0xba5d61e5	-0.00084450684
14	0x357602a6	9.1645995e-07
15	0xb9e4d75a	-0.00043647998
16	0xb8fb0f22	-0.000119714314
17	0x35a7aafa	1.249223e-06
18	0xb8e664b5	-0.00010986013
19	0x35d9daee	1.6231477e-06

exp_avg_sq f4 [20]
0	0x386456ca	5.4440265e-05
1	0x38d04158	9.930384e-05
2	0x3aed73bd	0.0018116158
3	0x38120f80	3.4823548e-05
4	0x37c0d5f9	2.2987822e-05
5	0x38358bb1	4.328386e-05
6	0x3916d6cc	0.00014385133
7	0x3973f244	0.00023264537
8	0x380b5862	3.3222495e-05
9	0x38cb029c	9.68028e-05
10	0x3840d296	4.597249e-05
11	0x3811e084	3.477979e-05
12	0x37b3fc82	2.1456046e-05
13	0x3a90c97d	0.0011046376
14	0x3841fb2c	4.6248708e-05
15	0x38aea2f3	8.327318e-05
16	0x3a640fc8	0.00086998614
17	0x37d67695	2.5566007e-05
18	0x38d80583	0.00010300709
19	0x36b9ad6a	5.5336177e-06

exp_avg f4 [1, 20]
0	0xb82f6416	-4.1816464e-05
1	0xbd772265	-0.060335536
2	0xbdf686ae	-0.12037407
3	0xb91852f4	-0.00014526752
4	0xb89f0fa6	-7.5846256e-05
5	0xbad9b8eb	-0.0016610896
6	0xbb3d9073	-0.002892521
7	0xbbfce3c6	-0.0077175824
8	0x3602de49	1.9500897e-06
9	0xbafe1b60	-0.001938682
10	0xb6ecfddc	-7.062901e-06
11	0xb563c15c	-8.4845465e-07
12	0xb884ff95	-6.341856e-05
13	0xbc9d6cfb	-0.019217005
14	0xb652346e	-3.1322957e-06
15	0xbdd4b2b2	-0.10385646
16	0xbd88670c	-0.0666028
17	0xb7ee0d2b	-2.8377943e-05
18	0xbaa44a49	-0.0012534346
19	0xb8772942	-5.8927813e-05

exp_avg_sq f4 [1, 20]
0	0x3b9858e2	0.0046492675
1	0x3cc028e7	0.023457004
2	0x3dce8a79	0.10085005
3	0x3b26dd77	0.0025461593
4	0x3ab11bc9	0.0013512309
5	0x3b245840	0.0025077015
6	0x3c1a1c4b	0.00940616
7	0x3cd4e4cf	0.02598801
8	0x3bb2f1af	0.00546094
9	0x3bae0819	0.005311024
10	0x3b831939	0.0040008095
11	0x3b4f7680	0.0031656325
12	0x3b25110f	0.002518717
13	0x3d9e9703	0.07743647
14	0x3b576fb9	0.0032872988
15	0x3d00ebfa	0.031475045
16	0x3db3ab8b	0.087729536
17	0x3b303ab7	0.0026890466
18	0x3b89867c	0.00419694
19	0x3a8f4694	0.0010931068
