notebooks/lightning_logs/version_174/checkpoints/epoch=14-step=3809.ckpt (torch, 10127 bytes, 3 tensors)

fc1.weight f4 [20, 94]
0.092973724 -0.034787174 -0.03010077 -0.062316757 -0.020926565 0.05764374 -0.029377215 0.11920558
-0.075906835 -0.060465615 0.06590705 0.02041302 -0.033907756 -0.083700046 -0.059296347 -0.001960745
0.00030631572 0.094884425 -0.049861126 0.05628233 -0.13372716 -0.036000833 -0.026618026 -0.10098617
-0.11715329 -0.004570085 -0.014573302 -0.10569679 -0.07948476 -0.06000029 0.025601117 0.033520084
-0.092557356 -0.0024242457 0.028592352 -0.015819699 -0.0038569698 0.0019479176 -0.054217745 0.063305534
-0.028885117 -0.068734124 -0.047064126 -0.080444835 -0.1590424 -0.030117998 0.0366217 0.023530181
-0.07367423 0.006071173 0.032027487 0.049496327 -0.03923826 0.039145496 -0.055635072 -0.04952893
0.046613026 0.071219616 -0.042425934 0.07759661 -0.04327468 -0.0075264475 0.08157695 -0.029580766
0.06279293 -0.029713588 -0.1052156 0.032511976 -0.07197296 0.032482535 -0.09790012 -0.07699227
0.067653894 -0.037377 -0.05465443 -0.08900884 0.070172705 -0.038110156 0.0947863 -0.061294314
-0.05158318 -0.025014443 0.061850704 -0.037040617 -0.06553853 -0.139053 0.012980147 -0.10963957
0.025365325 -0.100508526 0.023374595 0.07993354 -0.06082897 -0.022995573 0.06243998 0.022894733
0.04622886 0.010774006 -0.06935935 -0.0033174509 0.039422408 -0.00010543171 -0.10611874 -0.15363339
0.04109435 0.023101462 0.07911077 -0.007151982 0.017072994 -0.110636294 -0.08517518 0.070524506
-0.09740528 -0.037266508 -0.19772792 -0.08363941 -0.08924049 -0.11062943 -0.09166359 0.0034779157
0.031544335 0.039822835 0.09368939 0.01602192 -0.064396754 0.086423986 0.035412207 0.15589565
0.08067178 0.057409935 0.20093837 0.17188278 0.17326845 0.17732675 0.035144173 0.07002962
0.17850651 0.12113996 -0.3922734 -0.014574075 0.02238643 0.09370526 0.05230149 -0.01162058
0.00016734049 -0.017121213 0.08117297 -0.100106865 0.052272856 0.067942455 -0.011945587 0.07141455
0.10186916 0.087693684 0.060022663 0.10575879 0.09733587 -0.037466284 -0.0031959028 0.032877073
0.051420644 -0.039622802 -0.017953323 0.023730798 -0.123583965 -0.07131571 0.07405849 -0.087243326
-0.06589413 0.008651939 -0.12276866 -0.09147474 -0.008279635 0.010220001 -0.09075122 0.01809539
0.05385237 0.08116706 0.09848443 -0.05518432 -0.09039485 -0.03396917 0.025525393 -0.04511252
0.055843312 0.052729405 0.054343533 0.06614814 0.07464233 0.0945713 -0.024151277 0.037939485
-0.11801865 0.027883327 -0.0536718 0.027996298 -0.049046002 -0.023017336 0.053461798 -0.032703172
0.025052814 0.09209386 -0.10498598 -0.11246068 0.010818981 0.023721717 0.011503175 -0.07773821
-0.1472677 -0.353145 -0.28989664 -0.20378833 -0.109164745 -0.15776326 -0.06250385 -0.015790397
-0.004557813 0.05128823 0.0031162074 0.14261219 0.033142373 0.06464446 0.15726744 0.27050868
0.21855915 0.13902643 0.069247305 0.1557656 0.14388677 0.07602188 0.3267908 0.16910197
-0.6359455 -0.23310328 0.0016219666 0.12749809 -0.0792733 -0.023614928 0.016632762 -0.021828203
0.009388062 0.07605527 0.11094493 0.07546992 0.032956112 0.02689812 0.12391067 0.10480048
0.10636034 -0.0021617063 -0.07708241 0.051066488 -0.054412946 -0.013278424 -0.023323346 -0.02058934
00000000: 0269 be3d ff7c 0ebd e495 f6bc db3f 7fbd
00000010: 306e abbc d81b 6c3d 7ca8 f0bc 0e22 f43d
00000020: 0b75 9bbd cbaa 77bd 47fa 863d 3539 a73c
00000030: dce2 0abd ee6a abbd bae0 72bd d87f 00bb
00000040: 0099 a039 c452 c23d 2e3b 4cbd 4d88 663d
00000050: c6ef 08be 9c75 13bd 0c0e dabc d6d1 cebd
00000060: 10ee efbd a7c0 95bb dcc4 6ebc 8f77 d8bd
00000070: e8c8 a2bd ddc2 75bd 6fb9 d13c 5b4c 093d
00000080: b68e bdbd 18e0 1ebb 823a ea3c 5098 81bc
00000090: 37c5 7cbb 4551 ff3a 6d13 5ebd 55a6 813d
000000a0: 7ba0 ecbc 7ac4 8cbd 50c6 40bd 43c0 a4bd
000000b0: 03dc 22be 05ba f6bc a300 163d 5ec2 c03c
000000c0: 84e2 96bd b1f0 c63b 412f 033d a9bc 4a3d
000000d0: 4cb8 20bd 0757 203d 9ae1 63bd d9de 4abd
000000e0: 4ded 3e3d 97db 913d d1c6 2dbd f9ea 9e3d
000000f0: ca40 31bd 6ba0 f6bb d111 a73d 5d53 f2bc
00000100: 9499 803d e969 f3bc 477b d7bd 472b 053d
00000110: 8f66 93bd 680c 053d dc7f c8bd 20ae 9dbd
00000120: 208e 8a3d a018 19bd 53dd 5fbd 444a b6bd
00000130: b5b6 8f3d 6519 1cbd 521f c23d bf0f 7bbd
00000140: e248 53bd 17eb ccbc 2a57 7d3d e7b7 17bd
00000150: 1139 86bd e963 0ebe afaa 543c b68a e0bd
00000160: f1ca cf3c 6ad7 cdbd 147c bf3c 32b4 a33d
00000170: cc27 79bd 3661 bcbc 11c1 7f3d bc8d bb3c
00000180: 795a 3d3d 7585 303c 460c 8ebd 9769 59bb
00000190: 6479 213d 381b ddb8 c854 d9bd 1252 1dbe
000001a0: 8d52 283d 473f bd3c d404 a23d 2c5b eabb
000001b0: aadc 8b3c 4895 e2bd 5370 aebd 276f 903d
000001c0: 6b7c c7bd c4a4 18bd 3079 4abe 244b abbd
000001d0: b8c3 b6bd af91 e2bd 1fba bbbd beed 633b
000001e0: a234 013d 451d 233d 39e0 bf3d 6740 833c
000001f0: 72e2 83bd 0fff b03d 640c 113d 1ca3 1f3e
00000200: 3f37 a53d ae26 6b3d cac2 4d3e 0a02 303e
00000210: 496d 313e 2595 353e 56f3 0f3d b06b 8f3d
00000220: 69ca 363e 3a18 f83d 0fd8 c8be 1ac8 6ebc
00000230: bf63 b73c 8be8 bf3d 163a 563d 3f64 3ebc
00000240: 1f78 2f39 c941 8cbc 043e a63d d404 cdbd
00000250: 101c 563d 6a25 8b3d 6cb7 43bc cb41 923d
00000260: c7a0 d03d bf98 b33d 53da 753d 1198 d83d
00000270: 0758 c73d 3f76 19bd 5a72 51bb 1caa 063d
00000280: 749e 523d 854b 22bd d912 93bc 1767 c23c
00000290: 9719 fdbd f90d 92bd faab 973d a1ac b2bd
000002a0: 80f3 86bd ddc0 0d3c 236e fbbd 1c57 bbbd
000002b0: 4ea7 07bc cb71 273c c7db b9bd c93c 943c
000002c0: 4d94 5c3d ea3a a63d 34b2 c93d f408 62bd
000002d0: ef20 b9bd 4223 0bbd a11a d13c e8c7 38bd
000002e0: f5bb 643d cafa 573d 5397 5e3d ad78 873d
000002f0: 14de 983d 99ae c13d e6d8 c5bc 6f66 1b3d
00000300: c3b3 f1bd 936b e43c f6d6 5bbd 7e58 e53c
00000310: 76e4 48bd da8e bcbc c2fa 5a3d c3f3 05bd
00000320: 8f3b cd3c b59b bc3d e402 d7bd c951 e6bd
00000330: 1842 313c 0c54 c23c d077 3c3c 3635 9fbd
00000340: 58cd 16be 6ccf b4be 556d 94be e3ad 50be
00000350: c491 dfbd b18c 21be 0502 80bd dd5a 81bc
00000360: b559 95bb 9b13 523d 4939 4c3b ee08 123e
00000370: 4cc0 073d 5164 843d b70a 213e 1d80 8a3e
00000380: f8cd 5f3e f25c 0e3e 88d1 8d3d 0481 1f3e
00000390: 0e57 133e 5cb1 9b3d 2051 a73e 1129 2d3e
000003a0: 53cd 22bf a0b2 6ebe 2b98 d43a dc8e 023e
000003b0: 0a5a a2bd 1874 c1bc 6e41 883c 0fd1 b2bc
000003c0: 63d0 193c dec2 9b3d 1837 e33d f98f 9a3d
000003d0: fdfc 063d 7259 dc3c e1c4 fd3d a2a1 d63d
000003e0: 73d3 d93d 6aab 0dbb 62dd 9dbd 182b 513d
000003f0: 1ce0 5ebd bf8d 59bc 9a10 bfbc faaa a8bc

fc1.bias f4 [20]
-0.03804436 -0.042674735 -0.11193788 -0.06515755 -0.19011497 -0.11451771 -0.047837503 -0.036789272
-0.08997457 -0.06929358 -0.24433596 -0.037634466 -0.018268147 -0.22166865 -0.08392839 0.14097849
0.030369023 -0.01952477 -0.1702993 0.06096092
00000000: 67d4 1bbd b4cb 2ebd b03f e5bd 5271 85bd
00000010: 80ad 42be 4388 eabd 42f1 43bd 59b0 16bd
00000020: 9644 b8bd cbe9 8dbd 3533 7abe 9926 1abd
00000030: 15a7 95bc 1bfd 62be a6e2 abbd aa5c 103e
00000040: 75c8 f83c 69f2 9fbc f162 2ebe 28b2 793d

fc2.weight f4 [1, 20]
-0.05948923 0.35471478 0.738999 -0.5650912 1.0029504 -0.29443544 -0.40538117 -0.15157433
0.2800323 0.34581926 1.0031399 0.6650695 -0.45669588 1.0426183 0.44835687 -1.3258824
-0.6290303 -0.3479631 0.6194516 -0.859794
00000000: fbaa 73bd 2d9d b53e 0a2f 3d3f d1a9 10bf
00000010: ae60 803f 3ec0 96be 1f8e cfbe 4d36 1bbe
00000020: 6560 8f3e 390f b13e e366 803f ff41 2a3f
00000030: 0bd4 e9be 8474 853f 088f e53e 84b6 a9bf
00000040: 2108 21bf 3828 b2be 6194 1e3f 761b 5cbf
